data/critics/MountainCar-v0#default_team#baseline0.pt (torch, 18961 bytes, 15 tensors)

weight f4 [24, 2]
0.31211823 23.417461 0.7836091 -23.19411 0.035091296 0.6430568 0.58423364 20.064808
-0.13362582 24.239561 0.6929038 9.980806 0.86507773 -9.64146 -0.0969466 -0.24210878
-0.2955718 -0.65738875 -0.17349851 -0.59373784 0.3183574 -0.096205994 0.5901706 -4.140381
0.6648497 19.714636 0.41128832 0.41682172 -0.046134952 0.6804275 0.13224012 -0.39042497
-0.51724803 -0.39255542 -0.053317465 13.954732 -0.57534045 -0.5513177 -0.59281623 0.051607046
-0.33491102 0.96006286 -1.4236684 8.533772 1.1468644 -4.210069 -0.19927113 -22.913715
00000000: f6cd 9f3e f656 bb41 9b9a 483f 8a8d b9c1
00000010: e4bb 0f3d 5f9f 243f 5690 153f ba84 a041
00000020: 35d5 08be 9fea c141 2562 313f 62b1 1f41
00000030: bc75 5d3f 6c43 1ac1 f08b c6bd 5deb 77be
00000040: 3055 97be a14a 28bf 98a9 31be 34ff 17bf
00000050: beff a23e a607 c5bd 6c15 173f 007e 84c0
00000060: 9733 2a3f 93b7 9d41 6294 d23e a869 d53e
00000070: 01f8 3cbd 7f30 2e3f f469 073e c8e5 c7be
00000080: 5e6a 04bf 06fd c8be 6a63 5abd 9546 5f41
00000090: 8349 13bf 2823 0dbf cec2 17bf e961 533d
000000a0: 7579 abbe aec6 753f c43a b6bf 558a 0841
000000b0: 74cc 923f e3b8 86c0 bb0d 4cbe 4a4f b7c1

bias f4 [24]
0.19239222 0.6893086 -0.105396956 0.35001734 0.07760549 0.019596351 0.04763691 -0.5634868
-0.52330506 -0.62272084 -0.3753563 0.07267588 0.37228212 -0.2266386 -0.2606737 -0.48087278
-0.5569444 0.04950956 -0.6240967 -0.49294642 -0.20290104 0.024293466 0.15577795 -0.29888234
00000000: 7702 453e 8776 303f 5cda d7bd 7935 b33e
00000010: a1ef 9e3d 8788 a03c ec1e 433d ac40 10bf
00000020: 52f7 05bf a26a 1fbf b32e c0be 17d7 943d
00000030: c39b be3e f313 68be 0677 85be f534 f6be
00000040: e893 0ebf 89ca 4a3d cdc4 1fbf 7963 fcbe
00000050: 4ac5 4fbe 1703 c73c 4184 1f3e 1b07 99be

weight f4 [36, 24]
-0.22836873 0.15002479 -0.18253934 0.13740206 -0.13611566 -0.23055498 -0.029181931 -0.09475378
0.06336231 0.064236484 0.18181437 -0.04107895 0.052918233 0.057979856 -0.094863206 0.17922746
-0.1284128 -0.19764797 -0.062094823 0.086498424 -0.07307417 -0.20044027 0.081247285 -0.031255227
-0.12824742 -0.13764206 -0.121139854 -0.22543542 -0.22554056 0.011039961 0.113502756 -0.0313238
0.11667459 -0.041198336 -0.04843918 -0.13769664 -0.18080471 0.05323064 0.027261423 -0.1639502
-0.11959789 -0.103942275 0.12924004 -0.04619371 0.08359953 -0.2267539 0.14323138 0.1260854
-0.163445 0.12747625 0.040746365 -0.0025792774 0.03157069 -0.08443694 -0.07495067 -0.045358364
0.17075169 -0.020434102 0.12214456 -0.008316483 -0.054806087 0.10213364 -0.043895215 -0.120871305
0.030852001 -0.0883712 0.18212712 -0.07158111 -0.17024995 0.05505614 0.12554862 0.116595745
-0.4249803 -0.70836955 0.11441989 -0.4250649 -0.5045181 -0.28018612 -0.14108957 0.18052149
0.09113057 0.17187536 -0.12659143 -0.05191529 -0.44085032 -0.031218536 0.18286133 0.093861856
0.12531488 -0.1014318 0.030486682 0.15196285 -0.4421198 0.15824682 0.13714837 0.05519615
-0.1199806 0.0050764782 0.08679782 -0.01874942 -0.028016225 0.009109707 0.10857856 -0.013360549
-0.031403933 -0.12445361 -0.0924912 0.043714978 0.16093169 -0.1803748 -0.0455861 -0.17473146
-0.16292472 -0.19503756 0.05473002 0.07901595 -0.17074336 0.05940653 -0.063255385 0.02082256
0.23273869 -0.18327859 0.058544636 0.20511593 0.075463235 -0.1342936 -0.31593674 -0.034491733
0.18486677 0.024549771 0.039354317 0.5000845 0.0007497389 0.0691757 -0.14059794 -0.1080587
0.13132197 -0.17397316 0.13666219 -0.12052129 -0.37428617 -0.9882029 0.40287682 0.13292108
0.34133852 0.0020776654 0.124576524 -0.013806511 -0.232976 -0.17527476 0.36461857 0.10512763
-0.0045607295 0.1547271 0.18343747 0.8677403 -0.3953646 -0.11150938 0.08736443 0.04291302
-0.07878626 -0.49911216 -0.17993593 0.06128673 -0.82910854 -0.6908713 0.98477036 0.16291682
-0.15098646 -0.05938847 -0.12965705 -0.097953774 -0.10317969 0.036025114 -0.12242806 0.037586197
-0.11186906 0.10548556 0.12798041 -0.2605044 -0.106013626 -0.06482122 0.16994715 0.10259473
-0.0057199043 -0.67330784 -0.1916535 -0.19422935 -0.52366066 0.040771767 -0.145361 -0.1591663
-0.12499239 -0.44701156 -0.15459523 -0.48215458 -0.33083633 -0.2259273 -0.4573572 0.06752127
0.024493683 0.17495532 0.0026278228 -0.04584968 -0.28611332 -0.14465803 -0.046468485 -0.10189116
0.017126888 -0.1399343 0.08334351 -0.0858788 -0.20795278 -0.27579427 -0.057422597 -0.45784643
2.0688796 1.1497955 -0.13270004 -0.9022389 2.231886 0.56468457 0.24562205 -0.05975934
0.01293442 -0.18465108 0.16281259 -0.44701248 -0.79177564 0.004758269 -0.07007711 0.067665
-0.09209581 0.41242534 -0.06450221 0.18939704 0.34626353 0.7017591 -0.5318437 -2.381189
-0.31519315 -0.24457143 0.17598788 -0.54347384 -0.2112887 -0.115779676 -0.009768693 0.0061862557
0.16142368 0.15216604 0.02977084 -0.09545645 -0.5324888 0.028294137 -0.11995567 0.030598227
00000000: 7ed9 69be 19a0 193e 98eb 3abe 20b3 0c3e
00000010: e761 0bbe 9b16 6cbe f20e efbc 450e c2bd
00000020: 19c4 813d 6b8e 833d 8c2d 3a3e 6742 28bd
00000030: cac0 583d 497c 6d3d a447 c2bd 6787 373e
00000040: a57e 03be 3b64 4abe 2457 7ebd 1626 b13d
00000050: e9a7 95bd 3740 4dbe fa64 a63d 7b05 00bd
00000060: 4b53 03be 0af2 0cbe 2c18 f8bd 8bd8 66be
00000070: 1bf4 66be f4e0 343c 2274 e83d 634d 00bd
00000080: 16f3 ee3d 96bf 28bd 2968 46bd 5900 0dbe
00000090: df24 39be 5f08 5a3d 5953 df3c 90e2 27be
000000a0: bdef f4bd b0df d4bd 8057 043e 9e35 3dbd
000000b0: 3b36 ab3d 2d32 68be 3fab 123e 881c 013e
000000c0: 205e 27be 2289 023e a9e5 263d 1809 29bb
000000d0: 4550 013d 46ed acbd bd7f 99bd b1c9 39bd
000000e0: 88d9 2e3e 6b65 a7bc ed26 fa3d dc41 08bc
000000f0: 597c 60bd 712b d13d 78cb 33bd 608b f7bd
00000100: 56bd fc3c f6fb b4bd 887f 3a3e 1e99 92bd
00000110: 0156 2ebe 8c82 613d d18f 003e c0c9 ee3d
00000120: 0597 d9be b557 35bf fa54 ea3d 1ba2 d9be
00000130: 1928 01bf 8e74 8fbe c979 10be a0da 383e
00000140: aaa2 ba3d 1800 303e 2fa1 01be 21a5 54bd
00000150: 22b7 e1be 04be ffbc 0040 3b3e a53a c03d
00000160: 8b52 003e 7abb cfbd 35bf f93c 269c 1b3e
00000170: 875d e2be 740b 223e 9f70 0c3e 5c15 623d
00000180: 64b8 f5bd 9658 a63b 0ec3 b13d 6298 99bc
00000190: 4882 e5bc e140 153c 705e de3d 34e6 5abc
000001a0: 69a1 00bd 89e1 febd 076c bdbd 7a0e 333d
000001b0: 47cb 243e 2cb4 38be 7eb8 3abd ceec 32be
000001c0: bdd5 26be edb7 47be 962c 603d 1dd3 a13d
000001d0: 59d7 2ebe 4354 733d 0a8c 81bd 1394 aa3c
000001e0: 0d53 6e3e 62ad 3bbe 80cc 6f3d e909 523e
000001f0: 788c 9a3d 4384 09be 76c2 a1be 3447 0dbd
00000200: b74d 3d3e 9a1c c93c fe31 213d 8a05 003f
00000210: 208a 443a fdab 8d3d e8f8 0fbe e14d ddbd
00000220: 4479 063e 0526 32be 2cf1 0b3e ded3 f6bd
00000230: 70a2 bfbe defa 7cbf df45 ce3e 771c 083e
00000240: ecc3 ae3e 7129 083b fa21 ff3d b434 62bc
00000250: 4391 6ebe 3a7b 33be 49af ba3e 284d d73d
00000260: 2c72 95bb c870 1e3e 08d7 3b3e 3a24 5e3f
00000270: 3b6d cabe 085f e4bd 1fec b23d 90c5 2f3d
00000280: b15a a1bd a18b ffbe 2041 38be cb07 7b3d
00000290: 7540 54bf f1dc 30bf e919 7c3f abd3 263e
000002a0: 329c 1abe 5341 73bd d1c4 04be fd9b c8bd
000002b0: e04f d3bd 128f 133d 90bb fabd fcf3 193d
000002c0: 9b1b e5bd d008 d83d 4c0d 033e d560 85be
000002d0: ac1d d9bd fdc0 84bd a006 2e3e 301d d23d
000002e0: 096e bbbb e75d 2cbf d140 44be 0fe4 46be
000002f0: a00e 06bf 4c00 273d 84d9 14be 7efc 22be
00000300: 03fc ffbd b3de e4be 364e 1ebe f7dc f6be
00000310: 6163 a9be 7c59 67be b92a eabe 9748 8a3d
00000320: faa6 c83c 7d27 333e 8d37 2c3b e0cc 3bbd
00000330: 727d 92be 3c21 14be bd55 3ebd 50ac d0bd
00000340: b04d 8c3c f04a 0fbe 01b0 aa3d 39e1 afbd
00000350: 93f1 54be e834 8dbe f533 6bbd d96a eabe
00000360: 8668 0440 802c 933f 85e2 07be 21f9 66bf
00000370: 38d7 0e40 2b8f 103f 5984 7b3e 36c6 74bd
00000380: e4ea 533c 2c15 3dbe 58b8 263e d2de e4be
00000390: cfb1 4abf 41eb 9b3b 9684 8fbd f393 8a3d
000003a0: ba9c bcbd 6a29 d33e bc19 84bd 4cf1 413e
000003b0: 7449 b13e 7ca6 333f e926 08bf 6765 18c0
000003c0: ff60 a1be ef70 7abe 2b36 343e 1a21 0bbf
000003d0: 115c 58be e51d edbd de0c 20bc 13b6 ca3b
000003e0: 404c 253e 6ad1 1b3e fae1 f33c ac7e c3bd
000003f0: 3051 08bf 1bc9 e73c 51ab f5bd 22a9 fa3c

bias f4 [36]
-0.15565994 -0.20226604 -0.19941074 -0.54967254 -0.15536766 -0.03295085 -0.20459974 -0.2382894
-0.3397026 0.763943 -0.2682606 0.76906484 -0.016989257 -0.24115583 -0.17847787 -0.22415945
-0.72649884 0.8064853 -0.05963285 -0.4716181 -0.17954633 -0.17276992 -0.19699413 0.8293391
-0.31896672 -0.20858432 -0.43938112 0.035666823 -0.11796314 -0.1999065 -0.1004896 -0.028088152
0.89095384 -0.43867967 0.9395906 -0.3159007
00000000: 5265 1fbe d41e 4fbe 5432 4cbe 57b7 0cbf
00000010: b318 1fbe 78f7 06bd 9882 51be 2302 74be
00000020: 80ed adbe c591 433f 7459 89be 6fe1 443f
00000030: 0e2d 8bbc 8ef1 76be e7c2 36be 0e8a 65be
00000040: d4fb 39bf d275 4e3f 9341 74bd ed77 f1be
00000050: feda 37be 99ea 30be d4b8 49be 914f 543f
00000060: 9b4f a3be 2197 55be 90f6 e0be 6017 123d
00000070: a996 f1bd 4ab4 4cbe 7ecd cdbd 2019 e6bc
00000080: 8d15 643f 9f9a e0be 0289 703f bdbd a1be

weight f4 [1, 36]
-0.062488522 0.018772641 0.07945442 -0.006227111 0.12414907 0.023918979 0.12335245 -0.100618705
0.20971866 0.55710465 -0.2239511 0.66052616 0.047015235 0.07788358 0.07073809 0.23480955
0.024636043 0.6519943 -0.06851921 0.17667511 0.038505405 -0.045899685 -0.16388394 0.71629417
2.7031693 -0.045432765 -1.8212595 0.015043709 -0.06595558 -0.055298943 0.13043065 -0.0070352284
0.6425011 -0.015278658 0.64233917 0.21927719
00000000: f7f3 7fbd 15c9 993c 00b9 a23d cb0c ccbb
00000010: de41 fe3d bcf1 c33c 36a0 fc3d 2e11 cebd
00000020: 7dc0 563e 699e 0e3f 7053 65be 3e18 293f
00000030: 0c93 403d 6d81 9f3d 22df 903d ea71 703e
00000040: 87d1 c93c 19e9 263f cd53 8cbd 52ea 343e
00000050: d8b7 1d3d 4f01 3cbd 31d1 27be 0e5f 373f
00000060: ba00 2d40 b517 3abd 081f e9bf e479 763c
00000070: b813 87bd 2581 62bd 9d8f 053e c687 e6bb
00000080: f47a 243f 5653 7abc 5770 243f 338a 603e

exp_avg f4 [24, 2]
-0.060548816 1.0351565e-08 -0.04193026 0.00011409959 0.0 0.0 0.019260842 -0.0004811285
-0.07449143 3.288748e-05 -6e-45 6e-45 -6e-45 -6e-45 0.0 0.0
0.0 0.0 0.0 0.0 0.0 0.0 -6e-45 -6e-45
0.016575389 -0.00040241348 0.0 0.0 0.0 0.0 0.0 0.0
0.0 0.0 -0.01384627 -2.4751878e-05 0.0 0.0 0.0 0.0
-6e-45 6e-45 -0.013203186 5.9441212e-05 -6e-45 -6e-45 0.0003683158 6.58438e-05
00000000: 0902 78bd aad6 3132 10bf 2bbd c048 ef38
00000010: 0000 0000 0000 0000 eac8 9d3c f93f fcb9
00000020: f68e 98bd aaf0 0938 0400 0080 0400 0000
00000030: 0400 0080 0400 0080 0000 0000 0000 0000
00000040: 0000 0000 0000 0000 0000 0000 0000 0000
00000050: 0000 0000 0000 0000 0400 0080 0400 0080
00000060: 1cc9 873c 06fb d2b9 0000 0000 0000 0000
00000070: 0000 0000 0000 0000 0000 0000 0000 0000
00000080: 0000 0000 0000 0000 77db 62bc 41a2 cfb7
00000090: 0000 0000 0000 0000 0000 0000 0000 0000
000000a0: 0400 0080 0400 0000 2d52 58bc 8450 7938
000000b0: 0400 0080 0400 0080 831a c139 9f15 8a38

exp_avg_sq f4 [24, 2]
0.22567979 3.931122e-05 0.14272851 1.4196698e-05 0.0 0.0 0.10802268 1.6703705e-05
0.36270893 4.8171867e-05 7.3500017e-10 1.7131141e-13 1.245772e-12 4.3177163e-16 0.0 0.0
0.0 0.0 0.0 0.0 0.0 0.0 1.6314947e-14 1.2396952e-18
0.073704876 1.1782626e-05 0.0 0.0 0.0 0.0 0.0 0.0
0.0 0.0 0.008948229 1.2436174e-06 0.0 0.0 0.0 0.0
5.2527707e-06 1.9548527e-09 0.022859963 2.7984343e-06 3.0958316e-14 4.780257e-18 0.0059358925 5.5545734e-06
00000000: 9a18 673e 1ae2 2438 6c27 123e 5b2e 6e37
00000010: 0000 0000 0000 0000 ff3a dd3d ef1e 8c37
00000020: fcb4 b93e 260c 4a38 0a09 4a30 27e1 402a
00000030: ab53 af2b 3fe6 f825 0000 0000 0000 0000
00000040: 0000 0000 0000 0000 0000 0000 0000 0000
00000050: 0000 0000 0000 0000 b5f3 9228 5cf2 b621
00000060: 95f2 963d fead 4537 0000 0000 0000 0000
00000070: 0000 0000 0000 0000 0000 0000 0000 0000
00000080: 0000 0000 0000 0000 989b 123c 5eea a635
00000090: 0000 0000 0000 0000 0000 0000 0000 0000
000000a0: f540 b036 2256 0631 d144 bb3c bccc 3b36
000000b0: 826c 0b29 405c b022 e081 c23b 6c61 ba36

exp_avg f4 [24]
0.18650548 0.09037815 0.0 -0.042688113 0.20564169 6e-45 6e-45 0.0
0.0 0.0 0.0 6e-45 -0.03636176 0.0 0.0 0.0
0.0 0.040966254 0.0 0.0 6e-45 0.027759355 6e-45 -0.005061413
00000000: 4bfb 3e3e 2e18 b93d 0000 0000 bbd9 2ebd
00000010: bc93 523e 0400 0000 0400 0000 0000 0000
00000020: 0000 0000 0000 0000 0000 0000 0400 0000
00000030: 12f0 14bd 0000 0000 0000 0000 0000 0000
00000040: 0000 0000 3bcc 273d 0000 0000 0000 0000
00000050: 0400 0000 9667 e33c 0400 0000 36da a5bb

exp_avg_sq f4 [24]
1.819933 1.1693239 0.0 0.90945333 2.7402384 8.916193e-09 1.8955768e-11 0.0
0.0 0.0 0.0 1.3473658e-13 0.6255951 0.0 0.0 0.0
0.0 0.06780512 0.0 0.0 6.952368e-05 0.1996561 3.4760291e-13 0.035188567
00000000: 91f3 e83f 68ac 953f 0000 0000 efd1 683f
00000010: 1160 2f40 d52d 1932 98bc a62d 0000 0000
00000020: 0000 0000 0000 0000 0000 0000 2db3 172a
00000030: 0027 203f 0000 0000 0000 0000 0000 0000
00000040: 0000 0000 69dd 8a3d 0000 0000 0000 0000
00000050: 3ecd 9138 a672 4c3e dcae c32a e321 103d

exp_avg f4 [36, 24]
6e-45 6e-45 0.0 6e-45 6e-45 6e-45 6e-45 0.0
0.0 0.0 0.0 6e-45 6e-45 0.0 0.0 0.0
0.0 6e-45 0.0 0.0 6e-45 6e-45 6e-45 6e-45
6e-45 0.0 0.0 6e-45 6e-45 6e-45 6e-45 0.0
0.0 0.0 0.0 6e-45 6e-45 0.0 0.0 0.0
0.0 0.0 0.0 0.0 6e-45 6e-45 6e-45 6e-45
0.0 0.0 0.0 0.0 0.0 0.0 0.0 0.0
0.0 0.0 0.0 0.0 0.0 0.0 0.0 0.0
0.0 0.0 0.0 0.0 0.0 0.0 0.0 0.0
6e-45 6e-45 0.0 6e-45 6e-45 6e-45 0.0 0.0
0.0 0.0 0.0 0.0 6e-45 0.0 0.0 0.0
0.0 6e-45 0.0 0.0 6e-45 6e-45 0.0 6e-45
0.0 0.0 0.0 0.0 0.0 0.0 0.0 0.0
0.0 0.0 0.0 0.0 0.0 0.0 0.0 0.0
0.0 0.0 0.0 0.0 0.0 0.0 0.0 0.0
6e-45 -6e-45 0.0 6e-45 6e-45 6e-45 6e-45 0.0
0.0 0.0 0.0 6e-45 6e-45 0.0 0.0 0.0
0.0 6e-45 0.0 0.0 6e-45 -6e-45 6e-45 -6e-45
-6e-45 6e-45 0.0 6e-45 -6e-45 -6e-45 -6e-45 0.0
0.0 0.0 0.0 -6e-45 6e-45 0.0 0.0 0.0
0.0 6e-45 0.0 0.0 6e-45 6e-45 -6e-45 -6e-45
6e-45 6e-45 0.0 6e-45 6e-45 6e-45 6e-45 0.0
0.0 0.0 0.0 6e-45 6e-45 0.0 0.0 0.0
0.0 6e-45 0.0 0.0 6e-45 6e-45 6e-45 6e-45
6e-45 6e-45 0.0 6e-45 6e-45 6e-45 6e-45 0.0
0.0 0.0 0.0 0.0 6e-45 0.0 0.0 0.0
0.0 6e-45 0.0 0.0 6e-45 6e-45 0.0 6e-45
0.0013735658 0.0033506837 0.0 0.0015952544 0.00184919 6e-45 6e-45 0.0
0.0 0.0 0.0 -6e-45 0.0014935824 0.0 0.0 0.0
0.0 0.0011061806 0.0 0.0 6e-45 0.00810879 -6e-45 -1.39966705e-05
6e-45 6e-45 0.0 6e-45 6e-45 6e-45 6e-45 0.0
0.0 0.0 0.0 6e-45 6e-45 0.0 0.0 0.0
00000000: 0400 0000 0400 0000 0000 0000 0400 0000
00000010: 0400 0000 0400 0000 0400 0000 0000 0000
00000020: 0000 0000 0000 0000 0000 0000 0400 0000
00000030: 0400 0000 0000 0000 0000 0000 0000 0000
00000040: 0000 0000 0400 0000 0000 0000 0000 0000
00000050: 0400 0000 0400 0000 0400 0000 0400 0000
00000060: 0400 0000 0000 0000 0000 0000 0400 0000
00000070: 0400 0000 0400 0000 0400 0000 0000 0000
00000080: 0000 0000 0000 0000 0000 0000 0400 0000
00000090: 0400 0000 0000 0000 0000 0000 0000 0000
000000a0: 0000 0000 0000 0000 0000 0000 0000 0000
000000b0: 0400 0000 0400 0000 0400 0000 0400 0000
000000c0: 0000 0000 0000 0000 0000 0000 0000 0000
000000d0: 0000 0000 0000 0000 0000 0000 0000 0000
000000e0: 0000 0000 0000 0000 0000 0000 0000 0000
000000f0: 0000 0000 0000 0000 0000 0000 0000 0000
00000100: 0000 0000 0000 0000 0000 0000 0000 0000
00000110: 0000 0000 0000 0000 0000 0000 0000 0000
00000120: 0400 0000 0400 0000 0000 0000 0400 0000
00000130: 0400 0000 0400 0000 0000 0000 0000 0000
00000140: 0000 0000 0000 0000 0000 0000 0000 0000
00000150: 0400 0000 0000 0000 0000 0000 0000 0000
00000160: 0000 0000 0400 0000 0000 0000 0000 0000
00000170: 0400 0000 0400 0000 0000 0000 0400 0000
00000180: 0000 0000 0000 0000 0000 0000 0000 0000
00000190: 0000 0000 0000 0000 0000 0000 0000 0000
000001a0: 0000 0000 0000 0000 0000 0000 0000 0000
000001b0: 0000 0000 0000 0000 0000 0000 0000 0000
000001c0: 0000 0000 0000 0000 0000 0000 0000 0000
000001d0: 0000 0000 0000 0000 0000 0000 0000 0000
000001e0: 0400 0000 0400 0080 0000 0000 0400 0000
000001f0: 0400 0000 0400 0000 0400 0000 0000 0000
00000200: 0000 0000 0000 0000 0000 0000 0400 0000
00000210: 0400 0000 0000 0000 0000 0000 0000 0000
00000220: 0000 0000 0400 0000 0000 0000 0000 0000
00000230: 0400 0000 0400 0080 0400 0000 0400 0080
00000240: 0400 0080 0400 0000 0000 0000 0400 0000
00000250: 0400 0080 0400 0080 0400 0080 0000 0000
00000260: 0000 0000 0000 0000 0000 0000 0400 0080
00000270: 0400 0000 0000 0000 0000 0000 0000 0000
00000280: 0000 0000 0400 0000 0000 0000 0000 0000
00000290: 0400 0000 0400 0000 0400 0080 0400 0080
000002a0: 0400 0000 0400 0000 0000 0000 0400 0000
000002b0: 0400 0000 0400 0000 0400 0000 0000 0000
000002c0: 0000 0000 0000 0000 0000 0000 0400 0000
000002d0: 0400 0000 0000 0000 0000 0000 0000 0000
000002e0: 0000 0000 0400 0000 0000 0000 0000 0000
000002f0: 0400 0000 0400 0000 0400 0000 0400 0000
00000300: 0400 0000 0400 0000 0000 0000 0400 0000
00000310: 0400 0000 0400 0000 0400 0000 0000 0000
00000320: 0000 0000 0000 0000 0000 0000 0000 0000
00000330: 0400 0000 0000 0000 0000 0000 0000 0000
00000340: 0000 0000 0400 0000 0000 0000 0000 0000
00000350: 0400 0000 0400 0000 0000 0000 0400 0000
00000360: 3809 b43a 2597 5b3b 0000 0000 db17 d13a
00000370: 8560 f23a 0400 0000 0400 0000 0000 0000
00000380: 0000 0000 0000 0000 0000 0000 0400 0080
00000390: 4fc4 c33a 0000 0000 0000 0000 0000 0000
000003a0: 0000 0000 43fd 903a 0000 0000 0000 0000
000003b0: 0400 0000 bbda 043c 0400 0080 3ed3 6ab7
000003c0: 0400 0000 0400 0000 0000 0000 0400 0000
000003d0: 0400 0000 0400 0000 0400 0000 0000 0000
000003e0: 0000 0000 0000 0000 0000 0000 0400 0000
000003f0: 0400 0000 0000 0000 0000 0000 0000 0000

exp_avg_sq f4 [36, 24]
9.777148e-25 1.9434698e-25 0.0 3.131028e-25 1.6542926e-25 7.092779e-27 5.4128973e-25 0.0
0.0 0.0 0.0 1.2531258e-26 6.5693664e-25 0.0 0.0 0.0
0.0 1.2717615e-26 0.0 0.0 7.21259e-27 2.724069e-26 1.0572664e-24 1.2412059e-24
1.225347e-22 0.0 0.0 6.501515e-23 3.251335e-23 3.45878e-24 9.973316e-23 0.0
0.0 0.0 0.0 3.9366463e-27 8.0951625e-23 0.0 0.0 0.0
0.0 0.0 0.0 0.0 1.7074474e-24 2.4664215e-24 1.5877602e-22 2.7313573e-22
0.0 0.0 0.0 0.0 0.0 0.0 0.0 0.0
0.0 0.0 0.0 0.0 0.0 0.0 0.0 0.0
0.0 0.0 0.0 0.0 0.0 0.0 0.0 0.0
4.8861497e-18 6.546998e-16 0.0 1.2445665e-15 8.182522e-17 3.683972e-16 0.0 0.0
0.0 0.0 0.0 0.0 1.7982434e-16 0.0 0.0 0.0
0.0 2.3777136e-15 0.0 0.0 5.131e-15 6.4026606e-15 0.0 8.384696e-16
0.0 0.0 0.0 0.0 0.0 0.0 0.0 0.0
0.0 0.0 0.0 0.0 0.0 0.0 0.0 0.0
0.0 0.0 0.0 0.0 0.0 0.0 0.0 0.0
8.1497634e-19 2.9350726e-18 0.0 2.3165132e-17 1.149325e-17 6.8259064e-18 9.66992e-19 0.0
0.0 0.0 0.0 8.977323e-19 1.1383851e-17 0.0 0.0 0.0
0.0 1.1206258e-17 0.0 0.0 6.1748574e-18 3.5963153e-19 1.5948617e-18 9.997651e-19
1.3352267e-18 2.0387292e-16 0.0 2.9340285e-17 1.490901e-17 1.05681166e-17 1.7426348e-18 0.0
0.0 0.0 0.0 9.380845e-19 1.10704625e-17 0.0 0.0 0.0
0.0 2.6141263e-17 0.0 0.0 2.065968e-16 1.2701666e-19 3.4082372e-18 4.6847994e-19
1.0668953e-21 2.1482482e-20 0.0 7.615967e-22 3.7419431e-22 6.076649e-23 5.865994e-22 0.0
0.0 0.0 0.0 7.7580376e-24 1.0334849e-21 0.0 0.0 0.0
0.0 2.089491e-21 0.0 0.0 2.1698327e-20 3.4455778e-23 1.252545e-21 1.6857292e-21
4.323731e-20 8.640476e-22 0.0 2.3344222e-18 3.4935492e-19 9.215406e-19 3.6649804e-21 0.0
0.0 0.0 0.0 0.0 5.828322e-19 0.0 0.0 0.0
0.0 2.870164e-18 0.0 0.0 2.3915417e-18 1.1809214e-19 0.0 2.5775869e-20
0.0002719724 0.0034737226 0.0 0.0005617657 0.0004901092 9.6725336e-11 3.0201542e-14 0.0
0.0 0.0 0.0 6.977801e-17 0.0004994895 0.0 0.0 0.0
0.0 0.00015818237 0.0 0.0 8.400281e-06 0.0050664437 3.1658007e-16 7.414296e-07
6.661412e-11 8.32355e-09 0.0 4.366695e-10 2.6838182e-10 1.1184951e-26 7.8056125e-25 0.0
0.0 0.0 0.0 7.008614e-28 4.2803674e-10 0.0 0.0 0.0
00000000: 464b 9717 0497 7016 0000 0000 1ecd c116
00000010: a0ca 4c16 aa7c 0c14 6485 2717 0000 0000
00000020: 0000 0000 0000 0000 0000 0000 0735 7814
00000030: e24f 4b17 0000 0000 0000 0000 0000 0000
00000040: 0000 0000 f8e5 7b14 0000 0000 0000 0000
00000050: 2ddc 0e14 ade3 0615 a39a a317 3b11 c017
00000060: a722 141b 0000 0000 0000 0000 6e32 9d1a
00000070: 9439 1d1a 19ce 8518 d623 f11a 0000 0000
00000080: 0000 0000 0000 0000 0000 0000 56f2 9b13
00000090: a1ba c31a 0000 0000 0000 0000 0000 0000
000000a0: 0000 0000 0000 0000 0000 0000 0000 0000
000000b0: 7b1b 0418 83d4 3e18 ccf2 3f1b b519 a51b
000000c0: 0000 0000 0000 0000 0000 0000 0000 0000
000000d0: 0000 0000 0000 0000 0000 0000 0000 0000
000000e0: 0000 0000 0000 0000 0000 0000 0000 0000
000000f0: 0000 0000 0000 0000 0000 0000 0000 0000
00000100: 0000 0000 0000 0000 0000 0000 0000 0000
00000110: 0000 0000 0000 0000 0000 0000 0000 0000
00000120: 6144 b422 52b4 3c26 0000 0000 665c b326
00000130: 16ad bc24 d55d d425 0000 0000 0000 0000
00000140: 0000 0000 0000 0000 0000 0000 0000 0000
00000150: c752 4f25 0000 0000 0000 0000 0000 0000
00000160: 0000 0000 1355 2b27 0000 0000 0000 0000
00000170: 1fdd b827 1fae e627 0000 0000 23ac 7126
00000180: 0000 0000 0000 0000 0000 0000 0000 0000
00000190: 0000 0000 0000 0000 0000 0000 0000 0000
000001a0: 0000 0000 0000 0000 0000 0000 0000 0000
000001b0: 0000 0000 0000 0000 0000 0000 0000 0000
000001c0: 0000 0000 0000 0000 0000 0000 0000 0000
000001d0: 0000 0000 0000 0000 0000 0000 0000 0000
000001e0: df89 7021 f491 5822 0000 0000 1fa9 d523
000001f0: 5703 5423 ddd4 fb22 edb3 8e21 0000 0000
00000200: 0000 0000 0000 0000 0000 0000 5e7b 8421
00000210: b7fe 5123 0000 0000 0000 0000 0000 0000
00000220: 0000 0000 0fb8 4e23 0000 0000 0000 0000
00000230: e1cf e322 fb49 d420 2c5c eb21 0f8a 9321
00000240: 700b c521 aa0c 6b25 0000 0000 e54e 0724
00000250: e882 8923 85f2 4223 7195 0022 0000 0000
00000260: 0000 0000 0000 0000 0000 0000 d56f 8a21
00000270: c836 4c23 0000 0000 0000 0000 0000 0000
00000280: 0000 0000 501c f123 0000 0000 0000 0000
00000290: 9d30 6e25 6ef4 1520 c87b 7b22 5845 0a21
000002a0: 8339 a11c 74e5 ca1e 0000 0000 b12d 661c
000002b0: c42f e21b a3ec 921a ee49 311c 0000 0000
000002c0: 0000 0000 0000 0000 0000 0000 f10f 1619
000002d0: 032d 9c1c 0000 0000 0000 0000 0000 0000
000002e0: 0000 0000 a2e0 1d1d 0000 0000 0000 0000
000002f0: 56ef cc1e 309e 261a 7d47 bd1c 7dbd fe1c
00000300: b32e 4c1f 3992 821c 0000 0000 fd3f 2c22
00000310: 0639 ce20 d2fe 8721 8475 8a1d 0000 0000
00000320: 0000 0000 0000 0000 0000 0000 0000 0000
00000330: 8e05 2c21 0000 0000 0000 0000 0000 0000
00000340: 0000 0000 ddc7 5322 0000 0000 0000 0000
00000350: f276 3022 296b 0b20 0000 0000 3a72 f31e
00000360: 8597 8e39 65a7 633b 0000 0000 7543 133a
00000370: ac7a 003a 86b3 d42e 0204 0829 0000 0000
00000380: 0000 0000 0000 0000 0000 0000 abe5 a024
00000390: 2cf0 023a 0000 0000 0000 0000 0000 0000
000003a0: 0000 0000 c2dd 2539 0000 0000 0000 0000
000003b0: efee 0c37 6904 a63b f97e b625 a706 4735
000003c0: 6a7c 922e 5cff 0e32 0000 0000 c50f f02f
000003d0: 628b 932f 708a 5d14 6f92 7117 0000 0000
000003e0: 0000 0000 0000 0000 0000 0000 a21c 5e12
000003f0: d150 eb2f 0000 0000 0000 0000 0000 0000

exp_avg f4 [36]
6e-45 6e-45 0.0 6e-45 0.0 6e-45 6e-45 6e-45
6e-45 0.011375177 6e-45 0.01344758 6e-45 6e-45 6e-45 6e-45
6e-45 0.013279478 6e-45 6e-45 6e-45 6e-45 6e-45 0.014567895
0.00015721362 6e-45 1.8477666e-35 6e-45 0.0 6e-45 6e-45 6e-45
0.013087411 6e-45 0.013086296 6e-45
00000000: 0400 0000 0400 0000 0000 0000 0400 0000
00000010: 0000 0000 0400 0000 0400 0000 0400 0000
00000020: 0400 0000 f35e 3a3c 0400 0000 3d53 5c3c
00000030: 0400 0000 0400 0000 0400 0000 0400 0000
00000040: 0400 0000 2b92 593c 0400 0000 0400 0000
00000050: 0400 0000 0400 0000 0400 0000 2eae 6e3c
00000060: b6d9 2439 0400 0000 fe7c c405 0400 0000
00000070: 0000 0000 0400 0000 0400 0000 0400 0000
00000080: 956c 563c 0400 0000 e767 563c 0400 0000

exp_avg_sq f4 [36]
2.9465087e-24 3.6132394e-22 0.0 1.2135852e-14 0.0 8.6352355e-17 1.6013592e-15 1.6537646e-19
1.1646583e-17 0.01726598 3.655594e-08 0.023974039 1.0686004e-20 2.494385e-24 1.2008459e-15 6.579605e-16
6.5724357e-12 0.022822723 4.2146043e-17 1.9441724e-16 5.637003e-23 2.3800805e-24 5.5719875e-20 0.027383117
0.00071030966 2.868203e-23 5.345177e-06 9.54842e-17 0.0 5.3398397e-24 8.065355e-25 9.396637e-21
0.022803767 9.427432e-22 0.022117862 1.9979884e-24
00000000: 9ef9 6318 2c68 da1b 0000 0000 bd9e 5a28
00000010: 0000 0000 6f1d c724 bac7 e626 f83d 4320
00000020: 6fd7 5623 6271 8d3c ae01 1d33 3465 c43c
00000030: 58da 491e 63fe 4018 650f ad26 eaa4 3d26
00000040: 3d3f e72c b8f6 ba3c 445d 4224 d725 6025
00000050: 5c4b 881a 5a26 3818 9990 831f 8f52 e03c
00000060: 1334 3a3a a2b2 0a1a b95a b336 ec2b dc24
00000070: 0000 0000 3693 ce18 539c 7917 597f 311e
00000080: f7ce ba3c 9c76 8e1c 8530 b53c 3d96 1a18

exp_avg f4 [1, 36]
-6e-45 6e-45 0.0 6e-45 0.0 6e-45 6e-45 6e-45
-6e-45 0.0412737 6e-45 0.032408886 -6e-45 -6e-45 6e-45 -6e-45
6e-45 0.03453843 6e-45 -6e-45 -6e-45 -6e-45 6e-45 0.034583677
2.7864027e-07 -6e-45 -3.2678097e-36 6e-45 0.0 6e-45 6e-45 -6e-45
0.042519838 -6e-45 0.03725231 -6e-45
00000000: 0400 0080 0400 0000 0000 0000 0400 0000
00000010: 0000 0000 0400 0000 0400 0000 0400 0000
00000020: 0400 0080 9c0e 293d 0400 0000 2ebf 043d
00000030: 0400 0080 0400 0080 0400 0000 0400 0080
00000040: 0400 0000 2b78 0d3d 0400 0000 0400 0080
00000050: 0400 0080 0400 0080 0400 0000 9da7 0d3d
00000060: 0798 9534 0400 0080 4cff 8a84 0400 0000
00000070: 0000 0000 0400 0000 0400 0000 0400 0080
00000080: 4829 2e3d 0400 0080 e195 183d 0400 0080

exp_avg_sq f4 [1, 36]
1.7350788e-26 5.845181e-23 0.0 4.526732e-16 0.0 6.710677e-16 4.7769233e-16 4.0663204e-20
5.3916406e-18 0.21338226 8.494977e-08 0.13474302 9.199746e-22 8.805856e-25 1.4899182e-15 3.2001027e-18
2.4234222e-15 0.15583025 3.3142996e-16 2.879669e-19 7.190088e-21 2.20918e-24 1.570558e-20 0.16404116
5.8365026e-07 4.1578154e-27 1.2858973e-07 6.4590614e-16 0.0 7.0725583e-23 1.0671134e-32 5.393777e-20
0.23352817 4.16121e-21 0.18266845 1.2960778e-27
00000000: 79d5 ab14 eb53 8d1a 0000 0000 6379 0226
00000010: 0000 0000 0e6c 4126 79af 0926 cc06 401f
00000020: 9bea c622 e180 5a3e a16d b633 13fa 093e
00000030: cb05 8b1c 9743 8817 48b8 d626 3b20 6c22
00000040: 40a0 2e27 f791 1f3e 6e0e bf25 54fc a920
00000050: 22d1 071e 51ed 2a18 c355 941e 68fa 273e
00000060: 24ac 1c35 42b5 a413 7a12 0a34 762b 3a26
00000070: 0000 0000 0401 ab1a 7ba1 5d0a c3b6 7e1f
00000080: 0222 6f3e c134 9d1d 700d 3b3e 295f cd12
