data/policies/MountainCar-v0#default_team_-200.0#discrete#200#-200.0.pt (torch, 19729 bytes, 18 tensors)

weight f4 [24, 2]
0	0xbee4df69	-0.44701698
1	0x3ea5cf79	0.32384852
2	0x3d7cf440	0.061756372
3	0x3f043dba	0.5165669
4	0xbe9ea283	-0.30983362
5	0xbeda7e7c	-0.42674625
6	0xbec26949	-0.3797095
7	0xbf06f8ba	-0.52723277
8	0x3eafd687	0.3434336
9	0x3ee5f22a	0.4491132
10	0xbf57cec9	-0.84299904
11	0xbeea9ea3	-0.45824155
12	0xbe7cc461	-0.24684288
13	0xbf069145	-0.52565414
14	0x3e319735	0.17342837
15	0xbee0aaf3	-0.43880424
16	0x3e6bae6a	0.23015752
17	0x3ea21224	0.31654465
18	0xbef15ec5	-0.47142616
19	0x3ed7d1c0	0.42152214
20	0xbf108e43	-0.56467074
21	0xbe10613a	-0.14099589
22	0x3ed15537	0.40885326
23	0xbd626fa4	-0.05528225
24	0xbe92b580	-0.286541
25	0xbf146020	-0.57959175
26	0xbe4e24bf	-0.20131205
27	0x3ae6d95c	0.0017612386
28	0x3effe2cb	0.49977717
29	0xbc9cb1ac	-0.01912769
30	0x3e6fd691	0.23421694
31	0xbe102db7	-0.14079939
32	0x3ec1797b	0.37787995
33	0xbdf5b4af	-0.11997353
34	0x3e8e2c03	0.27767953
35	0xbf2bcf15	-0.6711286
36	0x3e95ef86	0.29284304
37	0xbeaab2bf	-0.33339497
38	0xbf2f5de8	-0.68502665
39	0x3ca06447	0.019579066
40	0xbf4fed68	-0.8122163
41	0x3ded35ea	0.11582549
42	0x3d68f3b5	0.056873042
43	0x3f1d695d	0.61488897
44	0x3e7be1fd	0.24597926
45	0x3c279592	0.010228531
46	0x3f012bd3	0.50457495
47	0xbf08cf5b	-0.534414

bias f4 [24]
0	0x3e8dcf11	0.27697042
1	0x3f556430	0.83356
2	0x3f32d850	0.69861317
3	0x3e875f75	0.26440015
4	0x3ec69c6a	0.3879121
5	0x3f01dd4e	0.5072831
6	0xbe8cd73b	-0.27507958
7	0xbe697346	-0.2279788
8	0xbf0c513a	-0.5481144
9	0x3f37a4d4	0.7173588
10	0x3edb7035	0.42859045
11	0xbe11b809	-0.1423036
12	0x3da0c132	0.07849349
13	0x3f3b8650	0.7325182
14	0x3dc49941	0.09599543
15	0xbd96965b	-0.07352897
16	0xbe6a648d	-0.2288992
17	0x3eda4b1b	0.42635426
18	0xbe8908c5	-0.26764503
19	0xbf14be65	-0.5810302
20	0xbd397824	-0.04528059
21	0xbc8037e5	-0.015651653
22	0x3eaaae9b	0.33336338
23	0x3ece95cc	0.4034866

weight f4 [36, 24]
0	0x3d114779	0.035468552
1	0x3e424a98	0.18973768
2	0xbdc85628	-0.09782058
3	0xbca49b98	-0.020093724
4	0x3de4daa5	0.11174516
5	0xbd40d3db	-0.04707704
6	0x3e31084a	0.17288318
7	0x3e1ff7d6	0.15621886
8	0x3e4f9e0b	0.20275132
9	0xbe3d648b	-0.18495385
10	0xbd557d66	-0.052121542
11	0x3e4c4ae9	0.19950451
12	0xbd0a5c49	-0.033779416
13	0x3ca22028	0.019790724
14	0xbdf42300	-0.11920738
15	0x3db28728	0.08717185
16	0xbe1bac34	-0.15202409
17	0xbd6f2fa2	-0.058395036
18	0xbdf20d99	-0.11819
19	0x3e3bb586	0.18330964
20	0xbe3559f4	-0.17710096
21	0xbaea9f20	-0.0017900206
22	0x3dd2dce0	0.10296035
23	0x3dcaf448	0.09909874
24	0xbda5b332	-0.080908194
25	0x3bcd9aea	0.0062745707
26	0x3cd5bf78	0.026092276
27	0x3e5d9730	0.21639705
28	0xbd586bee	-0.052837305
29	0x3df0b971	0.1175412
30	0x3cf5967f	0.029978989
31	0x3c84ed21	0.016226353
32	0x3e0543da	0.13014165
33	0x3db82145	0.08990721
34	0x3e7300a3	0.23730712
35	0xbe27d038	-0.16388023
36	0x3e5e7183	0.21722989
37	0x3bc1d7e6	0.0059156297
38	0x3d45a83c	0.048256144
39	0x3e167c24	0.14695793
40	0xbe3e0085	-0.18554886
41	0x3cba6336	0.022752386
42	0x3ce3bb2f	0.027799217
43	0x3dd37cdb	0.10326549
44	0x3e793f70	0.24340606
45	0x3cb107a5	0.02161009
46	0x3e2915b5	0.16512187
47	0xbdf7066c	-0.12061772
48	0x3e8bbef0	0.2729411
49	0x3eb431c4	0.35194218
50	0x3ecbc394	0.39797652
51	0x3d76e74d	0.06027918
52	0x3e93b0fb	0.28845963
53	0x3ab34c30	0.0013679322
54	0xbc82ac6d	-0.01595136
55	0x3e50863b	0.20363705
56	0x3e249fa0	0.16076517
57	0x3dde1549	0.108439036
58	0x3e28715b	0.16449492
59	0x3b3f47c0	0.0029187053
60	0x3eaf8412	0.3428045
61	0x3da7cf3a	0.08193822
62	0x3dbfa989	0.09358508
63	0xbe3e4f57	-0.18584953
64	0xbb843f37	-0.004035856
65	0x3d9769e1	0.07393242
66	0xbe0b2d78	-0.13591564
67	0x3d8a6cab	0.06759008
68	0x3bebfdf4	0.0072019044
69	0x3db08c29	0.086204834
70	0x3e13369c	0.143763
71	0x3e1363da	0.14393559
72	0xbe479f81	-0.1949444
73	0xbd82371d	-0.06358168
74	0x3c439e3a	0.01193958
75	0x3d618940	0.055062532
76	0xbe3f6af2	-0.1869314
77	0xbe0044a2	-0.12526181
78	0xbe4a0901	-0.19729997
79	0x3da9f4d9	0.08298654
80	0x3e0b494d	0.13602181
81	0xbe10b5f1	-0.14131905
82	0xbe756a2a	-0.2396628
83	0x3e27c46e	0.16383526
84	0xbe72dc3a	-0.23716822
85	0x3d4abdb3	0.049497318
86	0xbdcdde09	-0.100521155
87	0x3e31fd86	0.17381868
88	0xbcf3485f	-0.029697595
89	0xbdb371db	-0.087619506
90	0x3e365f74	0.1780985
91	0xbe32b783	-0.17452817
92	0xbe6ffb03	-0.23435597
93	0x3ddc0e70	0.10744941
94	0x3dc7d534	0.09757462
95	0xbe44d033	-0.19220047
96	0x3ea327fe	0.3186645
97	0x3e6960cb	0.2279083
98	0x3e9829de	0.29719442
99	0x3d5b8210	0.053590834
100	0x3e8a6249	0.2702811
101	0x3e33cf42	0.17559531
102	0x3deae051	0.11468566
103	0x3e426d73	0.18987064
104	0xbe350eee	-0.17681476
105	0x3ec1065f	0.37700173
106	0x3c8e1c50	0.017347485
107	0x3e291d68	0.16515124
108	0x3d1afdf5	0.03783985
109	0x3eb70e55	0.35753122
110	0x3e54caf1	0.20780541
111	0x3e487a35	0.19577868
112	0x3dd3798d	0.10325918
113	0x3ec66ebc	0.3875636
114	0x3deb9c4d	0.115044214
115	0x3d92bd22	0.071649805
116	0x3e9bd0b0	0.30432653
117	0xbc27c851	-0.01024063
118	0x3e840db6	0.2579171
119	0xbc19e7a3	-0.009393605
120	0x3d54c395	0.051944334
121	0x3d58b5f8	0.052907914
122	0x3d0a16b8	0.033713073
123	0x3e858cc3	0.26083955
124	0x3e04af25	0.12957437
125	0x3ec711c9	0.38880756
126	0x3db8099d	0.089862086
127	0x3db9ae0c	0.090664
128	0x3d801bd0	0.06255305
129	0x3e83eee0	0.25768185
130	0x3eb3be29	0.35106018
131	0xbe4b3aef	-0.198467
132	0x3ebde0cc	0.3708557
133	0x3d4c9912	0.049950667
134	0xbd5367df	-0.05161273
135	0x3e01de57	0.12682472
136	0xbe3bcd8f	-0.18340133
137	0x3ea007a0	0.31255817
138	0x3dad07f9	0.08448786
139	0x3e0ce325	0.13758524
140	0x3e59b62a	0.21260896
141	0xbc277ea0	-0.010223061
142	0x3ebf076a	0.37310344
143	0x3e8cdd3f	0.27512547
144	0x3e05db44	0.13071924
145	0xbe0fb270	-0.14032912
146	0xbe3f9906	-0.18710718
147	0xbca575c0	-0.02019775
148	0xbe07cab3	-0.13260917
149	0x3d8b4cd2	0.06801762
150	0x3e36d13f	0.17853259
151	0xbd8c2f35	-0.068449415
152	0x3d02ded9	0.031950805
153	0xbda4658d	-0.08027182
154	0xbd5333df	-0.05156314
155	0x3e091acf	0.13389133
156	0xbd6acc29	-0.05732361
157	0x3d409085	0.047012825
158	0xbe1bc07d	-0.15210147
159	0x3d627e28	0.055296093
160	0x3c893e83	0.01675344
161	0xbcf0d04d	-0.0293962
162	0x3da8620c	0.08221826
163	0xbe06fff6	-0.13183579
164	0x3e108918	0.14114797
165	0xbe1f80aa	-0.15576425
166	0xbd504752	-0.050849266
167	0x3dcfdaca	0.101491526
168	0x3e4fae18	0.20281255
169	0x3db0f444	0.0864034
170	0x3e1f71b8	0.15570724
171	0xbe31ee25	-0.17376001
172	0x3c8dc849	0.017307417
173	0x3c6be8c9	0.014398762
174	0x3d903b68	0.07042581
175	0x3de35e42	0.111019626
176	0xbe4b913f	-0.19879626
177	0xbbbbe7e6	-0.0057344316
178	0xbe11f8a7	-0.1425501
179	0x3de0e816	0.10981767
180	0xbdf738dc	-0.12071392
181	0xbcdf9667	-0.027293397
182	0xbcefcb13	-0.029271638
183	0xbd878f02	-0.066190735
184	0x3dd57189	0.10422046
185	0xbe22ff90	-0.15917802
186	0xbe4b2ffd	-0.19842525
187	0xbd1d0fde	-0.03834521
188	0xbd96eb4b	-0.07369097
189	0xbda2fe27	-0.07958632
190	0xbe316674	-0.17324239
191	0xbe2af3e6	-0.16694602
192	0x3af3c420	0.0018597879
193	0x3eb58153	0.3545023
194	0x3e84e4bb	0.25955757
195	0x3e90fbcc	0.28317106
196	0x3e41050d	0.18849583
197	0x3e5fb6a0	0.2184701
198	0x3deaf9b4	0.11473408
199	0xbe0ccd2d	-0.13750143
200	0xbc23a037	-0.009986929
201	0x3e889011	0.26672414
202	0x3e159648	0.14608109
203	0x3e306e45	0.17229564
204	0x3d4a6726	0.049414776
205	0x3e388668	0.18020022
206	0xbe2a004b	-0.16601674
207	0x3e250e13	0.1611865
208	0x3e129546	0.14314756
209	0x3d25e5f2	0.040502496
210	0x3c46bd07	0.012130029
211	0x3e060743	0.13088708
212	0x3e05e7b9	0.13076676
213	0x3e19816a	0.14990774
214	0x3dde5f8c	0.10858068
215	0x3c6e6e6d	0.014552695
216	0x3dde1a97	0.10844915
217	0x3d49542d	0.049152542
218	0x3e3e3251	0.18573882
219	0x3e28aeca	0.16472927
220	0x3e46af6d	0.19402857
221	0xbdb88296	-0.09009282
222	0x3c0b3a6d	0.0084978165
223	0xbde05fd2	-0.10955776
224	0xbdf65da5	-0.1202958
225	0xbe1ea813	-0.15493803
226	0xbdf2f3c0	-0.11862898
227	0xbe50fb71	-0.20408417
228	0xbd593266	-0.05302658
229	0xbe2d2c8d	-0.16911526
230	0xbd4e6a07	-0.050394084
231	0x3d85848a	0.065194204
232	0x3d055696	0.032553278
233	0x3c69cad6	0.014269551
234	0xbd0e6c18	-0.034771055
235	0xbe40c487	-0.18824969
236	0x3dbe52d4	0.09293142
237	0xbde8bff8	-0.1136474
238	0x3e46bb6d	0.19407435
239	0xbd24f753	-0.04027493
240	0x3e5efda6	0.21776447
241	0x3e6a92c7	0.22907554
242	0x3d94d732	0.07267608
243	0xbdbced04	-0.09224895
244	0x3e34193c	0.17587751
245	0x3d82677a	0.06367393
246	0xbe3997e6	-0.18124351
247	0xbd76c1bd	-0.060243357
248	0xba4772cd	-0.0007608354
249	0x3e190651	0.14943816
250	0x3dc2a396	0.09503858
251	0x3d1e0dab	0.038587254
252	0x3d86dade	0.06584714
253	0x3e0dfacc	0.13865203
254	0xbe0f2511	-0.13978983
255	0x3dbe54be	0.09293507

bias f4 [36]
0	0xbd94684d	-0.07246456
1	0x3df1e1c8	0.118106425
2	0x3e6d7a2c	0.23191136
3	0x3de739a5	0.11290292
4	0x3e918137	0.28418896
5	0x3ec97bae	0.39352173
6	0xbd0685b6	-0.03284236
7	0xbe31ea1b	-0.1737446
8	0x3e35ec80	0.17765999
9	0xbd9c6c8e	-0.07637893
10	0x3e6a3371	0.22871186
11	0x3e14d0b3	0.14532737
12	0xbc95ef4d	-0.018302584
13	0xbe449f70	-0.19201446
14	0x3d6891aa	0.05677954
15	0xbdebaacb	-0.115071855
16	0xbe755b5d	-0.23960634
17	0x3e4d5fd9	0.20056094
18	0xbc472465	-0.012154673
19	0xbd85d929	-0.06535561
20	0x3eb03059	0.34411886
21	0xbda9d48e	-0.08292495
22	0x3e893466	0.2679779
23	0xbe2b1fd8	-0.16711366
24	0x3d7f0528	0.062260777
25	0xbd59fd1f	-0.05321991
26	0x39546758	0.00020256394
27	0x3e954aee	0.2915873
28	0x3d9faf02	0.07797052
29	0x3e0836e9	0.13302197
30	0xbe41e696	-0.18935618
31	0xbc5ec06e	-0.0135956835
32	0xbcd3772a	-0.025813658
33	0xbd97f181	-0.0741911
34	0xbd19ded5	-0.037566025
35	0xbe1601c3	-0.1464911

weight f4 [3, 36]
0	0x3e268dc6	0.1626502
1	0x3e5bba95	0.21457894
2	0x3bc1081c	0.0058908593
3	0x3da87e42	0.08227207
4	0x3e2943f3	0.16529827
5	0x3dd7cb6b	0.10536846
6	0xbd32981b	-0.04360209
7	0x3cbe0520	0.023195803
8	0x3e9ff969	0.31244972
9	0xbdb77c18	-0.08959216
10	0x3e6f7cc9	0.23387446
11	0xbd49a7f0	-0.049232423
12	0x3cf0758b	0.029352924
13	0xbde7ebaa	-0.11324246
14	0x3c4decb8	0.012568645
15	0x3ceb2096	0.028702062
16	0xbdb42be7	-0.08797436
17	0x3e61225d	0.21985765
18	0xbd3b1eb8	-0.045683593
19	0x3d9ce833	0.07661476
20	0x3e3ea204	0.18616492
21	0x3cf8f9f6	0.030392628
22	0x3e09ee55	0.13469823
23	0xbcdfd736	-0.0273243
24	0x3e3e8774	0.18606359
25	0x3c45e156	0.01207765
26	0x3e12bafd	0.14329143
27	0x3d86dd4c	0.06585178
28	0x3de4992f	0.1116203
29	0x3cbd466b	0.023104867
30	0xbe21867e	-0.15773961
31	0x3ddfdd53	0.10930886
32	0x3e425730	0.18978572
33	0x3dc3eaf8	0.09566301
34	0x3d96e23e	0.07367371
35	0xbd705466	-0.05867424
36	0xbdba35e0	-0.09092307
37	0x3c38464e	0.011247231
38	0x3e67f0e4	0.22650486
39	0x3e4216d7	0.18954025
40	0x3e5cfbb3	0.2158039
41	0x3e095f81	0.13415338
42	0x3ca6cf60	0.020362556
43	0x3e0c604e	0.13708612
44	0x3eb166e1	0.34648803
45	0x3cc50ee0	0.024054945
46	0x3e1a22ae	0.15052292
47	0x3ddc275b	0.10749694
48	0x3e186aca	0.14884487
49	0x3e171432	0.14753798
50	0xbdbe5121	-0.09292818
51	0x3e06ee0a	0.13176742
52	0xbcd30d3c	-0.025763147
53	0x3cec765c	0.028865032
54	0x3cf732eb	0.030175647
55	0xbe21e74e	-0.15810892
56	0x3e80a3a1	0.2512484
57	0x3d940c53	0.07228913
58	0x3e7793fb	0.24177544
59	0x3da79946	0.081835315
60	0x3dc95087	0.098298125
61	0xbdf78b26	-0.12087087
62	0xbd443b39	-0.04790804
63	0x3e5eabfe	0.21745297
64	0x3e1b40da	0.15161458
65	0xbbaaef80	-0.005216539
66	0x3e1e1ab7	0.15439878
67	0x3cb834b6	0.022486072
68	0xbd3e1fd7	-0.046417084
69	0xbe074f7b	-0.13213913
70	0x3d7a4436	0.061100207
71	0x3dcfbff6	0.101440355
72	0x3b911156	0.0044271154
73	0xbe4746ac	-0.19460553
74	0xbe75c3b5	-0.24000438
75	0xbac76846	-0.0015213571
76	0xbe844d10	-0.25840044
77	0xbe9a1c34	-0.30099642
78	0x3d9aca93	0.07558169
79	0xbe197393	-0.14985494
80	0xbe6f388c	-0.23361415
81	0xbdfd352e	-0.12363659
82	0xbe0a18ab	-0.13485973
83	0xbdd6a643	-0.10480931
84	0xbd13444b	-0.0359538
85	0x3dcd6fb8	0.10031074
86	0x3d48e1f9	0.04904363
87	0xbca61ea0	-0.020278275
88	0xbd97ecdc	-0.07418224
89	0xbe832d1e	-0.2562036
90	0xbd0622c0	-0.032747984
91	0xbd6990b0	-0.05702275
92	0xbe573210	-0.21015191
93	0xbd0d48d6	-0.03449329
94	0xbe693cf6	-0.22777161
95	0x3c89a136	0.016800504
96	0xbe701102	-0.23443988
97	0x3e012ed2	0.12615517
98	0x3ddc4bee	0.1075667
99	0xbe896ca1	-0.2684069
100	0x3d43e5f8	0.047826737
101	0xbdf47716	-0.11936776
102	0x3ddd75a0	0.10813451
103	0xbd25c590	-0.040471613
104	0x3c93a72b	0.018024048
105	0xbd1500ab	-0.03637759
106	0xbd5d5150	-0.054032624
107	0xbe206a52	-0.15665558

bias f4 [3]
0	0x3d4f1522	0.050557263
1	0x3da7d955	0.0819575
2	0xbe15c6a6	-0.1462656

exp_avg f4 [24, 2]
0	0x450c983b	2249.5144
1	0x3fb4355f	1.4078788
2	0x4537515d	2933.0852
3	0x3fe1f595	1.7653071
4	0x45181078	2433.0293
5	0x3fbf9e6b	1.497022
6	0x44ea5515	1874.6588
7	0x3f93d180	1.1548309
8	0x4508fb2f	2191.699
9	0x3fa90d07	1.3207101
10	0x44dda5c0	1773.1797
11	0x3f8fe75a	1.1242478
12	0x00000000	0.0
13	0x00000000	0.0
14	0x00000000	0.0
15	0x00000000	0.0
16	0x00000000	0.0
17	0x00000000	0.0
18	0x4567bc19	3707.756
19	0x400fbd31	2.2459223
20	0x451ece43	2540.8914
21	0x3fc99147	1.574746
22	0x00000000	0.0
23	0x00000000	0.0
24	0x44e6185b	1840.7611
25	0x3f930ffa	1.1489251
26	0x451c4213	2500.1296
27	0x3fc4ef2e	1.5385492
28	0xbe3251d6	-0.1741403
29	0xbb04bd07	-0.002025427
30	0x00000000	0.0
31	0x00000000	0.0
32	0x00000000	0.0
33	0x00000000	0.0
34	0x4510e547	2318.3298
35	0x3fbb2232	1.461981
36	0x00000000	0.0
37	0x00000000	0.0
38	0x00000000	0.0
39	0x00000000	0.0
40	0x44df37c6	1785.7429
41	0x3f8f29bb	1.118461
42	0x00000000	0.0
43	0x00000000	0.0
44	0x44a42199	1313.0499
45	0x3f50c760	0.8155422
46	0x4483f8fa	1055.7805
47	0x3f1bd093	0.60865134

exp_avg_sq f4 [24, 2]
0	0x47d57a3e	109300.484
1	0x3da6afdf	0.081390135
2	0x482d2ea7	177338.61
3	0x3e1cdae4	0.15317875
4	0x47f3b33c	124774.47
5	0x3dcf0129	0.10107643
6	0x4793e2f4	75717.91
7	0x3d741e9b	0.0595995
8	0x47cab672	103788.89
9	0x3db2358e	0.08701621
10	0x4787705e	69344.734
11	0x3d68c9d4	0.056833103
12	0x00000000	0.0
13	0x00000000	0.0
14	0x00000000	0.0
15	0x00000000	0.0
16	0x00000000	0.0
17	0x00000000	0.0
18	0x488924f6	280871.7
19	0x3e8c08be	0.2735042
20	0x4805f68e	137178.22
21	0x3dff15b6	0.12455313
22	0x00000000	0.0
23	0x00000000	0.0
24	0x47923cf7	74873.93
25	0x3d5c25d0	0.053747
26	0x47ffff9d	131071.23
27	0x3ddeceae	0.10879265
28	0x3d3dc29e	0.04632818
29	0x36d24ba0	6.2672916e-06
30	0x00000000	0.0
31	0x00000000	0.0
32	0x00000000	0.0
33	0x00000000	0.0
34	0x47dfef5a	114654.7
35	0x3dd10476	0.10205929
36	0x00000000	0.0
37	0x00000000	0.0
38	0x00000000	0.0
39	0x00000000	0.0
40	0x4788a718	69966.19
41	0x3d52027f	0.05127191
42	0x00000000	0.0
43	0x00000000	0.0
44	0x471b7509	39797.035
45	0x3cd2a2c8	0.025712386
46	0x46db36a7	28059.326
47	0x3c9cec4b	0.019155642

exp_avg f4 [24]
0	0xc588c899	-4377.0747
1	0xc5b23a1e	-5703.2646
2	0xc593e291	-4732.321
3	0xc5640137	-3648.076
4	0xc585cae4	-4281.3613
5	0xc557c782	-3452.4692
6	0x00000000	0.0
7	0x00000000	0.0
8	0x00000000	0.0
9	0xc5e13c4c	-7207.537
10	0xc59a767e	-4942.8115
11	0x00000000	0.0
12	0xc55fedc5	-3582.8606
13	0xc597fe4e	-4863.788
14	0x3f22952b	0.6350886
15	0x00000000	0.0
16	0x00000000	0.0
17	0xc58cf6da	-4510.8564
18	0x00000000	0.0
19	0x00000000	0.0
20	0xc5593530	-3475.3242
21	0x00000000	0.0
22	0xc51ffaa8	-2559.666
23	0xc502116a	-2081.0884

exp_avg_sq f4 [24]
0	0x48cadf74	415483.62
1	0x492431bb	672539.7
2	0x48e75751	473786.53
3	0x488c91c5	287886.16
4	0x48c16b06	396120.2
5	0x4880d9ca	263886.3
6	0x00000000	0.0
7	0x00000000	0.0
8	0x00000000	0.0
9	0x4981e9fb	1.0642554e+06
10	0x48fe6617	521008.72
11	0x00000000	0.0
12	0x488b1707	284856.22
13	0x48f3075c	497722.88
14	0x3f1dbeab	0.6161906
15	0x00000000	0.0
16	0x00000000	0.0
17	0x48d4b965	435659.16
18	0x00000000	0.0
19	0x00000000	0.0
20	0x4881f34b	266138.34
21	0x00000000	0.0
22	0x481436fd	151771.95
23	0x47d373e3	108263.77

exp_avg f4 [36, 24]
0	0x00000000	0.0
1	0x00000000	0.0
2	0x00000000	0.0
3	0x00000000	0.0
4	0x00000000	0.0
5	0x00000000	0.0
6	0x00000000	0.0
7	0x00000000	0.0
8	0x00000000	0.0
9	0x00000000	0.0
10	0x00000000	0.0
11	0x00000000	0.0
12	0x00000000	0.0
13	0x00000000	0.0
14	0x00000000	0.0
15	0x00000000	0.0
16	0x00000000	0.0
17	0x00000000	0.0
18	0x00000000	0.0
19	0x00000000	0.0
20	0x00000000	0.0
21	0x00000000	0.0
22	0x00000000	0.0
23	0x00000000	0.0
24	0xc412f278	-587.7886
25	0xc4725923	-969.39276
26	0xc4829ed6	-1044.9636
27	0xc403767a	-525.8512
28	0xc3489915	-200.59798
29	0xc4908a06	-1156.3132
30	0x00000000	0.0
31	0x00000000	0.0
32	0x00000000	0.0
33	0xc4930fa8	-1176.4893
34	0xc458178b	-864.36786
35	0x00000000	0.0
36	0xc35e0957	-222.03648
37	0xc47de77c	-1015.61694
38	0x00000000	0.0
39	0x00000000	0.0
40	0x00000000	0.0
41	0xc393592a	-294.6966
42	0x00000000	0.0
43	0x00000000	0.0
44	0xc3cec655	-413.54947
45	0x00000000	0.0
46	0xc34614fa	-198.08194
47	0xc2f5dcfb	-122.9316
48	0xc4b8540f	-1474.6268
49	0xc5191ea9	-2449.9163
50	0xc52566c0	-2646.4219
51	0xc4a3a627	-1309.1923
52	0xc3efb658	-479.42456
53	0xc537465d	-2932.3977
54	0x00000000	0.0
55	0x00000000	0.0
56	0x00000000	0.0
57	0xc53a6244	-2982.1416
58	0xc5085688	-2181.4082
59	0x00000000	0.0
60	0xc4050a7c	-532.1638
61	0xc52089d6	-2568.6147
62	0xba2d9e30	-0.0006622998
63	0x00000000	0.0
64	0x00000000	0.0
65	0xc433b56c	-718.8347
66	0x00000000	0.0
67	0x00000000	0.0
68	0xc47f5cf6	-1021.4525
69	0x00000000	0.0
70	0xc3ec281b	-472.31332
71	0xc390559b	-288.6688
72	0x3d8a7761	0.06761051
73	0x3df9cec0	0.121976376
74	0x3e0964f4	0.13417417
75	0x3d0824cd	0.03323822
76	0x3cebbd92	0.028776918
77	0x3df8fbde	0.12157415
78	0x00000000	0.0
79	0x00000000	0.0
80	0x00000000	0.0
81	0x3e0bb9d7	0.13645111
82	0x3dc184d9	0.09449167
83	0x00000000	0.0
84	0x3b6db8ca	0.0036273473
85	0x3dedecbb	0.116174184
86	0x00000000	0.0
87	0x00000000	0.0
88	0x00000000	0.0
89	0x3cf903c9	0.030397313
90	0x00000000	0.0
91	0x00000000	0.0
92	0x3a2f6871	0.0006691283
93	0x00000000	0.0
94	0x3c5eedb8	0.013606481
95	0x3aa12e60	0.0012297146
96	0xc4c6c1b0	-1590.0527
97	0xc52560ed	-2646.0579
98	0xc532b3d9	-2859.2405
99	0xc4b036fc	-1409.7183
100	0xc40005a1	-512.08795
101	0xc5460c13	-3168.7546
102	0x00000000	0.0
103	0x00000000	0.0
104	0x00000000	0.0
105	0xc54966a4	-3222.415
106	0xc5133153	-2355.0828
107	0x00000000	0.0
108	0xc40e230f	-568.5478
109	0xc52d680b	-2774.5027
110	0xbc2a73cb	-0.010403584
111	0x00000000	0.0
112	0x00000000	0.0
113	0xc440bdd5	-770.9661
114	0x00000000	0.0
115	0x00000000	0.0
116	0xc48939f3	-1097.8109
117	0x00000000	0.0
118	0xc3fc3b52	-504.46344
119	0xc399b009	-307.37527
120	0xc4b30968	-1432.294
121	0xc514e47d	-2382.2805
122	0xc520d734	-2573.4502
123	0xc49edff0	-1270.998
124	0xc3e7e629	-463.79813
125	0xc532386b	-2851.5261
126	0x00000000	0.0
127	0x00000000	0.0
128	0x00000000	0.0
129	0xc535418d	-2900.097
130	0xc5048524	-2120.3213
131	0x00000000	0.0
132	0xc400a40d	-514.5633
133	0xc51c1a92	-2497.6606
134	0xbc1810bc	-0.009281334
135	0x00000000	0.0
136	0x00000000	0.0
137	0xc42e2fc1	-696.74615
138	0x00000000	0.0
139	0x00000000	0.0
140	0xc4779acd	-990.41876
141	0x00000000	0.0
142	0xc3e484c4	-457.03723
143	0xc38b84e5	-279.03824
144	0x00000000	0.0
145	0x00000000	0.0
146	0x00000000	0.0
147	0x00000000	0.0
148	0x00000000	0.0
149	0x00000000	0.0
150	0x00000000	0.0
151	0x00000000	0.0
152	0x00000000	0.0
153	0x00000000	0.0
154	0x00000000	0.0
155	0x00000000	0.0
156	0x00000000	0.0
157	0x00000000	0.0
158	0x00000000	0.0
159	0x00000000	0.0
160	0x00000000	0.0
161	0x00000000	0.0
162	0x00000000	0.0
163	0x00000000	0.0
164	0x00000000	0.0
165	0x00000000	0.0
166	0x00000000	0.0
167	0x00000000	0.0
168	0x00000000	0.0
169	0x00000000	0.0
170	0x00000000	0.0
171	0x00000000	0.0
172	0x00000000	0.0
173	0x00000000	0.0
174	0x00000000	0.0
175	0x00000000	0.0
176	0x00000000	0.0
177	0x00000000	0.0
178	0x00000000	0.0
179	0x00000000	0.0
180	0x00000000	0.0
181	0x00000000	0.0
182	0x00000000	0.0
183	0x00000000	0.0
184	0x00000000	0.0
185	0x00000000	0.0
186	0x00000000	0.0
187	0x00000000	0.0
188	0x00000000	0.0
189	0x00000000	0.0
190	0x00000000	0.0
191	0x00000000	0.0
192	0xc501d90f	-2077.5662
193	0xc55876c0	-3463.4219
194	0xc56a1cdf	-3745.8044
195	0xc4e5925d	-1836.5739
196	0xc4247264	-657.78735
197	0xc581c9d8	-4153.2305
198	0x00000000	0.0
199	0x00000000	0.0
200	0x00000000	0.0
201	0xc583f3cc	-4222.4746
202	0xc540a336	-3082.2007
203	0x00000000	0.0
204	0xc436e8f2	-731.6398
205	0xc56308d5	-3632.552
206	0xbc9689c0	-0.018376231
207	0x00000000	0.0
208	0x00000000	0.0
209	0xc47946b9	-997.10504
210	0x00000000	0.0
211	0x00000000	0.0
212	0xc4b25eb5	-1426.9596
213	0x00000000	0.0
214	0xc421d6a5	-647.3538
215	0xc3c4081e	-392.06342
216	0x00000000	0.0
217	0x00000000	0.0
218	0x00000000	0.0
219	0x00000000	0.0
220	0x00000000	0.0
221	0x00000000	0.0
222	0x00000000	0.0
223	0x00000000	0.0
224	0x00000000	0.0
225	0x00000000	0.0
226	0x00000000	0.0
227	0x00000000	0.0
228	0x00000000	0.0
229	0x00000000	0.0
230	0x00000000	0.0
231	0x00000000	0.0
232	0x00000000	0.0
233	0x00000000	0.0
234	0x00000000	0.0
235	0x00000000	0.0
236	0x00000000	0.0
237	0x00000000	0.0
238	0x00000000	0.0
239	0x00000000	0.0
240	0xc45125a6	-836.58826
241	0xc4ad4add	-1386.3395
242	0xc4bac325	-1494.0983
243	0xc43ae903	-747.6408
244	0xc38cfeec	-281.99158
245	0xc4ceab65	-1653.3561
246	0x00000000	0.0
247	0x00000000	0.0
248	0x00000000	0.0
249	0xc4d259d6	-1682.8074
250	0xc49a3a77	-1233.827
251	0x00000000	0.0
252	0xc39ba0c3	-311.25595
253	0xc4b58a57	-1452.3231
254	0xbbd7eeb6	-0.006589736
255	0x00000000	0.0

exp_avg_sq f4 [36, 24]
0	0x00000000	0.0
1	0x00000000	0.0
2	0x00000000	0.0
3	0x00000000	0.0
4	0x00000000	0.0
5	0x00000000	0.0
6	0x00000000	0.0
7	0x00000000	0.0
8	0x00000000	0.0
9	0x00000000	0.0
10	0x00000000	0.0
11	0x00000000	0.0
12	0x00000000	0.0
13	0x00000000	0.0
14	0x00000000	0.0
15	0x00000000	0.0
16	0x00000000	0.0
17	0x00000000	0.0
18	0x00000000	0.0
19	0x00000000	0.0
20	0x00000000	0.0
21	0x00000000	0.0
22	0x00000000	0.0
23	0x00000000	0.0
24	0x45f5195e	7843.171
25	0x46a6486a	21284.207
26	0x46c0de07	24687.014
27	0x45c4a3d6	6292.4795
28	0x44747389	977.80524
29	0x46eb6a08	30133.016
30	0x00000000	0.0
31	0x00000000	0.0
32	0x00000000	0.0
33	0x46f40bbd	31237.87
34	0x4683e23b	16881.115
35	0x00000000	0.0
36	0x44920830	1168.2559
37	0x46b63acb	23325.396
38	0x00000000	0.0
39	0x00000000	0.0
40	0x00000000	0.0
41	0x44ff5873	2042.764
42	0x00000000	0.0
43	0x00000000	0.0
44	0x45731da6	3889.853
45	0x00000000	0.0
46	0x446ce457	947.5678
47	0x43c01188	384.13696
48	0x472be55f	44005.37
49	0x47eb8d7e	120602.984
50	0x48090629	140312.64
51	0x4708d0d2	35024.82
52	0x45a40a00	5249.25
53	0x4827f3c8	171983.12
54	0x00000000	0.0
55	0x00000000	0.0
56	0x00000000	0.0
57	0x482dd804	178016.06
58	0x47bac5ab	95627.336
59	0x00000000	0.0
60	0x45c3366d	6246.803
61	0x48014d0c	132404.19
62	0x3533e2a1	6.7012485e-07
63	0x00000000	0.0
64	0x00000000	0.0
65	0x462ce379	11064.868
66	0x00000000	0.0
67	0x00000000	0.0
68	0x46a82a1d	21525.057
69	0x00000000	0.0
70	0x459ea30e	5076.382
71	0x45010daa	2064.854
72	0x3ca3415d	0.019928629
73	0x3d84d728	0.0648635
74	0x3da0bcc2	0.07848503
75	0x3b9dd317	0.0048164236
76	0x3b6c99fd	0.0036102526
77	0x3d83f73f	0.06443643
78	0x00000000	0.0
79	0x00000000	0.0
80	0x00000000	0.0
81	0x3da63d38	0.08117145
82	0x3d1f7084	0.038925663
83	0x00000000	0.0
84	0x38709863	5.736238e-05
85	0x3d710196	0.058839403
86	0x00000000	0.0
87	0x00000000	0.0
88	0x00000000	0.0
89	0x3b83ffa4	0.0040282775
90	0x00000000	0.0
91	0x00000000	0.0
92	0x3602fe2c	1.9519457e-06
93	0x00000000	0.0
94	0x3a539535	0.0008071245
95	0x36dd361c	6.5926124e-06
96	0x47452ba3	50475.637
97	0x4807d77b	139101.92
98	0x481e3814	162016.31
99	0x471c746c	40052.42
100	0x45b6a2ce	5844.3506
101	0x48421ab7	198762.86
102	0x00000000	0.0
103	0x00000000	0.0
104	0x00000000	0.0
105	0x4848dd57	205685.36
106	0x47d730f6	110177.92
107	0x00000000	0.0
108	0x45dae144	7004.158
109	0x48153666	152793.6
110	0x392d62a3	0.0001653531
111	0x00000000	0.0
112	0x00000000	0.0
113	0x4643223d	12488.56
114	0x00000000	0.0
115	0x00000000	0.0
116	0x46bf7165	24504.697
117	0x00000000	0.0
118	0x45b0efbe	5661.968
119	0x450dbbf4	2267.747
120	0x4720f931	41209.19
121	0x47dd65ad	113355.35
122	0x4800d64a	131929.16
123	0x46ffe82e	32756.09
124	0x4596db6e	4827.4287
125	0x481df248	161737.12
126	0x00000000	0.0
127	0x00000000	0.0
128	0x00000000	0.0
129	0x48238064	167425.56
130	0x47af5d9d	89787.23
131	0x00000000	0.0
132	0x45b47f4e	5775.913
133	0x47f318fe	124465.984
134	0x3909ff05	0.0001316034
135	0x00000000	0.0
136	0x00000000	0.0
137	0x4620883b	10274.058
138	0x00000000	0.0
139	0x00000000	0.0
140	0x469cc5fd	20066.994
141	0x00000000	0.0
142	0x45921fc6	4675.9717
143	0x44eaca92	1878.3303
144	0x00000000	0.0
145	0x00000000	0.0
146	0x00000000	0.0
147	0x00000000	0.0
148	0x00000000	0.0
149	0x00000000	0.0
150	0x00000000	0.0
151	0x00000000	0.0
152	0x00000000	0.0
153	0x00000000	0.0
154	0x00000000	0.0
155	0x00000000	0.0
156	0x00000000	0.0
157	0x00000000	0.0
158	0x00000000	0.0
159	0x00000000	0.0
160	0x00000000	0.0
161	0x00000000	0.0
162	0x00000000	0.0
163	0x00000000	0.0
164	0x00000000	0.0
165	0x00000000	0.0
166	0x00000000	0.0
167	0x00000000	0.0
168	0x00000000	0.0
169	0x00000000	0.0
170	0x00000000	0.0
171	0x00000000	0.0
172	0x00000000	0.0
173	0x00000000	0.0
174	0x00000000	0.0
175	0x00000000	0.0
176	0x00000000	0.0
177	0x00000000	0.0
178	0x00000000	0.0
179	0x00000000	0.0
180	0x00000000	0.0
181	0x00000000	0.0
182	0x00000000	0.0
183	0x00000000	0.0
184	0x00000000	0.0
185	0x00000000	0.0
186	0x00000000	0.0
187	0x00000000	0.0
188	0x00000000	0.0
189	0x00000000	0.0
190	0x00000000	0.0
191	0x00000000	0.0
192	0x47a5d589	84907.07
193	0x48660f2b	235580.67
194	0x488650a1	275077.03
195	0x4782babc	66933.47
196	0x46133342	9420.814
197	0x48a51c72	338147.56
198	0x00000000	0.0
199	0x00000000	0.0
200	0x00000000	0.0
201	0x48aab54d	349610.4
202	0x48361e02	186488.03
203	0x00000000	0.0
204	0x463187e0	11361.969
205	0x487cfb7a	259053.9
206	0x3a073cf9	0.0005158927
207	0x00000000	0.0
208	0x00000000	0.0
209	0x469fc275	20449.229
210	0x00000000	0.0
211	0x00000000	0.0
212	0x471f156b	40725.418
213	0x00000000	0.0
214	0x460eb861	9134.095
215	0x4561b9e6	3611.6187
216	0x00000000	0.0
217	0x00000000	0.0
218	0x00000000	0.0
219	0x00000000	0.0
220	0x00000000	0.0
221	0x00000000	0.0
222	0x00000000	0.0
223	0x00000000	0.0
224	0x00000000	0.0
225	0x00000000	0.0
226	0x00000000	0.0
227	0x00000000	0.0
228	0x00000000	0.0
229	0x00000000	0.0
230	0x00000000	0.0
231	0x00000000	0.0
232	0x00000000	0.0
233	0x00000000	0.0
234	0x00000000	0.0
235	0x00000000	0.0
236	0x00000000	0.0
237	0x00000000	0.0
238	0x00000000	0.0
239	0x00000000	0.0
240	0x466b80a8	15072.164
241	0x47203c83	41020.51
242	0x4739c25b	47554.355
243	0x463cbe46	12079.568
244	0x44eac730	1878.2246
245	0x4762b85a	58040.35
246	0x00000000	0.0
247	0x00000000	0.0
248	0x00000000	0.0
249	0x476b2815	60200.082
250	0x46fdd382	32489.754
251	0x00000000	0.0
252	0x450b47fb	2228.4988
253	0x472f8c18	44940.094
254	0x388b2097	6.634107e-05
255	0x00000000	0.0

exp_avg f4 [36]
0	0x00000000	0.0
1	0xc4a3368e	-1305.7048
2	0xc551e6d1	-3358.426
3	0x3e570785	0.20998962
4	0xc56376f0	-3639.4336
5	0xc54c6cdf	-3270.8044
6	0x00000000	0.0
7	0x00000000	0.0
8	0xc595b3bf	-4790.4683
9	0x00000000	0.0
10	0xc4eab286	-1877.5789
11	0x00000000	0.0
12	0x00000000	0.0
13	0x40dbb613	6.865976
14	0x412b4922	10.705355
15	0x00000000	0.0
16	0x40ae38f6	5.4444532
17	0xc5018a21	-2072.633
18	0x4032b136	2.792066
19	0x00000000	0.0
20	0xc559f8fb	-3487.5613
21	0x00000000	0.0
22	0xc55b687e	-3510.5308
23	0x00000000	0.0
24	0xc5141623	-2369.3835
25	0x00000000	0.0
26	0x4141b47e	12.106565
27	0xc5631c80	-3633.7812
28	0x3f7ec4af	0.99518865
29	0x00000000	0.0
30	0x00000000	0.0
31	0x00000000	0.0
32	0x4284da96	66.426926
33	0x00000000	0.0
34	0x00000000	0.0
35	0x00000000	0.0

exp_avg_sq f4 [36]
0	0x00000000	0.0
1	0x4716102a	38416.164
2	0x485a2f04	223420.06
3	0x3e44daa9	0.19224037
4	0x487e7ffd	260607.95
5	0x484e4be5	211247.58
6	0x00000000	0.0
7	0x00000000	0.0
8	0x48db91c0	449678.0
9	0x00000000	0.0
10	0x47910e57	74268.68
11	0x00000000	0.0
12	0x00000000	0.0
13	0x437d796a	253.47427
14	0x4383a6ec	263.30408
15	0x00000000	0.0
16	0x4295a3f7	74.820244
17	0x47abbe8b	87933.086
18	0x4227aa17	41.916103
19	0x00000000	0.0
20	0x486a1791	239710.27
21	0x00000000	0.0
22	0x486d5dfa	243063.9
23	0x00000000	0.0
24	0x47ddfe57	113660.68
25	0x00000000	0.0
26	0x43b52bbf	362.34177
27	0x487dff89	260094.14
28	0x407ce8ae	3.9517016
29	0x00000000	0.0
30	0x00000000	0.0
31	0x00000000	0.0
32	0x451c0048	2496.0176
33	0x00000000	0.0
34	0x00000000	0.0
35	0x00000000	0.0

exp_avg f4 [3, 36]
0	0x00000000	0.0
1	0xc3900ab3	-288.0836
2	0xc4831da2	-1048.926
3	0x3ad0638f	0.0015898811
4	0xc4d8944d	-1732.6344
5	0xc4bb0c1f	-1496.3788
6	0x00000000	0.0
7	0x00000000	0.0
8	0xc49d1add	-1256.8395
9	0x00000000	0.0
10	0xc4190498	-612.0718
11	0x00000000	0.0
12	0x00000000	0.0
13	0xbe945f59	-0.28978994
14	0xc004f560	-2.0774765
15	0x00000000	0.0
16	0xc0066008	-2.0996113
17	0xc42e40de	-697.01355
18	0xbe2a91b7	-0.16657148
19	0x00000000	0.0
20	0xc4be7c85	-1523.8912
21	0x00000000	0.0
22	0xc4d2ca17	-1686.3153
23	0x00000000	0.0
24	0xc47f39ff	-1020.9062
25	0x00000000	0.0
26	0xbfb0ea52	-1.3821509
27	0xc4a49332	-1316.5999
28	0xbf38366c	-0.7195804
29	0x00000000	0.0
30	0x00000000	0.0
31	0x00000000	0.0
32	0xc13edd9f	-11.929107
33	0x00000000	0.0
34	0x00000000	0.0
35	0x00000000	0.0
36	0x00000000	0.0
37	0xc5370bed	-2928.7454
38	0xc604aa24	-8490.535
39	0xba958a82	-0.0011409076
40	0xc64bdfa8	-13047.914
41	0xc6340bb3	-11522.925
42	0x00000000	0.0
43	0x00000000	0.0
44	0xc6199430	-9829.047
45	0x00000000	0.0
46	0xc5a0c16b	-5144.1772
47	0x00000000	0.0
48	0x00000000	0.0
49	0xbf2caec7	-0.6745419
50	0xbfb36762	-1.4015925
51	0x00000000	0.0
52	0xc01568eb	-2.3345287
53	0xc5bbdf12	-6011.884
54	0xbcba5c69	-0.022749143
55	0x00000000	0.0
56	0xc634e4f4	-11577.238
57	0x00000000	0.0
58	0xc646a8d7	-12714.21
59	0x00000000	0.0
60	0xc5fe5716	-8138.8857
61	0x00000000	0.0
62	0xbf36225b	-0.7114617
63	0xc6205bef	-10262.983
64	0xbf22701f	-0.63452333
65	0x00000000	0.0
66	0x00000000	0.0
67	0x00000000	0.0
68	0xc2141ce2	-37.028206
69	0x00000000	0.0
70	0x00000000	0.0
71	0x00000000	0.0
72	0x00000000	0.0
73	0x45490d44	3216.829
74	0x46150dd9	9539.462
75	0xb9eb6444	-0.00044897397
76	0x4666f232	14780.549
77	0x464b6d37	13019.304
78	0x00000000	0.0
79	0x00000000	0.0
80	0x462d378c	11085.887
81	0x00000000	0.0
82	0x45b3e1fe	5756.249
83	0x00000000	0.0
84	0x00000000	0.0
85	0x3f76de71	0.9643317
86	0x405ea914	3.4790697
87	0x00000000	0.0
88	0x408de47d	4.4341416
89	0x45d1a72c	6708.8965
90	0x3e41dd47	0.18932067
91	0x00000000	0.0
92	0x464cb484	13101.129
93	0x00000000	0.0
94	0x46610218	14400.523
95	0x00000000	0.0
96	0x460f1f2b	9159.792
97	0x00000000	0.0
98	0x4005fdc5	2.0936139
99	0x4634ee56	11579.584
100	0x3fad5347	1.3541039
101	0x00000000	0.0
102	0x00000000	0.0
103	0x00000000	0.0
104	0x4243d449	48.95731
105	0x00000000	0.0
106	0x00000000	0.0
107	0x00000000	0.0

exp_avg_sq f4 [3, 36]
0	0x00000000	0.0
1	0x45282ea3	2690.9148
2	0x470e1e5a	36382.35
3	0x3738e230	1.1019918e-05
4	0x47c57771	101102.88
5	0x47907d27	73978.305
6	0x00000000	0.0
7	0x00000000	0.0
8	0x474b7304	52083.016
9	0x00000000	0.0
10	0x464059fd	12310.497
11	0x00000000	0.0
12	0x00000000	0.0
13	0x3ee7303f	0.45153996
14	0x417bfbda	15.748987
15	0x00000000	0.0
16	0x41f9317d	31.149164
17	0x467a9c0f	16039.015
18	0x3e18c475	0.14918692
19	0x00000000	0.0
20	0x4798b0b5	78177.414
21	0x00000000	0.0
22	0x47ba0e4b	95260.586
23	0x00000000	0.0
24	0x4703b052	33712.32
25	0x00000000	0.0
26	0x4147d674	12.489857
27	0x475e21e9	56865.91
28	0x4031509d	2.7705452
29	0x00000000	0.0
30	0x00000000	0.0
31	0x00000000	0.0
32	0x43955080	298.6289
33	0x00000000	0.0
34	0x00000000	0.0
35	0x00000000	0.0
36	0x00000000	0.0
37	0x4852ea64	215977.56
38	0x49b9ff4b	1.5236894e+06
39	0x36be6a14	5.6747904e-06
40	0x4a517440	3.431696e+06
41	0x4a2563da	2.7097505e+06
42	0x00000000	0.0
43	0x00000000	0.0
44	0x49f2ebfb	1.9900154e+06
45	0x00000000	0.0
46	0x490c8282	575528.1
47	0x00000000	0.0
48	0x00000000	0.0
49	0x401c93a7	2.446512
50	0x412ad9aa	10.678141
51	0x00000000	0.0
52	0x4155bd33	13.358691
53	0x49436c89	800456.56
54	0x3b365d3c	0.0027826568
55	0x00000000	0.0
56	0x4a25b93e	2.7152155e+06
57	0x00000000	0.0
58	0x4a46f45c	3.259671e+06
59	0x00000000	0.0
60	0x49a83071	1.3778061e+06
61	0x00000000	0.0
62	0x3fb99e6f	1.4501475
63	0x4a041d8b	2.1645788e+06
64	0x400b8e51	2.1805613
65	0x00000000	0.0
66	0x00000000	0.0
67	0x00000000	0.0
68	0x4459126f	868.288
69	0x00000000	0.0
70	0x00000000	0.0
71	0x00000000	0.0
72	0x00000000	0.0
73	0x4873aabe	249514.97
74	0x49e439f2	1.8696302e+06
75	0x356be6da	8.7880255e-07
76	0x4a83d05f	4.3192795e+06
77	0x4a4e6c08	3.382018e+06
78	0x00000000	0.0
79	0x00000000	0.0
80	0x4a16dbf8	2.471678e+06
81	0x00000000	0.0
82	0x492926d9	692845.56
83	0x00000000	0.0
84	0x00000000	0.0
85	0x40a00131	5.0001454
86	0x424eb535	51.67696
87	0x00000000	0.0
88	0x42702bbb	60.042706
89	0x496b44ab	963658.7
90	0x3e45583f	0.19271944
91	0x00000000	0.0
92	0x4a4fd200	3.404928e+06
93	0x00000000	0.0
94	0x4a7a490d	4.1006752e+06
95	0x00000000	0.0
96	0x49cf313c	1.6973195e+06
97	0x00000000	0.0
98	0x41ab0633	21.378027
99	0x4a243b81	2.6907842e+06
100	0x411ddeaf	9.866866
101	0x00000000	0.0
102	0x00000000	0.0
103	0x00000000	0.0
104	0x44dd6e05	1771.4381
105	0x00000000	0.0
106	0x00000000	0.0
107	0x00000000	0.0

exp_avg f4 [3]
0	0xc4b1f3c9	-1423.6183
1	0xc60d4b07	-9042.757
2	0x46238981	10466.376

exp_avg_sq f4 [3]
0	0x47abd2c6	87973.55
1	0x49c74ce6	1.6326688e+06
2	0x4a082d97	2.2311418e+06
