data/policies/Pendulum-v0#default_team_-1352.7486034894494#squashedGaussian#200#-1352.7486034894494.pt (torch, 21703 bytes, 18 tensors)

weight f4 [24, 3]
000000 b1 bd 42 bf 46 9d 52 bf 27 63 b5 3e 70 a7 56 bf
       -0.76070696 -0.8227123 0.3542721 -0.8384924
000010 94 96 e5 3d 6b 83 53 bf a2 7f db 3c f4 01 92 bf
       0.11210361 -0.826224 0.026794259 -1.1406846
000020 99 dd 3b bf 7a a8 0c be 2c 04 33 bd 01 79 69 3f
       -0.73385006 -0.13736144 -0.04370515 0.9120026
000030 25 b8 a7 bd 1c 80 b3 3e 74 d9 3f bf 38 52 84 be
       -0.0818942 0.35058677 -0.7494118 -0.25843978
000040 3e f9 83 be 86 a7 21 3f 1b 54 3f bf 29 74 02 3f
       -0.25776094 0.63146245 -0.7473771 0.50958496
000050 53 13 21 3f 38 e1 84 be 65 ba 47 bf c6 b0 87 3f
       0.6292011 -0.25953078 -0.7801879 1.0600822
000060 02 74 22 be 07 27 11 bf 9a 03 82 bf f4 8a 2d bf
       -0.15864566 -0.56700176 -1.0157349 -0.6779015
000070 57 65 81 bf d4 05 7e 3f 3d cb c3 bd bf 2f 98 3e
       -1.0109051 0.99227643 -0.09560249 0.29723927
000080 bf 9e 5d 3f 23 6b 27 bf 48 8e 39 3c 8f fa 61 bf
       0.8657035 -0.6539785 0.011325426 -0.8827295
000090 fe e5 3e bf 59 a1 5a bf 58 fe 82 bf 99 00 e0 be
       -0.7456969 -0.85402447 -1.023387 -0.43750456
0000a0 1f 68 f8 be 78 1c 63 bf 89 49 82 bf 6f c5 94 bf
       -0.48516938 -0.88715315 -1.0178691 -1.1622752
0000b0 a7 1b a2 3e 5f ea 61 bf aa f8 86 bd d0 18 45 bf
       0.31661722 -0.88248247 -0.06590398 -0.76990986
0000c0 68 f2 67 bd d1 73 73 bf c5 67 5c bf 17 63 58 bf
       -0.05662766 -0.95098597 -0.8609584 -0.845262
0000d0 28 0d 49 bf 83 33 38 3f 33 ea 4c be 38 75 83 be
       -0.785357 0.719536 -0.20011215 -0.25675368
0000e0 91 5d fd be 92 26 bd be 09 c5 ab be e1 b5 62 3f
       -0.49485448 -0.3694349 -0.33548763 0.88558775
0000f0 51 1b 4b 3d 18 d6 c6 bd 84 f4 05 bb 05 d7 16 bf
       0.049586598 -0.09708804 -0.0020439932 -0.58921844
000100 27 67 88 bf f0 d9 09 3e 6f ff 4b bf 14 d5 c0 be
       -1.065648 0.13462043 -0.79686636 -0.37662566
000110 27 3c 3c 3f 11 0d 11 bf a3 ea 2a be 14 84 51 3f
       0.73529285 -0.5666056 -0.1669107 0.8184216

bias f4 [24]
000000 14 48 b7 bd 3b ab bb 3e 7d 1f 37 3f f4 b7 7a 3f
       -0.08949295 0.36654076 0.7153242 0.9793694
000010 ec a0 b8 3e 96 8a 82 3f 9d 82 20 3e 03 20 21 3f
       0.36060274 1.0198543 0.15674825 0.6293947
000020 f9 a0 c0 3e 32 d2 8e 3f 8c d7 84 3f dd ac e2 3e
       0.37622812 1.1157897 1.037828 0.4427251
000030 bb cb 98 3e f6 a0 aa 3e 4c 11 4d 3f c0 45 85 bb
       0.29842934 0.33325928 0.8010452 -0.0040671527
000040 58 76 08 3e d8 2e 0c 3f e8 cf b3 3e 0a e6 7d 3f
       0.13326395 0.5475898 0.35119557 0.99179137
000050 25 65 fc be d4 f9 8f 3f 10 79 8b 3f 7a a5 ec 3e
       -0.49295917 1.1248116 1.089632 0.4622

weight f4 [36, 24]
000000 fa 18 f1 bd a0 c1 31 be df d8 81 be bb bc 8d bd
       -0.11772342 -0.17359018 -0.25360772 -0.06920763
000010 76 d9 4a be d9 23 4d 3d e9 5b ff bd 4d 17 c2 bc
       -0.19809517 0.050083015 -0.12468702 -0.023692751
000020 2a 9b 8a 3b 74 7a ab bd e6 65 9f 3d eb b4 db bd
       0.004229923 -0.083729655 0.077831075 -0.10727867
000030 72 75 86 be 47 21 02 be 3f 72 f0 3d b2 ab b3 3d
       -0.2626148 -0.12708007 0.11740541 0.08772983
000040 45 dc 71 be bf 47 83 bd 9e 13 9d 3c 5e 87 95 be
       -0.23619182 -0.06410169 0.019174393 -0.2920484
000050 70 e8 b0 3d 1b eb 91 3d d5 e5 05 be 00 96 90 be
       0.08638084 0.07124921 -0.13075955 -0.2823944
000060 02 73 b0 3e 3d 8c 02 3f 21 a4 b6 3e f6 4a 2e 3e
       0.34462744 0.50995237 0.35672095 0.17020783
000070 50 d7 9a 3e af 85 0b 3f 82 88 02 3f 3a e9 f3 3e
       0.30242395 0.5450086 0.50989544 0.47638875
000080 d7 00 2f 3f 5b 9e 8e 3e 4a bb fc 3e 6b e7 08 3f
       0.68360656 0.2785519 0.4936164 0.53478116
000090 4f 56 21 3f ea 8c 21 3f 67 a0 1d 3f 6f f5 f9 3e
       0.6302232 0.6310564 0.6157288 0.48820063
0000a0 a7 f1 e6 3e 66 dc b1 3e b8 17 b5 3e 9b 33 cf 3e
       0.4510624 0.34738463 0.35369658 0.4046906
0000b0 c7 d3 4d be 25 30 b1 3e 28 f1 05 3f f0 fe 02 3f
       -0.20100318 0.34607044 0.523211 0.51170254
0000c0 9e 31 56 3d 10 62 1f be 0b 61 2f be 0c af a5 bd
       0.052293412 -0.15564752 -0.17126863 -0.08090028
0000d0 18 c6 c9 bd 70 35 97 3c ba 02 2c bd b6 f7 21 bd
       -0.098522365 0.018458098 -0.041994788 -0.039542876
0000e0 c5 b8 84 bd f8 ac 01 3d a9 bf b7 bd d5 f9 9b 3d
       -0.064805545 0.031659096 -0.08972103 0.07616011
0000f0 d9 4c 85 bd 05 fb d3 bd 3e 2b 9a be a1 8b 95 3b
       -0.06508798 -0.103506126 -0.30111116 0.004563764
000100 5b fe af bd 59 73 5d be 6b d7 02 be 69 b8 f3 3c
       -0.08593436 -0.21626033 -0.12777488 0.02975102
000110 5c e0 fb bc 63 cd 38 be 67 86 7c be 1a 4b 9b be
       -0.030746631 -0.18047099 -0.24660645 -0.30330735
000120 77 66 33 be 68 29 24 bc ce 59 67 be e3 f7 f8 bd
       -0.17519556 -0.010019638 -0.22592852 -0.12156656
000130 97 0a a6 3d b6 a8 6e bc 85 9a 5e be f3 7d 25 be
       0.081074886 -0.014566591 -0.21738632 -0.16161327
000140 97 de c7 bd b6 4f 3c be dd 63 3f 3c 4c aa 77 be
       -0.097592525 -0.18389782 0.011681524 -0.24186057
000150 de 4b 80 3d fe 55 de bd c3 78 da bd c9 a1 1d be
       0.062644705 -0.108562455 -0.10667565 -0.15393747
000160 22 e9 b0 bd 97 b3 03 be 0d 53 49 be ae 6c 4d be
       -0.086382166 -0.12861477 -0.19660588 -0.2006099
000170 99 6c 05 3e be a8 a7 bc ef be 4d be d8 d0 45 be
       0.13029708 -0.020466205 -0.20092367 -0.19317949
000180 ca 68 b6 3e 6c 82 07 3f ca 22 05 3f b1 a4 ad 3e
       0.35626823 0.52933383 0.5200621 0.33914712
000190 be 5c 27 3f 8f 62 1b 3f f1 dd 92 3e 8f 8d 10 3f
       0.6537589 0.60697263 0.28684953 0.56466
0001a0 e5 6f ef 3e a8 c4 b6 3e c5 a7 cd 3e 0d c6 24 3f
       0.46765056 0.35696912 0.4016706 0.643647
0001b0 33 8f 20 3f ff 6c db 3e 04 8d fa 3e 00 28 a9 3e
       0.62718505 0.42856595 0.4893571 0.3303833
0001c0 6a a8 b6 3e c6 bd 96 3e 36 49 00 3f 5a 11 f0 3e
       0.35675365 0.2944166 0.5011171 0.46888238
0001d0 55 5f 9d 3d 88 e2 e5 3e e2 c1 eb 3e 9f de 9c 3e
       0.07684199 0.44899392 0.46046358 0.30638596
0001e0 e1 dd d6 3e b3 68 e6 3e 5c f5 21 3f d8 99 1a 3f
       0.41966155 0.45001754 0.63265014 0.60390997
0001f0 f9 20 21 3f 5c a8 fe 3e 9d 4e 00 3f 92 fa 39 3f
       0.6294094 0.49737823 0.50119954 0.72647965
000200 92 d7 db 3e f7 d6 2a 3f 6e 41 fd 3e 0c 54 11 3f
       0.42937905 0.6673426 0.4946398 0.5676887
000210 94 90 05 3f 3b 17 16 3f 0e 43 12 3f 4b 1a fc 3e
       0.52173734 0.58629197 0.5713357 0.4923881
000220 62 3a 3f 3f b6 da 0d 3f 1b 3c 08 3f ff 86 da 3e
       0.7469846 0.5541185 0.53216714 0.4268112
000230 6b f1 09 3e 9c 29 1b 3f 50 ca 10 3f 3e 21 df 3e
       0.13471 0.60610366 0.56558704 0.4358005
000240 af ac 0c 3f 13 6e 0f 3f 7d 79 16 3f ef 33 07 3f
       0.54950994 0.56027335 0.58779126 0.5281362
000250 d4 95 0d 3f 26 7e 37 3f eb b0 91 3e 51 7d b7 3e
       0.55306745 0.7167686 0.2845529 0.35837796
000260 45 d9 34 3f 68 3e eb 3e 55 78 27 3f d8 be d8 3e
       0.70644027 0.4594605 0.6541799 0.42333102
000270 05 71 0c 3f 8d 5c 05 3f 42 aa b9 3e 57 52 18 3f
       0.54859954 0.52094346 0.3626271 0.5950064
000280 df 17 ad 3e 67 71 b7 3e 80 e7 fe 3e a8 8c 1e 3f
       0.33807275 0.35828707 0.49785995 0.61933374
000290 56 18 a1 bd 45 60 0e 3f 9a 3f 00 3f d2 f1 00 3f
       -0.0786597 0.55615646 0.5009705 0.5036899
0002a0 84 9d cd bd 82 0e 43 be 69 7b b3 3c 37 55 2a be
       -0.10039809 -0.19048503 0.021909432 -0.1663407
0002b0 ea d9 51 be 39 b8 37 be 00 8a 46 be bf 9a 8a be
       -0.20493284 -0.17941369 -0.1938858 -0.27071187
0002c0 48 f9 34 be 0b 15 9f 3d b8 0d 64 be 48 9a cb bd
       -0.17673218 0.077676855 -0.22270858 -0.09941536
0002d0 5b 68 c3 3c 2a 2f 99 3d 0b 01 2f 3c 6f 5a 56 be
       0.023853472 0.07479699 0.010681401 -0.20932935
0002e0 39 cc 6a be 24 57 6b 3d 30 1a f9 3d ec d0 11 bd
       -0.22929467 0.05745615 0.12163198 -0.035599634
0002f0 88 3e 05 3e 5d fb f3 bd 85 b9 85 be 21 93 91 be
       0.13012135 -0.11913178 -0.26118103 -0.28432563
000300 f6 f1 9f 3e f9 74 0e 3f c0 1b 3c 3f f9 ac 13 3f
       0.3123929 0.55647236 0.73479843 0.5768581
000310 10 bc 31 3f 07 b0 02 3f 8c 5b 30 3f 6a 62 35 3f
       0.69427586 0.51049846 0.6888969 0.7085329
000320 da 5b e1 3e de d7 1b 3f ed 73 3e 3f 33 ec 03 3f
       0.4401539 0.6087626 0.7439564 0.51532286
000330 7a 17 1d 3f ec 72 d8 3e eb e7 3c 3f fc c9 23 3f
       0.6136395 0.42275178 0.7379138 0.6398008
000340 bf 9f 20 3f 18 49 1d 3f 71 67 04 3f ba 28 38 3f
       0.62743753 0.6143966 0.5172034 0.71937144
000350 63 5d 4d 3e 75 26 2a 3f a3 47 e3 3e b1 93 29 3f
       0.20055155 0.6646493 0.44390592 0.66240984
000360 1d cc 8d bc 89 a7 50 be 27 e0 3b be 47 e0 90 3d
       -0.017309243 -0.2037641 -0.18347226 0.070740275
000370 6d 97 13 be fc 9f b4 bd 16 6f 84 3c 3f bc a5 3d
       -0.14413233 -0.08819577 0.016166251 0.08092546
000380 12 c9 fc bd 45 68 e7 bd 66 97 85 be a6 a7 a9 3d
       -0.123430386 -0.11299185 -0.2609207 0.082839295
000390 78 fb 0b 3e 9a 88 ac bd 6f 49 09 3e 0c 78 1c be
       0.13670146 -0.08424492 0.13406919 -0.15280169
0003a0 74 e8 e1 bd cf b4 f3 bd 18 48 29 3e a4 21 54 be
       -0.11030665 -0.11899721 0.16531408 -0.20715958
0003b0 64 49 34 3d 6e ce 41 be a3 34 93 3d 92 84 52 3c
       0.044015303 -0.18926403 0.07187774 0.01284899
0003c0 9f ab f4 3c a7 a2 eb bc f3 2d 1b be c7 72 e4 3c
       0.029866992 -0.028764082 -0.15154247 0.027886761
0003d0 91 f6 6d 3d 81 03 95 be 8f f6 c5 bc 53 7c 52 3c
       0.058096472 -0.29104236 -0.02416542 0.012847024
0003e0 ef c6 0d 3e 5c 7c 18 be 81 b7 ce bd ed fa 63 be
       0.13845418 -0.1489119 -0.10093594 -0.2226369
0003f0 01 4d 0f bc 85 42 62 be ce d9 48 bc eb 40 69 be
       -0.0087463865 -0.22095688 -0.01225896 -0.2277867

bias f4 [36]
000000 bb d7 f4 bd fb a6 12 3f 92 bf 4c 3d 0f 73 45 3c
       -0.1195521 0.5728604 0.049987383 0.012051358
000010 04 bf 24 3f 73 b5 02 3f 75 65 43 3f c8 6a 52 bd
       0.64353967 0.5105812 0.76326686 -0.051371366
000020 67 fe 35 3f b9 d3 60 be 09 cb 4f be 97 63 2e 3f
       0.7109131 -0.21955766 -0.20292296 0.6812071
000030 34 b9 be bd fa c6 34 3f ce 84 27 be 6a 01 46 be
       -0.093126684 0.70616114 -0.16359255 -0.19336477
000040 72 21 38 3f b7 36 fd bd 2f 67 00 3f a9 96 4f 3f
       0.71926033 -0.12363952 0.50157446 0.81089264
000050 19 89 3d bd 17 5e 2b 3f 98 86 45 3f b0 80 b8 3e
       -0.046273325 0.66940445 0.771585 0.3603568
000060 0a a0 10 3f d9 10 26 3c af ec 42 3f 4c de 16 3f
       0.564942 0.010135853 0.761424 0.5893295
000070 c7 db cd 3e 9d 3c 44 3f b3 9c 01 be 43 d2 1a be
       0.4020674 0.7665499 -0.12657432 -0.15119271
000080 aa 0e 56 3f 70 86 2c 3f 4d cd 3c be 36 6b 35 3f
       0.83616126 0.67392635 -0.18437691 0.70866716

weight f4 [1, 36]
000000 b8 e1 99 bd 5a 3b 0b 3f 1f 41 ba ba ba 66 04 3d
       -0.075137556 0.5438744 -0.0014210081 0.03232453
000010 9e 53 06 3f 59 75 19 3f a0 22 00 3f 41 bd 4e be
       0.5247134 0.59944683 0.50052834 -0.20189382
000020 5b a6 49 3f e9 5d b4 3c 3c c0 ba 3d 4a 60 0c 3f
       0.78769463 0.022017436 0.09118697 0.54834425
000030 64 24 37 3d b7 b3 1d 3f 96 54 0d be 9f 3a 26 be
       0.04471244 0.6160235 -0.13801798 -0.162333
000040 2d 92 41 3f b4 52 d9 3d a1 fb 2d 3f eb cf 50 3f
       0.7561367 0.106114775 0.6796208 0.8156726
000050 81 84 da bd 98 af f8 3e e8 74 48 3f 32 79 fb 3e
       -0.10669804 0.48571467 0.78303385 0.49115902
000060 38 e8 23 3f df 20 01 be bc 17 3c 3f 7a 99 30 3f
       0.6402621 -0.12610196 0.73473716 0.68984187
000070 61 dd ec 3e 0c 00 2d 3f d7 9c fa bc 78 be 82 bd
       0.4626265 0.67578197 -0.030592365 -0.06383985
000080 3a 35 26 3f 37 f7 f3 3e 7d 53 bf bd f2 6a 50 3f
       0.6492497 0.47649547 -0.09342096 0.81413186

weight f4 [1, 36]
000000 1a 25 52 bd 9d e4 b9 3d fb e8 ac 3b 9e 53 ac bc
       -0.051304914 0.09076808 0.005276797 -0.021035966
000010 b2 72 9d 3e 4e dd 28 3e 0e 18 83 3e 04 14 7c bd
       0.30751568 0.16490671 0.2560429 -0.061542526
000020 99 5b 8b 3e a8 f4 80 3c 4c ab d0 3c 65 67 5a 3e
       0.2721832 0.015741661 0.025472306 0.21328504
000030 f1 27 49 3d 22 7d 6f 3e 0e a7 11 bd 39 90 b7 bd
       0.049110357 0.23387578 -0.035559706 -0.08963055
000040 fd 6f f6 3d fd 03 5f 3c 73 57 58 3e af 0d 5b 3e
       0.12033079 0.013611791 0.21127109 0.21391939
000050 a3 ad 80 bd a8 f8 8d 3e f8 31 13 3e 9c d8 a1 3e
       -0.062831186 0.27728772 0.1437453 0.31610572
000060 a7 23 a7 3e 14 38 3d bd ed 39 a6 3e 7a fc 81 3e
       0.32644388 -0.04619606 0.3246607 0.25387937
000070 0c 5c 73 3e e1 d5 80 3e b7 91 de 3c a6 59 8f bd
       0.23765582 0.25163177 0.027169092 -0.06999521
000080 df 07 4f 3e e2 ab 9c 3e bf d5 9e 3c b0 c9 8a 3e
       0.20217846 0.30599886 0.019389031 0.27107

exp_avg f4 [24, 3]
000000 52 f3 d3 48 8b b2 17 48 26 b7 9a c9 48 75 0e 49
       434074.56 155338.17 -1.2674288e+06 583508.5
000010 a4 db 18 48 cd fb 68 49 38 67 04 49 05 0d 51 48
       156526.56 954300.8 542323.5 214068.08
000020 45 70 6c 49 ef 78 08 49 3e c7 31 48 b9 17 00 ca
       968452.3 558990.94 182044.97 -2.0986702e+06
000030 1b ee c9 48 24 b2 d5 47 a5 46 86 49 04 78 29 49
       413552.84 109412.28 1.0999886e+06 694144.25
000040 85 90 62 48 83 48 0a ca f5 b0 04 49 27 16 08 48
       232002.08 -2.2656328e+06 543503.3 139352.61
000050 f4 1e f5 c9 0e bb 0b 49 8b bc 49 48 1e b8 0e ca
       -2.0080305e+06 572336.9 206578.17 -2.3383115e+06
000060 d7 b2 d2 48 b6 f0 0e 48 d0 6e 81 49 ef 3a 19 49
       431510.72 146370.84 1.060314e+06 627630.94
000070 e2 0b 54 48 66 e5 fa c9 95 3d 11 49 3f 2b 35 48
       217135.53 -2.0553408e+06 594905.3 185516.98
000080 79 0e 06 ca 2b 21 02 49 0f 20 12 48 22 9c 73 49
       -2.1963822e+06 533010.7 149632.23 997826.1
000090 df 69 09 49 01 e0 32 48 7f d9 83 49 db 06 de 48
       562845.94 183168.02 1.0801119e+06 454710.84
0000a0 d0 a6 0c 48 b7 31 68 49 d3 70 34 49 73 c0 90 48
       144027.25 951067.44 739085.2 296451.6
0000b0 64 1a a8 c9 e3 0f ec 48 a0 8b 00 48 81 79 63 49
       -1.3771005e+06 483455.1 131630.5 931736.06
0000c0 6b 40 bb 48 c1 82 12 48 09 df 7c 49 3e 73 17 49
       383491.34 150027.02 1.03576056e+06 620339.9
0000d0 1e 61 4b 48 40 9a f4 c9 4f be da 48 b4 e1 0a 48
       208260.47 -2.003784e+06 447986.47 142214.81
0000e0 69 ac 50 49 4a 41 17 49 b2 e1 45 48 35 2e 00 ca
       854726.56 619540.6 202630.78 -2.1001092e+06
0000f0 d4 ea 02 bd 74 5f 70 bd 5f 9c 0d 3f 39 ce 43 49
       -0.03196223 -0.05868478 0.5531673 802019.56
000100 7a c2 87 48 4c b8 8e c9 c3 3c 1e 49 f9 60 48 48
       278035.8 -1.1691615e+06 648140.2 205187.89
000110 8b 69 e6 c9 bc 6f 06 49 0e 7e 29 48 ba 2d f2 c9
       -1.8875374e+06 550651.75 173560.22 -1.9839272e+06

exp_avg_sq f4 [24, 3]
000000 0a 90 98 4f a0 a8 f7 4d d8 2b d3 51 8b f5 13 50
       5.119153e+09 5.1937792e+08 1.1337171e+11 9.929371e+09
000010 b6 d1 0c 4e e5 e2 ee 50 df e5 02 50 3f 32 67 4e
       5.9063846e+08 3.2062777e+10 8.784412e+09 9.6970746e+08
000020 41 86 e4 50 85 73 f9 4f 31 6f 24 4e 9b f5 88 52
       3.067203e+10 8.370195e+09 6.896876e+08 2.9411806e+11
000030 5b b0 83 4f ed 15 75 4d 20 f5 fa 50 a7 f4 44 50
       4.418746e+09 2.5699093e+08 3.3682948e+10 1.3217471e+10
000040 b7 52 86 4e fc 97 af 52 2c 3b e4 4f 74 0c ce 4d
       1.1267839e+09 3.7708458e+11 7.6581663e+09 4.3211533e+08
000050 cf db 7a 52 45 57 00 50 e3 52 52 4e 47 55 a6 52
       2.693574e+11 8.612812e+09 8.8216186e+08 3.5719764e+11
000060 da a2 94 4f 91 03 d9 4d b8 43 ed 50 5e 32 21 50
       4.987401e+09 4.551112e+08 3.1845106e+10 1.0817731e+10
000070 c8 24 6c 4e 0d 65 8e 52 80 9f 0d 50 8e e3 2b 4e
       9.904584e+08 3.0579035e+11 9.504162e+09 7.2095424e+08
000080 46 f3 97 52 80 ea f1 4f f0 93 f3 4d ed 51 ed 50
       3.2631076e+11 8.1173545e+09 5.1081984e+08 3.1852554e+10
000090 3d 0b 07 50 03 34 2f 4e 9a e0 09 51 5e 72 af 4f
       9.062643e+09 7.3485536e+08 3.701117e+10 5.887016e+09
0000a0 83 11 d8 4d 60 84 cb 50 32 42 4c 50 20 77 d7 4e
       4.531283e+08 2.7315601e+10 1.3707561e+10 1.8074542e+09
0000b0 bb ca 6a 52 12 06 c5 4f dc 2c bf 4d 2d 2b ca 50
       2.521059e+11 6.611019e+09 4.0092352e+08 2.7134618e+10
0000c0 66 23 65 4f 10 65 e4 4d 02 d2 df 50 62 c4 1b 50
       3.8443023e+09 4.7897856e+08 3.0040658e+10 1.0453354e+10
0000d0 95 ae 5c 4e c0 79 86 52 38 33 ae 4f a5 3f d6 4d
       9.2560723e+08 2.8878412e+11 5.8451845e+09 4.493119e+08
0000e0 e0 46 ac 50 41 0c 1d 50 c1 b7 4d 4e 9b 9b 90 52
       2.3122608e+10 1.0539304e+10 8.6284294e+08 3.1054296e+11
0000f0 de af 9c 41 a6 0d 84 42 49 54 b7 45 eb b7 64 50
       19.585873 66.02666 5866.5356 1.5349034e+10
000100 75 23 ba 4e ae 6c 6c 52 2d 78 2b 50 c6 29 57 4e
       1.561443e+09 2.538589e+11 1.1507119e+10 9.024598e+08
000110 70 8d 81 52 e4 fd f2 4f 7e 4a 18 4e 62 2f 76 52
       2.7821185e+11 8.1534505e+09 6.387547e+08 2.6433923e+11

exp_avg f4 [24]
000000 fb 78 18 c9 50 13 32 c9 68 31 36 c9 81 1b 57 c9
       -624527.7 -729397.0 -746262.5 -881080.06
000010 85 bd 06 c9 50 f7 83 c9 af c2 45 c9 f9 11 61 c9
       -551896.3 -1.081066e+06 -810026.94 -921887.56
000020 a6 e9 0d c9 ce 70 6d c9 ef 8d 63 c9 21 d7 25 c9
       -581274.4 -972556.9 -932062.94 -679282.06
000030 a2 06 32 c9 cb 0b 11 c9 e1 c2 8a c9 d5 a8 13 c9
       -729194.1 -594108.7 -1.1367321e+06 -604813.3
000040 2e d5 01 c9 2f 02 66 c9 09 23 0f c9 e9 97 69 c9
       -531794.9 -942114.94 -586288.56 -956798.56
000050 7d 1f a0 3d 4b 99 95 c9 d2 d3 6e c9 51 ea 4d c9
       0.07818506 -1.2255134e+06 -978237.1 -843429.06

exp_avg_sq f4 [24]
000000 3a e2 04 50 5a 68 3d 50 e2 00 3a 50 c6 9c 83 50
       8.917674e+09 1.271093e+10 1.248248e+10 1.7664717e+10
000010 ac 02 c2 4f 17 08 c2 50 3c c7 65 50 a0 29 92 50
       6.50991e+09 2.604248e+10 1.5420158e+10 1.9617612e+10
000020 b5 0c da 4f a5 90 9d 50 66 70 93 50 95 7b 1f 50
       7.3165317e+09 2.1148019e+10 1.9788935e+10 1.0702706e+10
000030 9a 0e 36 50 74 b1 ef 4f 57 de c5 50 b9 e7 ff 4f
       1.2217641e+10 8.0427684e+09 2.6557463e+10 8.5867525e+09
000040 65 87 b3 4f 02 00 95 50 4b 3f ec 4f 18 0c 9a 50
       6.02399e+09 1.9998446e+10 7.927142e+09 2.067587e+10
000050 da 64 ea 42 c4 34 e2 50 2b 8d 9e 50 e9 72 73 50
       117.196976 3.036087e+10 2.1280414e+10 1.6337577e+10

exp_avg f4 [36, 24]
000000 b6 03 1f 3e 6f 01 54 3e 94 ea 61 3e 85 6a ee 3f
       0.1552876 0.20703672 0.2206214 1.8626257
000010 2a c6 59 3d 06 83 a4 3f 44 38 94 3d 42 34 ec 3f
       0.0531675 1.2852485 0.07237294 1.8453448
000020 2f 45 b5 3d c8 da 26 40 0e 5d f8 3f 18 3a 47 3e
       0.08851086 2.6071033 1.9403398 0.19455755
000030 2a c0 85 3e c9 9a 7f 3d 47 23 63 3f 59 fe 94 3b
       0.26123172 0.062403474 0.88725704 0.004546922
000040 c1 4a b5 3c c8 bd 50 3f 0f 4d 04 3a b3 fb f0 3f
       0.022130372 0.81539583 0.0005046883 1.8826813
000050 00 00 00 00 27 40 72 3f 93 0a 09 40 85 a8 34 3f
       0.0 0.9462914 2.1412704 0.7056964
000060 54 36 a3 c7 8d 27 d5 c7 8a 60 c6 c7 5e 5a 57 c8
       -83564.66 -109135.1 -101569.08 -220521.47
000070 3b 13 88 c7 f1 23 33 c8 f1 04 fe c7 68 8a 69 c8
       -69670.46 -183439.77 -130057.88 -239145.62
000080 ac 9f cf c7 80 74 8c c8 56 9a 4c c8 be 51 d8 c7
       -106303.34 -287652.0 -209513.34 -110755.484
000090 a5 92 fc c7 01 54 c8 c7 06 e5 2c c8 92 3b ac c7
       -129317.29 -102568.01 -177044.1 -88183.14
0000a0 df 80 a1 c7 0c 31 43 c8 b1 49 64 c7 c8 28 63 c8
       -82689.74 -199876.19 -58441.69 -232611.12
0000b0 cd e1 41 3b 84 2d 1c c8 c1 33 67 c8 11 c4 36 c8
       0.002958405 -159926.06 -236751.02 -187152.27
0000c0 7b db 8e 3e 82 a0 fe 3f bd 22 71 3f e4 8c cf 40
       0.27901825 1.9892733 0.9419363 6.4859486
0000d0 96 1e 62 3f 8b 47 76 40 b2 33 08 3f 5d 86 d2 40
       0.8832792 3.8481166 0.5320388 6.578902
0000e0 ea b2 fb 3f 2a 02 f3 40 77 c3 d7 40 df 2b 0a 40
       1.9663975 7.594014 6.7426105 2.1589277
0000f0 7b a0 10 40 7a 9c b8 3f 20 4a d7 3f 6f 1c 51 3f
       2.259795 1.4422753 1.6819496 0.8168401
000100 20 cf 1e 3f 76 c6 1a 40 96 e2 86 3c ce cf c4 40
       0.620348 2.418363 0.016465466 6.150367
000110 d8 eb 5b 3c 05 03 1d 40 fe 6f bf 40 4e 81 3e 40
       0.013422929 2.4533093 5.982421 2.9766421
000120 2d 53 ae 3e 6e b5 a1 3f e2 47 04 3f 85 97 ba 3e
       0.34047833 1.2633493 0.51672184 0.36443725
000130 21 c3 ac 3e eb a9 be 3e dd 23 99 3c 8e 08 cd 3d
       0.33742622 0.37239012 0.018693859 0.10011397
000140 03 b5 82 3f ad dd 80 3e 18 1f 12 3f 2c b1 b0 3f
       1.021149 0.25169125 0.57078695 1.3804069
000150 5e f3 c5 3f d4 cc 50 3f 70 57 84 3f 80 16 de 3e
       1.5464895 0.8156254 1.0339184 0.4337654
000160 2d 25 64 3e ea 3b 31 3d c1 63 47 3c 0b a7 7f 3e
       0.22279806 0.04327003 0.012169779 0.24966066
000170 00 00 00 00 7d 5d c0 3f b5 35 04 3f 6d 92 be 3c
       0.0 1.502853 0.5164445 0.02326318
000180 4a 5f 9c c7 80 6d cc c7 82 3f be c7 42 c2 4d c8
       -80062.58 -104667.0 -97407.016 -210697.03
000190 55 7d 82 c7 8b 4f 2b c8 f9 da f2 c7 4b 1a 5f c8
       -66810.664 -175422.17 -124341.945 -228457.17
0001a0 82 10 c7 c7 fe 45 86 c8 9c 7c 43 c8 05 72 cf c7
       -101921.016 -274991.94 -200178.44 -106212.04
0001b0 b4 31 f2 c7 49 19 c0 c7 79 a7 25 c8 31 2f a5 c7
       -124003.41 -98354.57 -169629.89 -84574.38
0001c0 0a dc 9a c7 07 b0 3a c8 a0 06 5b c7 90 1c 59 c8
       -79288.08 -191168.11 -56070.625 -222322.25
0001d0 00 00 00 00 e9 b8 15 c8 0c 24 5d c8 73 ac 2e c8
       0.0 -153315.64 -226448.19 -178865.8
0001e0 3b ef b7 c7 c6 88 ef c7 88 f1 de c7 e6 a8 74 c8
       -94174.46 -122641.55 -114147.06 -250531.6
0001f0 06 f4 98 c7 5c 00 4b c8 43 07 10 c8 02 b8 84 c8
       -78312.05 -207873.44 -147485.05 -271808.06
000200 bf 86 e9 c7 83 4f 9f c8 91 73 68 c8 4c 27 f3 c7
       -119565.49 -326268.1 -238030.27 -124494.59
000210 10 fc 0d c8 61 35 e1 c7 62 d7 42 c8 1b 84 c1 c7
       -145392.25 -115306.76 -199517.53 -99080.21
000220 53 96 b5 c7 a8 17 5d c8 04 19 80 c7 62 e9 80 c8
       -92972.65 -226398.62 -65586.03 -264011.06
000230 82 dc ae ba 5b b8 2f c8 a5 ec 82 c8 56 76 4f c8
       -0.0013340863 -179937.42 -268133.16 -212441.34
000240 6d 7a 94 c7 92 42 c2 c7 b1 c8 b4 c7 30 f8 42 c8
       -76020.85 -99461.14 -92561.38 -199648.75
000250 85 fa 77 c7 89 6f 22 c8 83 39 e6 c7 fa 60 53 c8
       -63482.52 -166334.14 -117875.02 -216451.9
000260 fb 1e bd c7 b5 93 7e c8 31 3c 39 c8 5a 1d c5 c7
       -96829.96 -260686.83 -189680.77 -100922.7
000270 0a 1f e6 c7 bf 86 b6 c7 9e 4c 1d c8 71 f9 9c c7
       -117822.08 -93453.49 -161074.47 -80370.88
000280 e7 22 93 c7 3e 09 31 c8 66 32 50 c7 b9 c7 4d c8
       -75333.805 -181284.97 -53298.4 -210718.89
000290 85 fe 17 bc 09 3b 0e c8 e0 b7 51 c8 73 8c 25 c8
       -0.009276991 -145644.14 -214751.5 -169521.8
0002a0 bb 7c 31 3f d8 af f4 3f f6 f2 d2 3f 4a c6 f6 3d
       0.6933095 1.9116163 1.6480396 0.120495394
0002b0 17 3d 67 3e e5 d3 ab 3e 00 00 00 00 aa 15 64 3e
       0.22581898 0.335601 0.0 0.22273889
0002c0 b9 b0 0f 40 49 36 8a 3f c4 d6 62 3d 3e 88 03 40
       2.2451613 1.0797817 0.055380598 2.0551906
0002d0 16 44 5a 40 9e 9f e4 3f 23 e2 2d 40 0a 35 51 3f
       3.4104056 1.7861211 2.7169273 0.81721556
0002e0 20 9d 79 3f 09 70 d1 3e b2 fd 3d 3c 6c 2e b1 3e
       0.9750538 0.4090579 0.01159613 0.3460573
0002f0 00 00 00 00 59 14 5e 40 48 f8 53 3f 58 11 f1 3c
       0.0 3.469992 0.8280072 0.029427215
000300 01 11 fb c7 5b a9 22 c8 31 69 17 c8 98 48 a9 c8
       -128546.01 -166565.42 -155044.77 -346692.75
000310 e0 d3 cf c7 c3 da 8b c8 60 b1 46 c8 1a cb b7 c8
       -106407.75 -286422.1 -203461.5 -376408.8
000320 46 d3 1e c8 5a d9 db c8 e0 d7 a0 c8 50 31 25 c8
       -162637.1 -450250.8 -329407.0 -169157.25
000330 0b ff 40 c8 1c 09 19 c8 79 f6 84 c8 93 5f 03 c8
       -197628.17 -156708.44 -272307.78 -134526.3
000340 0c da f6 c7 62 33 98 c8 5a 93 ad c7 35 19 b2 c8
       -126388.09 -311707.06 -88870.7 -364745.66
000350 f0 79 82 bc f0 29 6f c8 63 38 b4 c8 33 57 8f c8
       -0.015927285 -244903.75 -369091.1 -293561.6
000360 00 00 00 00 00 00 00 00 00 00 00 00 e1 f5 70 3d
       0.0 0.0 0.0 0.05882824
000370 00 00 00 00 0f 70 09 3d 61 c0 58 39 3d 1e ae 3d
       0.0 0.033554133 0.00020671032 0.08501861
000380 00 00 00 00 78 16 d3 3d 6d f4 4d 3d 00 00 00 00
       0.0 0.1030702 0.05028193 0.0
000390 00 00 00 00 00 00 00 00 36 7d 85 3c 00 00 00 00
       0.0 0.0 0.016295057 0.0
0003a0 00 00 00 00 c3 a0 40 3d 00 00 00 00 5e b8 8a 3d
       0.0 0.047028314 0.0 0.067734465
0003b0 00 00 00 00 4d 56 85 3b 44 7c 9b 3d f4 e0 1b 3d
       0.0 0.0040691257 0.07592061 0.03805633
0003c0 6c d5 79 3c 50 0f 9e 3c ed 3c f7 3c 4c 2a 3c 40
       0.015248638 0.019294411 0.030180419 2.9400816
0003d0 d1 b9 50 3b 9a ca cc 3f e7 a6 7e 3e 0f 36 4b 40
       0.0031849036 1.5999329 0.24868356 3.1751745
0003e0 34 68 86 3c b9 be 65 40 11 43 3b 40 1a 43 95 3c
       0.01640711 3.5897658 2.9259684 0.018220473
0003f0 79 6d ba 3c d1 fa 47 3c 50 19 ae 3e 8b 4b 8a 3b
       0.022757279 0.012205795 0.34003687 0.004220431

exp_avg_sq f4 [36, 24]
000000 e1 9e 63 43 0f 80 d4 43 4e f7 c7 43 69 d8 ea 46
       227.62062 425.00046 399.93207 30060.205
000010 72 42 ae 41 c3 a0 3b 46 ff f0 b2 42 cd c6 ef 46
       21.782444 12008.19 89.470695 30691.4
000020 b0 00 d9 42 e8 53 4a 47 24 6f f9 46 94 2f a8 43
       108.50134 51795.906 31927.57 336.3717
000030 86 a9 22 44 3f e1 46 42 a6 c1 e6 45 89 84 ce 3e
       650.6488 49.719967 7384.206 0.4033549
000040 c3 6f 38 41 78 5d cd 45 91 5a c5 3b 96 20 db 46
       11.527286 6571.6836 0.0060227592 28048.293
000050 00 00 00 00 bd 3e dc 45 10 3e 07 47 ec d5 9f 45
       0.0 7047.8423 34622.062 5114.74
000060 f6 f7 3a 4d 3c 54 72 4d b1 27 5a 4d be 85 05 4f
       1.9605078e+08 2.5410042e+08 2.2875214e+08 2.2401347e+09
000070 a9 c7 e9 4c 7a f4 93 4e 17 74 2f 4e 87 2e 22 4f
       1.2256801e+08 1.2411364e+09 7.359052e+08 2.7209582e+09
000080 eb ba 82 4d 20 98 36 4f c2 fd f3 4e af 5e 7f 4d
       2.74161e+08 3.063423e+09 2.0467469e+09 2.677747e+08
000090 25 e3 ae 4d 57 f4 63 4d 06 62 27 4e 49 e1 22 4d
       3.6676522e+08 2.3902757e+08 7.020548e+08 1.7079208e+08
0000a0 cd c8 25 4d 05 77 a4 4e 22 a9 91 4c ac d0 04 4f
       1.7383752e+08 1.3796317e+09 7.636814e+07 2.228268e+09
0000b0 f6 d2 2b 3e c9 00 f7 4d 49 88 dc 4e 89 b1 b6 4e
       0.16779694 5.1800298e+08 1.8499596e+09 1.5325441e+09
0000c0 e1 ec bc 43 53 d7 32 46 98 9a 13 45 8d 5c 2d 48
       377.85062 11445.831 2361.662 177522.2
0000d0 34 e2 be 44 a1 3d 47 47 5b 67 b4 44 e7 10 52 48
       1527.0688 51005.63 1443.2299 215107.61
0000e0 45 9d 1b 46 3c 4e 75 48 b1 8a 2c 48 93 ba 48 46
       9959.317 251192.94 176682.77 12846.644
0000f0 24 53 72 46 79 42 af 45 c4 7a 75 46 71 55 02 45
       15508.785 5608.309 15710.691 2085.34
000100 0a 67 b5 44 b8 97 e4 46 d3 c5 05 40 98 00 1c 48
       1451.22 29259.86 2.0901992 159746.38
000110 a5 13 5d 40 02 53 9d 46 11 80 0f 48 b7 ed 2c 47
       3.454324 20137.504 146944.27 44269.715
000120 69 9c a4 44 fc ac 35 46 f2 99 23 45 66 73 fc 43
       1316.8878 11627.246 2617.6216 504.90155
000130 9f a3 e4 43 dd e8 c8 43 46 81 66 40 a9 3a c1 42
       457.2783 401.81924 3.6016402 96.61457
000140 09 ad 0d 46 c6 26 a4 43 a7 78 6c 44 45 4a 62 46
       9067.259 328.30292 945.8852 14482.567
000150 da 39 aa 46 82 62 b7 45 04 a9 1f 46 fb f3 cf 44
       21788.926 5868.3135 10218.254 1663.6244
000160 37 7b 3c 44 6f 94 8f 41 1f f7 0b 40 0f eb 84 43
       753.92523 17.947477 2.186958 265.8364
000170 00 00 00 00 91 e6 89 46 af 55 b1 44 65 f4 cc 40
       0.0 17651.283 1418.6776 6.4048333
000180 f9 19 2b 4d 1f 0c 5f 4d 0b b4 48 4d 3f 36 f2 4e
       1.7941288e+08 2.338821e+08 2.1045266e+08 2.0318207e+09
000190 4b f9 d6 4c 97 81 86 4e fc 74 1f 4e 27 0e 13 4f
       1.12708184e+08 1.1283199e+09 6.68811e+08 2.4671782e+09
0001a0 f8 5d 70 4d 28 ce 25 4f 45 4e dd 4e 7c f6 6a 4d
       2.5204314e+08 2.7817513e+09 1.8564471e+09 2.4637638e+08
0001b0 98 e1 a0 4d d1 a9 51 4d 65 77 19 4e f3 e2 15 4d
       3.373924e+08 2.1984795e+08 6.436847e+08 1.5716741e+08
0001c0 28 69 18 4d 78 96 95 4e 2e 25 86 4c 69 17 f1 4e
       1.5981427e+08 1.2548332e+09 7.033074e+07 2.0224216e+09
0001d0 00 00 00 00 59 24 e3 4d 0c 98 c8 4e 26 d7 a5 4e
       0.0 4.7635126e+08 1.6827039e+09 1.3911703e+09
0001e0 20 bd 6f 4d 7d d9 98 4d 95 b3 89 4d a6 dd 2f 4f
       2.5138432e+08 3.2054877e+08 2.8878096e+08 2.9505388e+09
0001f0 08 c5 13 4d 33 8e c1 4e 68 b7 65 4e 9f ce 55 4f
       1.5494771e+08 1.6236609e+09 9.6350054e+08 3.5870881e+09
000200 a6 80 a5 4d e2 b3 6f 4f b5 ac 20 4f b7 3d a1 4d
       3.4708397e+08 4.0215434e+09 2.695673e+09 3.3814704e+08
000210 b1 02 dd 4d 8b 09 90 4d 6a 88 55 4e 68 72 4d 4d
       4.6349264e+08 3.0206806e+08 8.9562176e+08 2.1542669e+08
000220 ef c0 51 4d b2 d9 d6 4e 1a 39 b7 4c 30 97 2e 4f
       2.1994264e+08 1.8022956e+09 9.606165e+07 2.9291438e+09
000230 b1 c3 0b 3d b4 2b 1c 4e c9 09 10 4f 35 0c f0 4e
       0.034122173 6.5502746e+08 2.4165604e+09 2.0136659e+09
000240 bb e4 19 4d a4 77 49 4d 19 45 35 4d 71 68 d8 4e
       1.6136901e+08 2.1125382e+08 1.9007528e+08 1.8153617e+09
000250 7c 17 c2 4c b1 c5 70 4e e5 ac 0e 4e 8c 5b 03 4f
       1.0175997e+08 1.00987194e+09 5.984239e+08 2.203815e+09
000260 b2 ef 58 4d 4d 47 14 4f 7b bb c5 4e ee 2d 54 4d
       2.274742e+08 2.4877007e+09 1.6586991e+09 2.2248624e+08
000270 f2 41 91 4d ee 4e 3d 4d 1b 3f 0a 4e 6b 65 07 4d
       3.0462726e+08 1.9850416e+08 5.798479e+08 1.4197317e+08
000280 dd 94 09 4d 0c ef 85 4e e3 7f 72 4c 18 85 d7 4e
       1.4426466e+08 1.123518e+09 6.3569804e+07 1.807912e+09
000290 25 33 d3 3f a4 0f cd 4d 20 9f b3 4e 49 42 94 4e
       1.6499983 4.300443e+08 1.506775e+09 1.243686e+09
0002a0 9b 0a db 44 2e c0 6a 46 4d 14 bd 45 62 0d e7 42
       1752.3314 15024.045 6050.5376 115.52614
0002b0 8d 74 d6 43 5e 20 de 43 00 00 00 00 43 63 b4 43
       428.91055 444.25287 0.0 360.77548
0002c0 4b 96 5b 46 09 68 ac 45 6d 22 e2 41 92 2a 82 46
       14053.573 5517.0044 28.26681 16661.285
0002d0 99 af 06 47 9d 59 0f 46 ce c0 cd 46 f5 0e 2b 45
       34479.598 9174.403 26336.402 2736.9348
0002e0 06 d4 2b 45 05 38 8b 44 f3 7e 4b 40 34 0a 34 44
       2749.2515 1113.7506 3.1796234 720.1594
0002f0 00 00 00 00 35 ed 11 47 23 06 a2 45 f9 10 02 41
       0.0 37357.207 5184.767 8.129144
000300 ce 72 e3 4d fe e8 0c 4e f8 2a fe 4d 1d dc ae 4f
       4.76994e+08 5.910199e+08 5.330286e+08 5.867322e+09
000310 c1 af 88 4d dc 38 3e 4f 6e fa e1 4e 42 ea d4 4f
       2.8665245e+08 3.1913974e+09 1.8956429e+09 7.144244e+09
000320 41 7f 19 4e 31 0f ed 4f 80 bc 9f 4f 86 e7 14 4e
       6.4381344e+08 7.9543916e+09 5.359862e+09 6.245503e+08
000330 d5 5d 4c 4e 11 2d 05 4e 94 ee c8 4e 4e 52 bd 4d
       8.5717536e+08 5.585808e+08 1.6855393e+09 3.9703597e+08
000340 a4 4d c2 4d e5 a7 52 4f ac 01 28 4d ff 06 ad 4f
       4.0748352e+08 3.5342185e+09 1.7616762e+08 5.8058337e+09
000350 1d a2 9b 40 93 a7 90 4e be 3f 8d 4f 51 a8 6d 4f
       4.863539 1.2134506e+09 4.7395297e+09 3.987231e+09
000360 00 00 00 00 00 00 00 00 00 00 00 00 ca a9 a3 42
       0.0 0.0 0.0 81.83162
000370 00 00 00 00 f5 f9 d4 41 de 6d 84 3a f4 e9 2a 43
       0.0 26.62205 0.0010103544 170.91388
000380 00 00 00 00 a0 32 7b 43 2d 21 6f 42 00 00 00 00
       0.0 251.19775 59.7824 0.0
000390 00 00 00 00 00 00 00 00 1b ea c8 40 00 00 00 00
       0.0 0.0 6.2785773 0.0
0003a0 00 00 00 00 13 2f 51 42 00 00 00 00 31 f8 d8 42
       0.0 52.29597 0.0 108.48475
0003b0 00 00 00 00 0e 75 c8 3e 9c 4a 08 43 61 fb 08 42
       0.0 0.39151806 136.29144 34.245487
0003c0 27 2c 22 40 44 9c 90 40 55 75 0e 41 84 21 38 47
       2.5339448 4.5190754 8.9036455 47137.516
0003d0 ed 66 c7 3d 54 73 42 46 fd 97 d3 43 63 6f 6b 47
       0.097364284 12444.832 423.1874 60271.387
0003e0 84 69 c6 40 85 be 84 47 e9 90 32 47 33 19 d7 40
       6.2003803 67965.04 45712.91 6.721826
0003f0 53 40 40 41 7b 60 5c 40 90 f8 4b 44 01 61 d7 3e
       12.015704 3.4433887 815.8838 0.42066196

exp_avg f4 [36]
000000 56 c3 11 40 ec 71 be c7 7f 42 ce 40 2e 0e 04 40
       2.2775474 -97507.84 6.445617 2.0633655
000010 f1 5c b6 c7 84 0b d7 c7 17 17 ad c7 cf 0b 52 40
       -93369.88 -110103.03 -88622.18 3.2819707
000020 a9 3f 13 c8 e8 e4 0a 3d 34 c1 e2 3f 27 c0 c0 c7
       -150782.64 0.03390971 1.7715211 -98688.305
000030 a6 23 9e 3e 08 43 de c7 ca e2 12 40 ce d8 ad 3a
       0.30886573 -113798.06 2.295092 0.0013263465
000040 72 6e 0c c8 06 6b 87 40 74 cf f8 c7 f0 f6 18 c8
       -143801.78 4.2318144 -127390.91 -156635.75
000050 f9 26 04 3f b5 73 a7 c7 0a a8 12 c8 70 9b a7 c7
       0.5162197 -85735.414 -150176.16 -85814.875
000060 23 e2 e7 c7 99 bc 8f 40 d6 ae 07 c8 f4 a0 fc c7
       -118724.27 4.491772 -138939.34 -129345.91
000070 67 f1 9c c7 87 70 f6 c7 a9 c0 02 40 00 00 00 00
       -80354.805 -126177.055 2.043009 0.0
000080 f7 b4 eb c7 64 0f a1 c7 28 c9 ac 3e 2b a2 18 c8
       -120681.93 -82462.78 0.3374722 -156296.67

exp_avg_sq f4 [36]
000000 e4 0c f9 46 e0 ee 38 4d ac 9a ca 47 25 a9 a8 46
       31878.445 1.9391642e+08 103733.34 21588.572
000010 1c 66 29 4d 95 37 6d 4d a7 8b 18 4d 03 21 1b 47
       1.7762758e+08 2.4874018e+08 1.5995557e+08 39713.01
000020 c1 ca e1 4d a5 83 d9 41 98 50 4a 46 98 a6 3d 4d
       4.7352016e+08 27.18928 12948.148 1.9886323e+08
000030 3e 3d 75 44 37 02 7e 4d 53 bd 12 47 bd 25 0a 3d
       980.9569 2.6634738e+08 37565.324 0.033727396
000040 48 b6 cc 4d 87 c5 64 47 9c d1 9f 4d 4f d8 f3 4d
       4.2931226e+08 58565.527 3.351643e+08 5.1137994e+08
000050 81 c6 91 45 97 d3 0e 4d fe f9 df 4d a5 00 0f 4d
       4664.813 1.4976446e+08 4.6971283e+08 1.4994901e+08
000060 08 a8 8a 4d a2 bc ab 47 f0 ff be 4d 44 df a4 4d
       2.907835e+08 87929.266 4.0055552e+08 3.4576192e+08
000070 03 04 fa 4c 7a a9 9c 4d d4 4c 91 46 00 00 00 00
       1.31080216e+08 3.2854406e+08 18598.414 0.0
000080 51 0b 8f 4d 98 d1 03 4d 52 24 a5 44 6d e0 f2 4d
       2.9998544e+08 1.3822195e+08 1321.135 5.0934928e+08

exp_avg f4 [1, 36]
000000 36 35 96 bd a8 bb 32 ca e3 95 6e bf dd 76 cb 3d
       -0.07334368 -2.928362e+06 -0.9319746 0.09934781
000010 aa 1b 32 ca 5a e2 65 ca c9 a4 52 ca 1a 0d 3e 3f
       -2.9181225e+06 -3.7664225e+06 -3.4511862e+06 0.7423874
000020 e6 bc 81 ca 99 c4 04 bb f5 a4 07 c0 d1 ca 60 ca
       -4.251251e+06 -0.0020258783 -2.1194432 -3.6829962e+06
000030 ac b1 54 be 20 f7 78 ca 99 da c0 3e f5 34 2a 39
       -0.20770901 -4.079048e+06 0.37666777 0.00016232191
000040 1c d9 6d ca 55 3c 09 c0 2e de 65 ca 99 ad 81 ca
       -3.896903e+06 -2.1443074 -3.7661555e+06 -4.2492925e+06
000050 00 30 1d bb 9e e0 6b ca 88 76 78 ca 15 5d 2b ca
       -0.002398491 -3.8646155e+06 -4.070818e+06 -2.8076212e+06
000060 2c 49 64 ca d4 d8 0f 3e b1 77 7c ca 00 19 7e ca
       -3.740235e+06 0.14047557 -4.1364282e+06 -4.163136e+06
000070 83 6b 33 ca cb 32 75 ca b3 1f ce be 00 00 00 00
       -2.9396168e+06 -4.0173308e+06 -0.4025856 0.0
000080 56 52 7d ca 2f 5d 1e ca 30 aa 71 bd b0 50 88 ca
       -4.1504215e+06 -2.5946358e+06 -0.059000194 -4.466776e+06

exp_avg_sq f4 [1, 36]
000000 4d 2b 83 42 79 37 49 52 87 f5 8d 45 73 ce 94 43
       65.58457 2.1605478e+11 4542.691 297.61288
000010 7f 52 47 52 7e 53 b4 52 38 16 93 52 76 55 45 46
       2.1402064e+11 3.8724744e+11 3.1586648e+11 12629.365
000020 4b 36 ed 52 de bf c6 3d 68 be b5 46 c6 aa a4 52
       5.0940907e+11 0.097045645 23263.203 3.5361987e+11
000030 e0 fb e7 43 3e cd d6 52 6a af 50 45 47 6c 04 3a
       463.96777 4.612832e+11 3338.9634 0.0005051535
000040 9f 8e c2 52 bb 8a 93 46 1c 8e b5 52 92 20 e9 52
       4.1780822e+11 18885.365 3.8988664e+11 5.006369e+11
000050 df cf 2c 3e bf db be 52 b4 1f e3 52 47 6a 32 52
       0.16876172 4.0986526e+11 4.8774473e+11 1.915718e+11
000060 29 9a ae 52 86 a7 b3 44 3a 89 d5 52 1f 68 d9 52
       3.7495534e+11 1437.2351 4.5856516e+11 4.6687738e+11
000070 67 6a 50 52 34 87 c7 52 0c 3c e4 44 00 00 00 00
       2.2378458e+11 4.284834e+11 1825.8765 0.0
000080 f9 5b d9 52 82 eb 15 52 04 4d 80 42 b8 02 01 53
       4.6677547e+11 1.6097532e+11 64.15042 5.540964e+11

exp_avg f4 [1, 36]
000000 d4 03 87 bf 48 c5 e9 c1 d8 28 9a c1 69 ee cc bf
       -1.0548043 -29.221329 -19.269943 -1.6010257
000010 60 62 65 c1 28 72 d7 c0 62 a5 a5 c2 61 cf 9a c0
       -14.336517 -6.732685 -82.82301 -4.837815
000020 06 19 ae c2 df 3f e5 bb a1 1e 7e c1 2d 79 75 c2
       -87.048874 -0.0069961394 -15.882478 -61.368336
000030 82 8f e5 bf 35 4d bb c2 c3 8b 4c c0 50 3c 10 ba
       -1.793442 -93.650795 -3.1960304 -0.00055021513
000040 ba 73 a0 c2 4c e8 b3 c1 46 b3 8f c0 4c e8 b3 c2
       -80.22603 -22.488426 -4.490634 -89.953705
000050 96 25 0a be 96 99 ff c2 85 a9 81 c2 2c 2a 01 c2
       -0.134909 -127.79997 -64.83109 -32.291183
000060 bf 31 73 c2 82 4a 83 c0 9c ab c7 c2 8a 03 98 c2
       -60.79858 -4.102845 -99.835175 -76.00691
000070 98 d6 df c1 f3 60 85 c2 1d 32 f6 c0 00 00 00 00
       -27.979782 -66.689354 -7.6936173 0.0
000080 d5 40 b1 c2 bb e2 0a c2 16 dd c2 be ff 24 e6 c2
       -88.626625 -34.721416 -0.380593 -115.07226

exp_avg_sq f4 [1, 36]
000000 e7 cd 05 46 80 ec 3c 4a 0d 10 ab 49 79 0c 78 46
       8563.476 3.095328e+06 1.4013456e+06 15875.118
000010 2d 0e 5d 48 6e 41 68 47 9b a8 d2 4a 28 b4 e9 47
       226360.7 59457.43 6.9028615e+06 119656.31
000020 68 0d 22 4b 2f 24 94 3f ee a9 d3 49 4c 5b 81 4a
       1.0620264e+07 1.1573542 1.7339498e+06 4.238758e+06
000030 b4 4d 0d 47 b1 9f 2d 4b 61 fe ba 47 3d 30 be 3b
       36173.703 1.1378609e+07 95740.76 0.0058040903
000040 26 28 25 4b 89 57 0f 4a 5b 82 1f 47 5e 92 22 4b
       1.0823718e+07 2.3485142e+06 40834.355 1.0654302e+07
000050 bb 66 9f 43 cf b0 90 4b f6 30 b8 4a 0b 87 b4 49
       318.80258 1.8964894e+07 6.035579e+06 1.4788814e+06
000060 98 0b 93 4a 4e e6 bf 47 99 b8 24 4b 62 9e b9 4a
       4.81838e+06 98252.61 1.0795161e+07 6.082353e+06
000070 77 a1 43 49 25 04 85 4a 8a cd e4 48 00 00 00 00
       801303.44 4.3586745e+06 468588.3 0.0
000080 9f b7 02 4b 65 84 a5 49 29 0d 20 45 eb a2 85 4b
       8.566687e+06 1.3559166e+06 2560.8225 1.751599e+07
