data/policies/Pendulum-v0#default_team_-718.3257169053478#squashedGaussian#200#-718.3257169053478.pt (torch, 21703 bytes, 18 tensors)

weight f4 [24, 3]
000000 6b 05 0c c1 24 a0 35 c1 24 a1 fe 40 5e f8 0a c1
       -8.751323 -11.351597 7.9571705 -8.6856365
000010 c3 7c 2c c1 2b 57 f9 40 6b 67 07 c1 aa 8b 3a c1
       -10.780459 7.7918906 -8.462749 -11.659098
000020 73 8f 01 41 08 81 05 c1 91 54 34 c1 c4 c8 e8 40
       8.097522 -8.344002 -11.270646 7.2745075
000030 5c cf 0a c1 a0 25 13 c1 8f 5a 08 c1 47 bf f5 c0
       -8.675625 -9.196686 -8.522109 -7.6795993
000040 77 ec 1a c1 a9 03 05 c1 b6 9d 0a c1 df 9a 19 c1
       -9.682731 -8.313394 -8.663504 -9.60031
000050 cf fd 01 c1 98 fb 02 c1 7b fd 20 c1 e9 79 f6 40
       -8.124465 -8.186424 -10.061885 7.7023816
000060 3e c5 0e c1 cd b5 34 c1 0c 73 f8 40 ef 77 fa c0
       -8.923155 -11.294385 7.764044 -7.8271403
000070 71 16 14 c1 99 e3 0c c1 6a 4d 09 c1 54 69 29 c1
       -9.255479 -8.805566 -8.5814 -10.588215
000080 37 24 fe 40 68 2e fe c0 05 dd 24 c1 ef e8 0c c1
       7.9419208 -7.943165 -10.30396 -8.806869
000090 65 9f 07 c1 df 71 1a c1 ab ea 10 c1 45 0e f7 c0
       -8.476415 -9.652801 -9.057292 -7.720492
0000a0 cf 30 14 c1 d2 a3 09 c1 4f a3 18 c1 ce 66 1b c1
       -9.261916 -8.602495 -9.53987 -9.712599
0000b0 6d 2e ca 40 9b 23 05 c1 99 f9 2e c1 ff ae 04 41
       6.318167 -8.321193 -10.935937 8.292724
0000c0 c0 a6 07 c1 cd 00 11 c1 f4 56 07 c1 23 19 02 c1
       -8.47821 -9.0626955 -8.458729 -8.131137
0000d0 de 69 14 c1 b6 79 0a c1 da 16 08 c1 b6 19 21 c1
       -9.2758465 -8.654715 -8.505579 -10.068777
0000e0 2b 74 f9 40 f6 d3 08 c1 9d e5 38 c1 58 44 03 41
       7.7954307 -8.551748 -11.556058 8.2041855
0000f0 3e 06 0b c1 bb 66 1e c1 a5 9f 0c c1 ea e3 0e c1
       -8.689024 -9.900081 -8.788976 -8.930643
000100 da 8b 32 c1 5c 16 02 41 70 ec 02 c1 72 b8 1c c1
       -11.159143 8.130459 -8.182724 -9.795031
000110 d3 3f 09 c1 8d 6a 0e c1 5b 8e 0e c1 80 91 06 c1
       -8.578082 -8.901013 -8.909755 -8.410522

bias f4 [24]
000000 11 b4 39 41 50 fe 35 41 f2 6a 31 41 f3 c1 37 41
       11.606462 11.374588 11.08861 11.484851
000010 35 a0 0b 41 b5 b5 1b 41 b6 0b 15 41 26 cb 37 41
       8.726613 9.731862 9.315359 11.487097
000020 8c 0e 34 41 66 80 1b 41 4b e0 34 41 0c e5 16 41
       11.2535515 9.718847 11.304759 9.43092
000030 e3 2e 13 41 02 2f 18 41 d9 f8 3d 41 e4 ef 31 41
       9.198947 9.5114765 11.873254 11.121067
000040 db 79 17 41 59 bd 1f 41 b7 03 30 41 dc 42 29 41
       9.46725 9.983727 11.000907 10.578823
000050 6e c8 13 41 10 1d 32 41 6f df 1c 41 d2 f7 10 41
       9.236433 11.132095 9.804549 9.060503

weight f4 [36, 24]
000000 3b 52 92 3d 64 de 3d be 06 2a 6c be 5e e0 ac 3d
       0.071445905 -0.18541867 -0.23062906 0.08441232
000010 aa 5d 31 be 2f 4e df 3c 9a be 06 3e d6 92 96 3d
       -0.17320886 0.02725896 0.13158646 0.073522255
000020 73 23 10 be d9 41 01 3e ad 6e d1 bd 8a d1 5a 3d
       -0.14076023 0.12622775 -0.10226188 0.05342249
000030 a7 4e 66 be 4c 69 7c 3d d9 21 b9 3d 94 92 e0 bd
       -0.22490941 0.061623856 0.09039659 -0.109654576
000040 13 ea 9d 3d 8b ca 82 be ba 51 80 be ee bc 4d bd
       0.07710662 -0.25545153 -0.25062352 -0.050229006
000050 da 0e 2c bd dd 54 12 be dc 38 96 bd 6b 28 ec bd
       -0.04200635 -0.14290185 -0.07335064 -0.115311466
000060 18 04 1c 41 e3 fe 18 41 64 cb 19 41 3e d6 1e 41
       9.750999 9.562228 9.612156 9.927305
000070 31 e0 1d 41 9b 24 20 41 16 00 20 41 e3 ba 18 41
       9.867234 10.008937 10.000021 9.545627
000080 d6 06 1e 41 43 fb 20 41 59 08 19 41 bd 42 1e 41
       9.876669 10.061343 9.564538 9.891294
000090 47 89 1c 41 66 f5 1d 41 f9 8b 25 41 0b d8 14 41
       9.783515 9.872412 10.346673 9.302745
0000a0 f6 a5 1b 41 d2 f7 1c 41 e3 7b 16 41 16 8e 14 41
       9.728018 9.810503 9.405246 9.284689
0000b0 8b eb 1c 41 5d af 17 41 29 96 21 41 ae 0e 22 41
       9.807506 9.480313 10.09916 10.128584
0000c0 c8 b2 1a 41 d4 a2 19 41 bf c4 1b 41 68 aa 22 41
       9.668648 9.602253 9.735534 10.166603
0000d0 b0 33 21 41 97 7f 24 41 15 df 22 41 ff 25 1b 41
       10.075119 10.28115 10.179463 9.696776
0000e0 e3 1b 19 41 ad ff 22 41 39 a3 1a 41 38 60 22 41
       9.569308 10.187421 9.664849 10.148491
0000f0 90 af 21 41 47 f6 1f 41 c6 2e 26 41 2e d6 13 41
       10.105362 9.997626 10.386419 9.23979
000100 df f6 1e 41 85 84 24 41 a0 ef 1a 41 22 b3 19 41
       9.935271 10.282353 9.683502 9.606234
000110 c7 c2 1f 41 07 0a 1c 41 d3 62 22 41 a1 02 20 41
       9.985053 9.752448 10.149127 10.000642
000120 b7 18 18 41 fa e1 19 41 51 c7 19 41 b9 7b 1d 41
       9.506034 9.61767 9.611161 9.842706
000130 d7 32 21 41 19 6a 22 41 ca f2 1f 41 a6 05 1a 41
       10.074912 10.150903 9.996775 9.626379
000140 c7 af 1c 41 c8 2c 23 41 f0 95 1b 41 5a dd 20 41
       9.792914 10.198433 9.724106 10.054041
000150 f1 4d 20 41 ca 20 23 41 af 05 2b 41 b4 aa 15 41
       10.019029 10.195505 10.688888 9.354176
000160 b5 a0 1f 41 fe cc 21 41 66 f4 1b 41 a8 91 14 41
       9.976735 10.112547 9.747168 9.285561
000170 6b 8f 1f 41 0e 04 1b 41 5c 26 20 41 f0 d7 1f 41
       9.972514 9.68849 10.009365 9.990219
000180 8a 45 17 41 4a d4 19 41 f9 96 1a 41 18 c6 1e 41
       9.454477 9.614328 9.661859 9.923363
000190 10 d3 1d 41 a3 e9 1e 41 92 9a 21 41 c8 d4 16 41
       9.864029 9.93204 10.100237 9.426949
0001a0 a6 41 1a 41 ea 6b 1e 41 d8 9a 1a 41 4b af 1e 41
       9.641027 9.901346 9.662804 9.917796
0001b0 ed 6f 23 41 57 41 1e 41 de b6 2b 41 5e b0 12 41
       10.214826 9.890952 10.732145 9.168058
0001c0 65 34 24 41 c5 9b 22 41 c1 fb 16 41 a8 10 16 41
       10.262792 10.16303 9.436463 9.379066
0001d0 41 0f 24 41 c3 bb 17 41 00 24 1e 41 9c 8c 1e 41
       10.253724 9.48334 9.883789 9.909328
0001e0 44 fb 18 41 bb 1e 19 41 70 d0 1a 41 da 21 20 41
       9.561344 9.570003 9.675888 10.008265
0001f0 3d 8e 22 41 aa fe 20 41 b5 8e 21 41 72 0b 19 41
       10.159726 10.062174 10.097341 9.565294
000200 eb ff 1c 41 ee 5e 22 41 b1 c1 1b 41 a6 7e 1d 41
       9.81248 10.148176 9.734788 9.84342
000210 f0 ca 1d 41 ca 1e 1e 41 28 dc 2a 41 1a b1 15 41
       9.862045 9.882517 10.678749 9.355738
000220 d9 3e 22 41 c5 5a 1f 41 c6 11 1b 41 74 98 16 41
       10.140344 9.959661 9.691839 9.41222
000230 a9 c5 20 41 ec 80 1a 41 a0 0f 1e 41 1a 06 1f 41
       10.048257 9.656475 9.878815 9.93899
000240 a3 d4 1c 41 c6 5c 1b 41 ae ff 19 41 53 4b 1d 41
       9.801913 9.71015 9.624922 9.83089
000250 51 6f 22 41 05 2d 1f 41 13 63 21 41 db 5f 1a 41
       10.152177 9.948491 10.086688 9.648402
000260 bb 33 1c 41 f7 0f 21 41 5e 9d 16 41 86 68 23 41
       9.7626295 10.066398 9.41342 10.213018
000270 47 e3 22 41 2d c7 1e 41 51 d7 29 41 cc 6b 15 41
       10.180488 9.923627 10.6150675 9.338818
000280 ca e0 22 41 12 8e 1e 41 17 06 1a 41 dd 54 13 41
       10.17988 9.909685 9.626487 9.208219
000290 66 29 20 41 b8 80 17 41 cc d9 1e 41 3f 05 21 41
       10.010107 9.468925 9.928173 10.063781
0002a0 55 cc e3 3d 05 3d 80 be 9b 2b 52 3d d0 93 85 bd
       0.111229576 -0.25046554 0.051311117 -0.065223336
0002b0 e5 48 bb 3d 92 f7 8f be 9d e9 91 be 1b ef 88 be
       0.09144763 -0.2811857 -0.28498545 -0.26744923
0002c0 6c 4e 65 be 48 d4 99 be 06 95 94 3d d4 26 cc bd
       -0.22393197 -0.3004477 0.072549865 -0.099683434
0002d0 9b c8 98 3d 7a 93 d7 bd 70 91 b8 bb 96 08 8e 3c
       0.074601375 -0.10526176 -0.005632572 0.017338078
0002e0 f2 97 d6 bd cb a1 d8 3c e5 17 42 be 90 e1 90 3b
       -0.104782 0.026444336 -0.18954428 0.0044214204
0002f0 ed 19 92 be e9 8b 1a be bc 85 97 3d ef eb 50 bd
       -0.28535405 -0.15092434 0.07398555 -0.051006254
000300 e8 0a 1e 41 fe 95 1a 41 66 b6 15 41 8d 99 1f 41
       9.877663 9.661619 9.357031 9.974988
000310 a5 e7 1e 41 3b 33 1e 41 25 e9 1e 41 a4 2e 1b 41
       9.931554 9.887507 9.93192 9.698887
000320 38 f2 18 41 4a 52 23 41 11 ff 1b 41 5d 65 22 41
       9.559135 10.20759 9.749772 10.149747
000330 d6 ed 23 41 19 2f 1e 41 fa 6e 2a 41 fe 68 19 41
       10.245565 9.886498 10.652094 9.588133
000340 4c 9d 1f 41 67 fb 1e 41 ab 86 18 41 5e 61 18 41
       9.975903 9.936378 9.532878 9.523771
000350 81 1d 23 41 63 25 1c 41 ea 8b 21 41 55 24 21 41
       10.194703 9.759128 10.096659 10.07137
000360 9a b7 1a 41 14 c3 17 41 50 0c 17 41 2f 7f 1e 41
       9.669825 9.4851265 9.440506 9.906051
000370 f2 bc 1e 41 48 b3 1f 41 fb ca 22 41 d9 66 1a 41
       9.921129 9.98127 10.174556 9.650109
000380 2d 44 18 41 08 89 1e 41 95 e9 15 41 e8 93 20 41
       9.5166445 9.908455 9.369527 10.03611
000390 a1 51 23 41 c6 1d 23 41 2d 4b 2a 41 30 87 13 41
       10.207429 10.194769 10.643353 9.220505
0003a0 8d 3a 22 41 19 26 23 41 a6 89 1b 41 e5 d5 17 41
       10.139295 10.196801 9.721106 9.48972
0003b0 c6 4c 20 41 a1 0a 16 41 e9 d8 21 41 d0 13 21 41
       10.0187435 9.377595 10.115457 10.067337
0003c0 a6 1d 17 41 e8 7d 1a 41 2e 49 16 41 ff d2 1f 41
       9.444738 9.655739 9.392866 9.989013
0003d0 29 a9 1f 41 c1 0b 20 41 55 2e 23 41 c0 9e 1a 41
       9.978799 10.00287 10.198812 9.663757
0003e0 8d 5c 1d 41 c1 8e 22 41 6b 9d 18 41 55 a9 20 41
       9.835095 10.159852 9.538432 10.041341
0003f0 14 2e 20 41 2b b7 1e 41 ea 5e 2a 41 9a c2 13 41
       10.01125 9.919719 10.648172 9.23501

bias f4 [36]
000000 04 5d 40 be df 1c 32 41 28 76 34 41 d5 4f 32 41
       -0.18785483 11.132049 11.278847 11.14449
000010 48 9d 30 41 14 dc 34 41 9e f4 31 41 58 53 90 be
       11.038399 11.30373 11.122221 -0.28188586
000020 52 e5 35 41 ad 7a 34 41 5e b5 30 41 2c 62 30 41
       11.368486 11.27995 11.044279 11.023968
000030 19 51 2f 41 0f 6a 34 41 ba 3b 33 41 f2 5f 80 bd
       10.957299 11.275893 11.202082 -0.062683
000040 84 ea a8 40 35 09 90 be e6 c1 7f be 80 07 35 41
       5.2786274 -0.28132024 -0.2497631 11.314331
000050 1e 17 30 41 25 b2 33 41 21 ef 31 41 13 68 33 41
       11.005644 11.230992 11.120881 11.212909
000060 84 2e 31 41 8d 34 33 41 f3 99 ac be 45 8b 42 be
       11.073856 11.20033 -0.33711204 -0.1899844
000070 cf 25 0d bd 6b 23 33 41 42 3c 35 41 18 05 30 41
       -0.034459885 11.196147 11.327211 11.001244
000080 f6 2c a9 40 cf f4 8d bc c4 c9 2e 41 29 64 33 41
       5.2867384 -0.017328648 10.924259 11.211953

weight f4 [1, 36]
000000 6a 3d 52 3d c9 90 33 41 48 9f 36 41 9c ba 37 41
       0.0513281 11.222848 11.413887 11.483059
000010 13 40 38 41 a3 ef 37 41 5f 10 36 41 06 6d 87 bd
       11.515643 11.496005 11.378997 -0.066125914
000020 5e 59 38 41 01 38 39 41 67 90 37 41 4a 50 34 41
       11.521818 11.576173 11.4727545 11.269602
000030 4b e8 34 41 ec 54 37 41 be 50 37 41 c9 36 70 bc
       11.306712 11.458233 11.457212 -0.014661499
000040 87 88 ac 40 38 40 a4 bd b8 f5 60 3e c6 bc 37 41
       5.391666 -0.08020061 0.21968734 11.483587
000050 ad 12 35 41 ac f7 36 41 16 5f 35 41 1a 98 37 41
       11.3170595 11.435467 11.335714 11.474634
000060 72 92 35 41 1e 70 39 41 dc 2e 93 3d be e1 b6 3d
       11.348253 11.589872 0.07186672 0.08929776
000070 36 2d be bc 1c 9f 38 41 fe 1b 37 41 21 13 36 41
       -0.023214918 11.538845 11.444334 11.37967
000080 9e 68 ae 40 92 de 8d 3a 25 5c 31 41 d3 9b 35 41
       5.4502707 0.0010823777 11.084996 11.350543

weight f4 [1, 36]
000000 39 43 35 bd be b3 70 3e 0d 53 70 3e ba cc 96 3e
       -0.04425356 0.23506066 0.23469181 0.2945307
000010 50 94 7c 3e 66 49 81 3e 69 55 7e 3e 64 2d 51 bd
       0.24665952 0.2525131 0.24837269 -0.05106868
000020 24 92 52 3e eb 5a 65 3e db e9 9f 3e 80 1c 1c 3e
       0.2056356 0.22397964 0.31233105 0.15245247
000030 10 45 64 3e 4a 80 9a 3e 6d 0f 4a 3e 20 bc f5 3c
       0.2229197 0.30176002 0.19732447 0.029996932
000040 e7 db 39 bc da 0e bb 3d 04 e2 45 bd 4b e1 18 3e
       -0.011343933 0.09133692 -0.04831125 0.14929692
000050 23 4b 84 3e b6 7f f4 3d 4c 65 59 3e 2a b0 1e 3e
       0.25838575 0.119384214 0.21230048 0.15496889
000060 c3 5b 5c 3e 8c 9d 5f 3e 36 50 43 bd 7d 28 93 3d
       0.2151938 0.21837443 -0.047683917 0.07185457
000070 2a 66 39 bc 24 4e 65 3e 1b 19 9f 3e 17 52 83 3e
       -0.011315862 0.2239309 0.3107384 0.25648567
000080 c4 ea c3 bd 26 5e bc 3c 6f a6 10 3e 1a 21 8c 3e
       -0.09566262 0.022994112 0.1412599 0.27369004

exp_avg f4 [24, 3]
000000 eb f7 32 54 78 f9 7e 53 3d d2 d3 d4 34 b9 32 54
       3.0746542e+12 1.0951071e+12 -7.2781225e+12 3.0704455e+12
000010 fb 58 7d 53 60 1a d3 d4 76 dc 2f 54 a0 d6 7a 53
       1.0881196e+12 -7.253445e+12 3.021272e+12 1.07734263e+12
000020 c7 ce d3 d4 e5 1d 39 54 98 ab 84 53 c2 ed d6 d4
       -7.277658e+12 3.180282e+12 1.1396291e+12 -7.3848953e+12
000030 71 3c 36 54 3d 05 68 53 1d 04 1b 54 b2 e0 37 54
       3.1307923e+12 9.965203e+11 2.6631558e+12 3.158995e+12
000040 85 a0 6c 53 f9 56 1a 54 e5 cb 38 54 c1 93 6c 53
       1.01630535e+12 2.6515365e+12 3.174779e+12 1.0160912e+12
000050 1d ab 18 54 9b 8b 32 54 4e 5f 7c 53 70 52 d4 d4
       2.6228233e+12 3.0673855e+12 1.0839307e+12 -7.295329e+12
000060 82 c1 33 54 8d 6d 7f 53 4e b9 d3 d4 90 6a 37 54
       3.0881827e+12 1.0970546e+12 -7.274776e+12 3.1510673e+12
000070 db fe 69 53 f6 a8 1c 54 d4 19 31 54 71 7c 7a 53
       1.00500315e+12 2.6913984e+12 3.0425701e+12 1.0758296e+12
000080 d7 e4 d3 d4 89 ca 36 54 c5 9d 6a 53 ce a6 1b 54
       -7.280619e+12 3.140328e+12 1.0076693e+12 2.6740738e+12
000090 e0 16 37 54 f4 16 69 53 cb c2 1d 54 03 d2 36 54
       3.1454512e+12 1.0011125e+12 2.7103118e+12 3.1408298e+12
0000a0 8a 9a 69 53 f9 c0 1b 54 9e 45 49 54 88 96 8f 53
       1.0033201e+12 2.67583e+12 3.4578256e+12 1.2334116e+12
0000b0 fb 04 dc d4 ba 8a 2b 54 91 64 73 53 7c 8e d0 d4
       -7.559811e+12 2.9470674e+12 1.0453643e+12 -7.1659495e+12
0000c0 ba 63 38 54 f1 3f 6b 53 08 63 1b 54 57 df 37 54
       3.1677885e+12 1.0103901e+12 2.6695256e+12 3.1589041e+12
0000d0 bd 0d 6b 53 fd fa 1a 54 c1 b5 30 54 b6 ee 78 53
       1.0095478e+12 2.6625434e+12 3.0358543e+12 1.0691568e+12
0000e0 0c c0 d3 d4 53 1a 2c 54 64 77 74 53 42 0c d1 d4
       -7.275681e+12 2.956704e+12 1.04997506e+12 -7.1828305e+12
0000f0 7e eb 37 54 e5 4e 6b 53 fd 9a 1b 54 f3 62 30 54
       3.1597197e+12 1.01064095e+12 2.6732808e+12 3.0302973e+12
000100 45 24 7a 53 55 cd d3 d4 0c e5 37 54 0e 96 6b 53
       1.0743503e+12 -7.277464e+12 3.1592871e+12 1.0118348e+12
000110 e5 a9 1a 54 ca cb 37 54 24 c4 69 53 58 e8 1a 54
       2.6571013e+12 3.157592e+12 1.0040181e+12 2.6612922e+12

exp_avg_sq f4 [24, 3]
000000 49 b5 a2 66 94 ce 4c 65 0d af 79 69 e8 02 a2 66
       3.8418375e+23 6.044834e+22 1.8865574e+25 3.825385e+23
000010 9c b2 49 65 18 05 78 69 e8 0b 9c 66 db a1 45 65
       5.953065e+22 1.8739854e+25 3.684544e+23 5.8330744e+22
000020 94 95 74 69 cf 19 b0 66 a2 38 62 65 1a 06 84 69
       1.8480266e+25 4.158063e+23 6.676872e+22 1.9950878e+25
000030 45 d2 a4 66 e9 7d 1d 65 6a 3d 5e 67 a8 ff a8 66
       3.8917345e+23 4.6483386e+22 1.04949825e+24 3.990368e+23
000040 8d 39 26 65 75 ef 5c 67 5c fb aa 66 f0 67 27 65
       4.9060904e+22 1.0433378e+24 4.0371953e+23 4.940953e+22
000050 56 9f 5a 67 bf c8 a1 66 4e 0c 47 65 62 ee 78 69
       1.0324151e+24 3.8200206e+23 5.874862e+22 1.8808708e+25
000060 f9 75 a4 66 06 6c 4f 65 36 82 7a 69 71 00 a7 66
       3.8832216e+23 6.122016e+22 1.8927897e+25 3.9432167e+23
000070 b4 3f 20 65 3c 2e 62 67 d1 ce 9e 66 55 ce 43 65
       4.729711e+22 1.0681077e+24 3.749745e+23 5.7791726e+22
000080 a1 2d 76 69 9d cb a5 66 a9 7d 22 65 a6 53 5f 67
       1.8600702e+25 3.9147324e+23 4.7958837e+22 1.0546308e+24
000090 ee 8b a5 66 44 57 1d 65 70 46 65 67 53 1c a6 66
       3.9088586e+23 4.643883e+22 1.0827213e+24 3.9221766e+23
0000a0 95 e5 1f 65 46 c3 5f 67 30 f8 d8 66 ac 55 87 65
       4.7193207e+22 1.0566899e+24 5.123047e+23 7.988748e+22
0000b0 63 ad 95 69 c5 9c 93 66 8c 15 36 65 56 db 69 69
       2.2618593e+25 3.4853988e+23 5.374176e+22 1.7669719e+25
0000c0 09 89 a9 66 39 55 22 65 28 a8 60 67 8c aa a8 66
       4.003039e+23 4.7912216e+22 1.060912e+24 3.982518e+23
0000d0 2b 64 22 65 8f 37 5f 67 3c 02 9e 66 21 68 40 65
       4.7929446e+22 1.0541126e+24 3.7308756e+23 5.678845e+22
0000e0 7f 16 75 69 c3 7e 94 66 72 3e 39 65 be 2b 6b 69
       1.8518316e+25 3.506243e+23 5.4674357e+22 1.7769008e+25
0000f0 92 31 a8 66 7d d1 22 65 ec 4f 61 67 a2 36 9d 66
       3.97136e+23 4.8055484e+22 1.06400676e+24 3.7120967e+23
000100 ef 4b 43 65 78 0a 75 69 7d a7 a8 66 69 75 24 65
       5.7641387e+22 1.8514766e+25 3.982236e+23 4.853962e+22
000110 a8 10 5e 67 1f 51 a8 66 75 07 20 65 77 65 5f 67
       1.0486726e+24 3.97427e+23 4.723226e+22 1.0549594e+24

exp_avg f4 [24]
000000 b1 89 84 d4 1a 29 84 d4 0a 40 82 d4 b8 5d 89 d4
       -4.553966e+12 -4.541002e+12 -4.475361e+12 -4.719863e+12
000010 51 d3 5d d4 f4 dc 60 d4 39 4e 61 d4 35 0f 84 d4
       -3.8109323e+12 -3.8631186e+12 -3.87072e+12 -4.5375265e+12
000020 9c 00 85 d4 05 a5 5f d4 bb f6 82 d4 99 fe 5e d4
       -4.569927e+12 -3.842185e+12 -4.4998816e+12 -3.8310167e+12
000030 d2 db 5e d4 51 08 5f d4 a9 2a 95 d4 82 fa 7d d4
       -3.8286829e+12 -3.831669e+12 -5.125327e+12 -4.3633182e+12
000040 47 b1 60 d4 60 61 60 d4 13 94 82 d4 ee b0 7e d4
       -3.8601876e+12 -3.8548254e+12 -4.48664e+12 -4.3755603e+12
000050 63 13 60 d4 33 72 82 d4 80 63 60 d4 49 c2 5f d4
       -3.8495917e+12 -4.4820935e+12 -3.854968e+12 -3.844149e+12

exp_avg_sq f4 [24]
000000 fb 9d 4e 67 e4 57 4d 67 fb 8e 47 67 ac 89 5e 67
       9.757217e+23 9.697064e+23 9.4238845e+23 1.05090496e+24
000010 b8 cb eb 66 d7 60 f3 66 cd 20 f6 66 12 5b 4d 67
       5.5675704e+23 5.746607e+23 5.811536e+23 9.697651e+23
000020 e8 43 50 67 c9 55 ef 66 48 f7 49 67 81 f2 ed 66
       9.835049e+23 5.6511402e+23 9.537572e+23 5.6183713e+23
000030 dd 87 ec 66 c9 23 ee 66 12 b4 85 67 d4 05 3d 67
       5.5849236e+23 5.6229167e+23 1.2627929e+24 8.926348e+23
000040 c9 2c f3 66 01 32 f2 66 ed bc 48 67 2b 2f 3e 67
       5.741806e+23 5.7186755e+23 9.4795836e+23 8.981197e+23
000050 de 06 f1 66 63 41 48 67 4e 6a f2 66 20 16 f1 66
       5.691085e+23 9.456795e+23 5.7238683e+23 5.6924923e+23

exp_avg f4 [36, 24]
000000 64 f4 e9 1c 6c cc 9b 1c 84 4d 8b 1c 0e 5f 20 1d
       1.548182e-21 1.0309881e-21 9.218286e-22 2.1224966e-21
000010 c0 41 f7 1c 9b 14 b7 1d 00 00 00 00 91 62 a1 1d
       1.6362085e-21 4.8461002e-21 0.0 4.271826e-21
000020 96 78 b2 1b 4b 9f f7 1d ee 9c 84 1c fc 11 5f 1d
       2.9525557e-22 6.554506e-21 8.775593e-22 2.9523102e-21
000030 4c 03 82 1d d1 df b5 1d b2 05 14 1d f2 a2 fb 1c
       3.4414122e-21 4.814172e-21 1.9590581e-21 1.6651907e-21
000040 99 ce 1f 1d 68 b1 06 1e 82 c8 d9 1b 00 00 00 00
       2.1150283e-21 7.130588e-21 3.6029214e-22 0.0
000050 1c 5d 0c 1d 87 a2 26 1b 9f 3e c6 1d 8d 4a 57 1c
       1.8576982e-21 1.3783714e-22 5.2474912e-21 7.1233887e-22
000060 54 06 0c d3 4d 13 09 d3 e0 40 0a d3 7c 7e 05 d3
       -6.014016e+11 -5.8873433e+11 -5.937939e+11 -5.733527e+11
000070 26 f7 a6 d2 aa 2e a8 d2 50 dc a9 d2 0e bc 06 d3
       -3.5855552e+11 -3.611687e+11 -3.6477285e+11 -5.7868065e+11
000080 ab 96 09 d3 94 91 aa d2 9e 52 09 d3 d5 28 ab d2
       -5.909383e+11 -3.6629342e+11 -5.897966e+11 -3.6756223e+11
000090 01 a3 ac d2 06 80 a7 d2 4a ac 02 d3 02 9d 0a d3
       -3.7073456e+11 -3.597037e+11 -5.612363e+11 -5.9533964e+11
0000a0 10 7d aa d2 9e 7c ad d2 b2 38 06 d3 82 f6 08 d3
       -3.6612132e+11 -3.7256004e+11 -5.764768e+11 -5.8825127e+11
0000b0 b7 41 ad d2 97 82 0b d3 44 1b ad d2 16 8b a9 d2
       -3.7206593e+11 -5.991914e+11 -3.717434e+11 -3.6409147e+11
0000c0 b1 77 0e d3 7a 77 0b d3 70 aa 0c d3 8a d2 07 d3
       -6.1189344e+11 -5.9900494e+11 -6.041549e+11 -5.8335284e+11
0000d0 64 dc a9 d2 4f 19 ab d2 4c ce ac d2 d0 15 09 d3
       -3.647735e+11 -3.67432e+11 -3.7109773e+11 -5.887765e+11
0000e0 19 fd 0b d3 e6 86 ad d2 f7 b7 0b d3 c9 20 ae d2
       -6.012467e+11 -3.7264628e+11 -6.000869e+11 -3.7393718e+11
0000f0 84 a1 af d2 b3 67 aa d2 56 f3 04 d3 43 08 0d d3
       -3.7716453e+11 -3.659421e+11 -5.710182e+11 -6.05729e+11
000100 e8 71 ad d2 d1 7e b0 d2 30 90 08 d3 5e 5a 0b d3
       -3.724702e+11 -3.7902094e+11 -5.865346e+11 -5.9851656e+11
000110 ea 42 b0 d2 ba f1 0d d3 c2 1b b0 d2 b4 7b ac d2
       -3.7851844e+11 -6.096459e+11 -3.7818997e+11 -3.704049e+11
000120 0d 5a 0f d3 0f 55 0c d3 f9 89 0d d3 49 aa 08 d3
       -6.156911e+11 -6.027225e+11 -6.079052e+11 -5.8697246e+11
000130 ba e8 aa d2 99 27 ac d2 40 df ad d2 9f ef 09 d3
       -3.6702447e+11 -3.6969936e+11 -3.7338743e+11 -5.924307e+11
000140 80 db 0c d3 0d 99 ae d2 f7 95 0c d3 e3 33 af d2
       -6.04978e+11 -3.7494604e+11 -6.038114e+11 -3.762449e+11
000150 02 b7 b0 d2 e9 74 ab d2 5e c6 05 d3 67 e8 0d d3
       -3.794923e+11 -3.6820042e+11 -5.745587e+11 -6.0948945e+11
000160 e4 83 ae d2 a0 95 b1 d2 2c 69 09 d3 d6 37 0c d3
       -3.7476853e+11 -3.8135975e+11 -5.90175e+11 -6.022322e+11
000170 5c 59 b1 d2 45 d3 0e d3 f6 31 b1 d2 2b 8c ad d2
       -3.808542e+11 -6.134299e+11 -3.805237e+11 -3.726905e+11
000180 b6 c3 0f d3 80 bc 0c d3 51 f2 0d d3 02 0f 09 d3
       -6.174638e+11 -6.044579e+11 -6.096558e+11 -5.886623e+11
000190 3f 66 ab d2 07 a6 ac d2 ef 5e ae d2 4d 55 0a d3
       -3.680774e+11 -3.7075993e+11 -3.744585e+11 -5.941366e+11
0001a0 54 43 0d d3 49 19 af d2 98 fd 0c d3 93 b4 af d2
       -6.0672e+11 -3.7602175e+11 -6.0555e+11 -3.773244e+11
0001b0 cb 38 b1 d2 d6 f2 ab d2 ec 28 06 d3 05 51 0e d3
       -3.8058102e+11 -3.6925676e+11 -5.762122e+11 -6.1124464e+11
0001c0 0d 04 af d2 0a 18 b2 d2 79 ce 09 d3 35 9f 0c d3
       -3.7584362e+11 -3.8245374e+11 -5.9187456e+11 -6.039665e+11
0001d0 9d db b1 d2 90 3c 0f d3 18 b4 b1 d2 9d 0b ae d2
       -3.8194686e+11 -6.151964e+11 -3.8161534e+11 -3.7375957e+11
0001e0 48 85 0f d3 61 7f 0c d3 aa b4 0d d3 7b d3 08 d3
       -6.164164e+11 -6.034325e+11 -6.086214e+11 -5.876636e+11
0001f0 c6 1b ab d2 01 5b ac d2 2a 13 ae d2 3a 19 0a d3
       -3.674527e+11 -3.7013058e+11 -3.738229e+11 -5.931287e+11
000200 fa 05 0d d3 32 cd ae d2 60 c0 0c d3 39 68 af d2
       -6.0569066e+11 -3.7538346e+11 -6.0452294e+11 -3.7668392e+11
000210 ca eb b0 d2 1f a8 ab d2 a7 ee 05 d3 3b 13 0e d3
       -3.7993506e+11 -3.6863e+11 -5.752346e+11 -6.10208e+11
000220 02 b8 ae d2 aa ca b1 d2 a0 92 09 d3 25 62 0c d3
       -3.7520572e+11 -3.8180468e+11 -5.908705e+11 -6.02942e+11
000230 55 8e b1 d2 59 fe 0e d3 e2 66 b1 d2 fc bf ad d2
       -3.8129857e+11 -6.141526e+11 -3.8096765e+11 -3.7312515e+11
000240 d1 04 0e d3 09 07 0b d3 ff 38 0c d3 0e 65 07 d3
       -6.0996616e+11 -5.971185e+11 -6.0225166e+11 -5.81516e+11
000250 6a 54 a9 d2 57 90 aa d2 fc 43 ac d2 46 a7 08 d3
       -3.6363285e+11 -3.6628303e+11 -3.6993748e+11 -5.8692193e+11
000260 3e 8c 0b d3 f8 fb ac d2 4d 47 0b d3 5f 95 ad d2
       -5.993533e+11 -3.7148085e+11 -5.981967e+11 -3.727677e+11
000270 e6 14 af d2 46 df a9 d2 42 88 04 d3 82 96 0c d3
       -3.7598495e+11 -3.647977e+11 -5.692217e+11 -6.038205e+11
000280 11 e7 ac d2 86 f1 af d2 12 22 08 d3 f9 e9 0a d3
       -3.713055e+11 -3.778357e+11 -5.8468716e+11 -5.966309e+11
000290 cd b5 af d2 44 7f 0d d3 c8 8e af d2 a6 f1 ab d2
       -3.773347e+11 -6.0772555e+11 -3.7700737e+11 -3.692468e+11
0002a0 32 99 3f 1c 07 aa 72 1c 00 00 00 00 e0 e0 6f 1d
       6.33946e-22 8.029084e-22 0.0 3.1747644e-21
0002b0 3b 99 a7 1f e1 ed 7b 1e 3a 41 c3 1e 6d e0 89 1d
       7.098075e-20 1.33370216e-20 2.0673405e-20 3.649565e-21
0002c0 a2 9a 8d 1b 48 96 a0 1f b8 bb cf 1a 3c 4f 74 1f
       2.3426422e-22 6.8011255e-20 8.591647e-23 5.173455e-20
0002d0 9d 5b 10 20 ce 3e b6 1e 56 2d c8 1f 00 00 00 00
       1.2227587e-19 1.9295975e-20 8.4778297e-20 0.0
0002e0 f3 9e 88 1f fb b0 08 20 05 6d a2 1a 00 00 00 00
       5.78612e-20 1.1578206e-19 6.717776e-23 0.0
0002f0 83 1d 00 20 00 00 00 00 ba a4 01 20 a4 29 75 1f
       1.0851786e-19 0.0 1.0981228e-19 5.1915212e-20
000300 c6 d9 0f d3 18 d2 0c d3 1c 08 0e d3 05 24 09 d3
       -6.1783396e+11 -6.048202e+11 -6.100214e+11 -5.890148e+11
000310 ec 7f ab d2 e4 bf ac d2 08 79 ae d2 86 6a 0a d3
       -3.682928e+11 -3.7097688e+11 -3.7467744e+11 -5.9449265e+11
000320 ff 58 0d d3 85 33 af d2 3d 13 0d d3 e6 ce af d2
       -6.070835e+11 -3.762418e+11 -6.0591315e+11 -3.7754523e+11
000330 5b 53 b1 d2 99 0c ac d2 6d 3d 06 d3 e5 66 0e d3
       -3.8080384e+11 -3.6947286e+11 -5.765562e+11 -6.1161164e+11
000340 43 1e af d2 b8 32 b2 d2 a0 e3 09 d3 d2 b4 0c d3
       -3.760635e+11 -3.8267755e+11 -5.9222943e+11 -6.043291e+11
000350 41 f6 b1 d2 8d 52 0f d3 b5 ce b1 d2 ac 25 ae d2
       -3.8217033e+11 -6.155653e+11 -3.818386e+11 -3.7397817e+11
000360 4c 89 10 d3 ec 7d 0d d3 70 b5 0e d3 56 cb 09 d3
       -6.2077875e+11 -6.07703e+11 -6.129294e+11 -5.918219e+11
000370 96 50 ac d2 13 92 ad d2 4f 4d af d2 6e 13 0b d3
       -3.700432e+11 -3.7274003e+11 -3.7645815e+11 -5.973264e+11
000380 75 05 0e d3 b3 08 b0 d2 61 bf 0d d3 d3 a4 b0 d2
       -6.099769e+11 -3.780301e+11 -6.088012e+11 -3.7933977e+11
000390 1e 2b b2 d2 f1 dd ac d2 27 e1 06 d3 ae 14 0f d3
       -3.8261378e+11 -3.7122897e+11 -5.7930305e+11 -6.145273e+11
0003a0 55 f3 af d2 8b 0b b3 d2 e1 8b 0a d3 87 60 0d d3
       -3.7785086e+11 -3.844964e+11 -5.9505227e+11 -6.0720985e+11
0003b0 cb ce b2 d2 70 01 10 d3 10 a7 b2 d2 8e f9 ae d2
       -3.839868e+11 -6.184994e+11 -3.836535e+11 -3.7575557e+11
0003c0 59 37 0f d3 19 33 0c d3 b5 67 0d d3 37 89 08 d3
       -6.151089e+11 -6.021527e+11 -6.073303e+11 -5.8641764e+11
0003d0 d9 bf aa d2 6a fe ab d2 ab b5 ad d2 3a ce 09 d3
       -3.6668155e+11 -3.693539e+11 -3.730386e+11 -5.918704e+11
0003e0 69 b9 0c d3 45 6f ae d2 ed 73 0c d3 f6 09 af d2
       -6.044061e+11 -3.7459555e+11 -6.0324033e+11 -3.758932e+11
0003f0 b8 8c b0 d2 e3 4b ab d2 0d a6 05 d3 09 c6 0d d3
       -3.7913756e+11 -3.678563e+11 -5.740165e+11 -6.089129e+11

exp_avg_sq f4 [36, 24]
000000 ea ac 22 41 78 48 90 40 1b b2 66 40 ba 26 81 41
       10.167215 4.5088463 3.6046207 16.14391
000010 58 b3 35 41 b3 79 9b 42 00 00 00 00 8e 7b 67 42
       11.356285 77.73769 0.0 57.87066
000020 1c 55 bd 3e 99 e6 0c 43 59 9b 4b 40 d2 66 fd 41
       0.36978996 140.90077 3.1813567 31.675205
000030 55 ee 44 42 81 7d 98 42 62 75 61 41 d9 31 3c 41
       49.232746 76.245125 14.091158 11.76217
000040 5a 59 85 41 2c 06 28 43 ad ba eb 3e 00 00 00 00
       16.668629 168.02411 0.4604086 0.0
000050 01 39 6a 41 57 0d a5 3d de 70 be 42 a2 c1 09 40
       14.638917 0.08059185 95.22044 2.1524434
000060 9f ce f1 64 ef 97 e6 64 72 ad f2 64 f2 ca d0 64
       3.5684432e+22 3.4029593e+22 3.581288e+22 3.0812372e+22
000070 52 ee 9c 63 1c 2a 9f 63 cc 2e a0 63 c6 00 e1 64
       5.78973e+21 5.872133e+21 5.909702e+21 3.3204585e+22
000080 61 b9 e5 64 fb e0 a5 63 9b 21 ec 64 3b 5f a7 63
       3.3901299e+22 6.1198486e+21 3.4846825e+22 6.1749367e+21
000090 19 a8 aa 63 d4 52 9f 63 1c 7c af 64 b1 90 fa 64
       6.2961184e+21 5.8780014e+21 2.5896986e+22 3.6976897e+22
0000a0 13 01 a3 63 7f 05 aa 63 ad 3e e1 64 e4 77 f2 64
       6.0137934e+21 6.272685e+21 3.324027e+22 3.5782009e+22
0000b0 8e 21 aa 63 0b 2a f5 64 16 17 a9 63 f8 8b a0 63
       6.276729e+21 3.6179855e+22 6.2383265e+21 5.92313e+21
0000c0 6a 1f fb 64 fb 78 ef 64 87 07 fc 64 3c d2 d8 64
       3.705917e+22 3.5339915e+22 3.7192975e+22 3.1997166e+22
0000d0 8e d6 a2 63 f9 27 a5 63 c4 35 a6 63 72 aa e9 64
       6.0076657e+21 6.093186e+21 6.1320675e+21 3.4482986e+22
0000e0 91 91 ee 64 f0 20 ac 63 3e 3a f5 64 c1 ad ad 63
       3.5206514e+22 6.350427e+21 3.6189193e+22 6.407614e+21
0000f0 c5 16 b1 63 c9 52 a5 63 38 36 b6 64 f7 1c 02 65
       6.533429e+21 6.099356e+21 2.6889714e+22 3.840262e+22
000100 20 24 a9 63 34 6d b0 63 f1 ea e9 64 3a d0 fb 64
       6.2402057e+21 6.508992e+21 3.4520165e+22 3.7161097e+22
000110 85 8a b0 63 b4 9c fe 64 9d 75 af 63 e9 96 a6 63
       6.5132167e+21 3.7574117e+22 6.4733103e+21 6.1460675e+21
000120 16 87 fe 64 d4 b7 f2 64 a0 72 ff 64 86 c1 db 64
       3.7561656e+22 3.5818866e+22 3.7697435e+22 3.2430254e+22
000130 94 ff a4 63 eb 58 a7 63 09 6a a8 63 12 d5 ec 64
       6.087365e+21 6.174027e+21 6.2133873e+21 3.495028e+22
000140 27 cd f1 64 08 6a ae 63 5f 8d f8 64 2a fc af 63
       3.5683585e+22 6.4347477e+21 3.6679835e+22 6.492701e+21
000150 f1 70 b3 63 7d 84 a7 63 c0 ab b8 64 f2 e0 03 65
       6.620211e+21 6.180306e+21 2.7252614e+22 3.892372e+22
000160 a9 62 ab 63 d1 c4 b2 63 79 16 ed 64 ae 3a ff 64
       6.323005e+21 6.595405e+21 3.4987981e+22 3.7665184e+22
000170 96 e2 b2 63 5f 08 01 65 e0 c9 b1 63 a0 cc a8 63
       6.5996954e+21 3.808373e+22 6.5592407e+21 6.2275956e+21
000180 ae 0a 00 65 79 33 f4 64 37 81 00 65 f5 18 dd 64
       3.7791245e+22 3.6037716e+22 3.7927906e+22 3.262823e+22
000190 ce fd a5 63 c6 5a a8 63 7b 6d a9 63 7c 47 ee 64
       6.1240027e+21 6.211188e+21 6.2507773e+21 3.5163809e+22
0001a0 56 47 f3 64 ee 76 af 63 44 12 fa 64 83 0b b1 63
       3.5901593e+22 6.4735e+21 3.6904018e+22 6.5318064e+21
0001b0 ab 85 b4 63 ad 86 a8 63 c4 cb b9 64 6a af 04 65
       6.6600915e+21 6.217515e+21 2.7418644e+22 3.916176e+22
0001c0 c3 6a ac 63 69 d8 b3 63 55 89 ee 64 14 65 00 65
       6.361066e+21 6.6351224e+21 3.5201767e+22 3.7895467e+22
0001d0 62 f6 b3 63 50 d2 01 65 f2 db b2 63 b4 d0 a9 63
       6.639442e+21 3.8316554e+22 6.5987384e+21 6.265077e+21
0001e0 08 37 ff 64 80 5f f3 64 a4 11 00 65 08 59 dc 64
       3.7663081e+22 3.5915522e+22 3.779927e+22 3.2517593e+22
0001f0 e6 6d a5 63 d0 c8 a7 63 90 da a8 63 9c 78 ed 64
       6.1032636e+21 6.1901527e+21 6.229604e+21 3.5044553e+22
000200 20 74 f2 64 d2 de ae 63 2f 39 f9 64 05 72 b0 63
       3.5779838e+22 6.451579e+21 3.6778878e+22 6.509686e+21
000210 2a e9 b3 63 92 f4 a7 63 80 2a b9 64 3a 3c 04 65
       6.637537e+21 6.196459e+21 2.732568e+22 3.902896e+22
000220 44 d5 ab 63 79 3c b3 63 3e ba ed 64 37 eb ff 64
       6.3395213e+21 6.6126494e+21 3.5082388e+22 3.776695e+22
000230 5a 5a b3 63 9a 61 01 65 e1 40 b2 63 77 3d a9 63
       6.6169554e+21 3.8186607e+22 6.576391e+21 6.2438575e+21
000240 b3 5e f9 64 5a cd ed 64 0f 45 fa 64 a7 4f d7 64
       3.6800505e+22 3.5093404e+22 3.6933298e+22 3.1774316e+22
000250 26 bb a1 63 81 08 a4 63 9f 14 a5 63 39 09 e8 64
       5.9668225e+21 6.0517576e+21 6.0903974e+21 3.4242474e+22
000260 93 e7 ec 64 0a f5 aa 63 17 84 f3 64 1d 7f ac 63
       3.4960946e+22 6.307207e+21 3.5936615e+22 6.363999e+21
000270 18 e2 af 63 ea 32 a4 63 77 f2 b4 64 3e 34 01 65
       6.488944e+21 6.0578695e+21 2.6703083e+22 3.813431e+22
000280 b2 fd a7 63 d9 39 af 63 3c 49 e8 64 10 0e fa 64
       6.197774e+21 6.464697e+21 3.4279374e+22 3.6901595e+22
000290 ef 56 af 63 90 d5 fc 64 00 44 ae 63 01 75 a5 63
       6.468889e+21 3.7311746e+22 6.429267e+21 6.1042876e+21
0002a0 10 ed b0 3f 0c e7 0d 40 00 00 00 00 93 f1 a7 41
       1.3822346 2.217227 0.0 20.992956
0002b0 7c b8 bc 45 ef 5a 4b 43 78 a5 19 44 d1 d9 a8 41
       6039.0605 203.35521 614.58545 21.106356
0002c0 f5 47 41 3e 38 2a a9 45 e1 fa cf 3c 54 14 42 45
       0.18875106 5413.2773 0.025388183 3105.2705
0002d0 4d 27 8b 46 a3 ac dc 43 eb e5 1f 46 00 00 00 00
       17811.65 441.34872 10233.4795 0.0
0002e0 54 40 82 45 11 d6 81 46 b6 e7 0d 3c 00 00 00 00
       4168.041 16619.033 0.008661201 0.0
0002f0 c2 a5 60 46 00 00 00 00 14 3c 67 46 10 13 57 45
       14377.439 0.0 14799.02 3441.1914
000300 c4 3f 00 65 98 98 f4 64 87 b6 00 65 20 74 dd 64
       3.785245e+22 3.6096009e+22 3.798937e+22 3.2680785e+22
000310 19 3e a6 63 fb 9b a8 63 fc ae a9 63 1a aa ee 64
       6.133268e+21 6.220585e+21 6.2602174e+21 3.5220658e+22
000320 03 ac f3 64 1a bb af 63 ee 79 fa 64 4e 50 b1 63
       3.5959628e+22 6.4833246e+21 3.6963776e+22 6.5417205e+21
000330 e1 cb b4 63 0a c8 a8 63 a9 17 ba 64 8d e6 04 65
       6.67021e+21 6.2269347e+21 2.7462394e+22 3.922533e+22
000340 93 ad ac 63 3a 1e b4 63 0d ec ee 64 61 9a 00 65
       6.3706946e+21 6.645184e+21 3.5258675e+22 3.795692e+22
000350 48 3c b4 63 2f 08 02 65 5f 21 b3 63 6f 12 aa 63
       6.6495153e+21 3.8378663e+22 6.6087437e+21 6.2745495e+21
000360 ce 88 01 65 f4 0b f7 64 d5 00 02 65 b5 ab df 64
       3.8231805e+22 3.6457657e+22 3.8370187e+22 3.3007974e+22
000370 28 e3 a7 63 10 47 aa 63 b4 5c ab 63 38 0e f1 64
       6.193949e+21 6.282134e+21 6.3221464e+21 3.557352e+22
000380 f7 1c f6 64 69 78 b1 63 8b fc fc 64 a6 11 b3 63
       3.631989e+22 6.5475003e+21 3.7334217e+22 6.606478e+21
000390 1d 96 b6 63 a0 73 aa 63 d6 f3 bb 64 b7 3b 06 65
       6.7362484e+21 6.2885563e+21 2.773689e+22 3.9618666e+22
0003a0 f8 62 ae 63 a1 e6 b5 63 e7 50 f1 64 69 e4 01 65
       6.43373e+21 6.7109585e+21 3.561196e+22 3.833742e+22
0003b0 04 05 b6 63 de 55 03 65 38 e7 b4 63 2f c1 ab 63
       6.7153377e+21 3.8763374e+22 6.67415e+21 6.336627e+21
0003c0 b4 f6 fd 64 44 2e f2 64 a4 e1 fe 64 43 45 db 64
       3.7478425e+22 3.5739567e+22 3.7613857e+22 3.2358622e+22
0003d0 84 a5 a4 63 8d fd a6 63 2e 0e a8 63 da 4e ec 64
       6.0743854e+21 6.1608596e+21 6.2001495e+21 3.4872908e+22
0003e0 1f 44 f1 64 ab 0a ae 63 6c 00 f8 64 f0 9b af 63
       3.5604592e+22 6.4210044e+21 3.6598583e+22 6.4788334e+21
0003f0 c4 0e b3 63 fd 28 a7 63 dc 43 b8 64 08 96 03 65
       6.6060623e+21 6.1671196e+21 2.7192726e+22 3.883735e+22

exp_avg f4 [36]
000000 47 64 09 1e e3 54 9b d0 71 08 9e d0 c7 02 9f d0
       7.2734565e-21 -2.0848253e+10 -2.1210827e+10 -2.1342075e+10
000010 c2 77 9f d0 7d 32 9f d0 82 89 9d d0 8d 2c bb 1f
       -2.1403406e+10 -2.136709e+10 -2.1144277e+10 7.9271284e-20
000020 ec 8f 9f d0 54 52 a0 d0 84 dc 9e d0 bd fb 9b d0
       -2.1416075e+10 -2.1518e+10 -2.1322015e+10 -2.0935731e+10
000030 69 84 9c d0 0c a8 9e d0 6f a5 9e d0 6f 03 66 30
       -2.1007387e+10 -2.1294506e+10 -2.1293136e+10 8.367839e-10
000040 89 dd 10 d0 e4 d2 68 1f 78 a5 31 20 76 05 9f d0
       -9.721751e+09 4.9302356e-20 1.5047232e-19 -2.1343482e+10
000050 90 aa 9c d0 c6 55 9e d0 de ee 9c d0 d5 e3 9e d0
       -2.102739e+10 -2.125137e+10 -2.10632e+10 -2.132585e+10
000060 52 1a 9d d0 b9 84 a0 d0 94 c8 94 35 cb 2f a9 1d
       -2.1085983e+10 -2.1544421e+10 1.1085235e-06 4.4783344e-21
000070 21 2a 28 37 b3 cc 9f d0 fd 76 9e d0 e6 8c 9d d0
       1.0023389e-05 -2.144794e+10 -2.1268785e+10 -2.1146055e+10
000080 87 86 12 d0 8b 75 de 20 1e 61 99 d0 61 23 9d d0
       -9.83316e+09 3.7686046e-19 -2.058623e+10 -2.1090732e+10

exp_avg_sq f4 [36]
000000 7f fb 31 43 d3 82 a3 5f 76 da a9 5f c2 2b ac 5f
       177.9824 2.3564423e+19 2.447845e+19 2.4812446e+19
000010 37 3a ad 5f f7 a3 ac 5f 7c a8 a8 5f ea 60 0c 46
       2.49647e+19 2.4880116e+19 2.43062e+19 8984.229
000020 b3 83 ad 5f 57 42 af 5f e3 c8 ab 5f 95 f2 a4 5f
       2.5006068e+19 2.5257504e+19 2.4756786e+19 2.3771452e+19
000030 0a 48 a6 5f 3b 4c ab 5f 12 50 ab 5f e2 7a 92 44
       2.3963676e+19 2.4686611e+19 2.4688773e+19 1171.8401
000040 21 dd 58 5e ec f0 04 45 51 93 8a 46 68 38 ac 5f
       3.9066706e+18 2127.0576 17737.658 2.4819566e+19
000050 c9 a6 a6 5f ac 89 aa 5f 36 4d a7 5f 5f de ab 5f
       2.4017013e+19 2.4577084e+19 2.4110702e+19 2.476888e+19
000060 91 a3 a7 5f f5 c2 af 5f 9b ad b2 45 22 0c 2a 43
       2.4159316e+19 2.532991e+19 5717.7007 170.0474
000070 32 3d 93 47 6c 0e ae 5f 5c e2 aa 5f 7b b8 a8 5f
       75386.39 2.5084162e+19 2.462701e+19 2.4315205e+19
000080 d9 e1 5e 5e ad a4 a7 47 1b f9 9e 5f f3 be a7 5f
       4.015089e+18 85833.35 2.2910434e+19 2.4174731e+19

exp_avg f4 [1, 36]
000000 be 54 c8 1c 37 b9 10 d5 4e b1 12 d5 1e 2d 12 d5
       1.3256795e-21 -9.945323e+12 -1.0080638e+13 -1.0045155e+13
000010 51 41 11 d5 69 03 12 d5 1b cc 11 d5 9a 01 7b 9d
       -9.981857e+12 -1.0033959e+13 -1.0019113e+13 -3.3220401e-21
000020 0f 70 12 d5 54 81 11 d5 04 df 11 d5 91 1f 0f d5
       -1.0063124e+13 -9.99904e+12 -1.0024189e+13 -9.835359e+12
000030 a0 43 12 d5 f2 72 11 d5 e5 a1 12 d5 dd d9 16 af
       -1.0051197e+13 -9.99518e+12 -1.0076502e+13 -1.3719821e-10
000040 a3 2d 73 d4 37 c1 92 9e 93 e2 d8 9e cd 4f 12 d5
       -4.1777708e+12 -1.5538263e-20 -2.2963598e-20 -1.0054465e+13
000050 dc 5d 12 d5 82 47 11 d5 fc 8a 12 d5 3d f3 11 d5
       -1.0058239e+13 -9.983519e+12 -1.0070352e+13 -1.0029618e+13
000060 bd cc 11 d5 90 42 12 d5 6d ca d5 b3 1d d8 a5 9e
       -1.0019283e+13 -1.0050911e+13 -9.9554065e-08 -1.7559437e-20
000070 06 84 31 b6 60 4c 12 d5 10 1f 12 d5 7c 41 12 d5
       -2.6451903e-06 -1.0053545e+13 -1.0041382e+13 -1.0050622e+13
000080 ef 07 74 d4 db fc de 9f a5 d7 0d d5 1e f6 11 d5
       -4.1924205e+12 -9.443897e-20 -9.747333e+12 -1.0030391e+13

exp_avg_sq f4 [1, 36]
000000 18 c4 f0 40 22 e4 94 68 8f e2 98 68 d3 cd 97 68
       7.523937 5.6249484e+24 5.775832e+24 5.734993e+24
000010 c8 81 95 68 8c da 97 68 e2 c6 96 68 df d6 a2 41
       5.648213e+24 5.7368705e+24 5.6961897e+24 20.354918
000020 12 b8 98 68 53 c5 95 68 92 c1 96 68 b4 a7 90 68
       5.7695616e+24 5.658181e+24 5.695406e+24 5.464915e+24
000030 98 fb 97 68 c3 f1 95 68 13 d6 98 68 18 04 fc 41
       5.7417474e+24 5.6647386e+24 5.7739894e+24 31.501999
000040 17 02 25 67 17 9e 54 43 e0 6c 3a 44 62 6f 98 68
       7.79229e+23 212.61754 745.7012 5.758835e+24
000050 56 81 98 68 7b a8 95 68 bb 38 99 68 a4 24 97 68
       5.761484e+24 5.653924e+24 5.7885485e+24 5.710026e+24
000060 6b d4 96 68 76 a7 97 68 91 76 38 42 e8 02 10 44
       5.698187e+24 5.7293316e+24 46.115788 576.0454
000070 11 10 c0 44 c1 0c 98 68 6a de 97 68 1e 24 98 68
       1536.5021 5.74428e+24 5.737441e+24 5.7477276e+24
000080 bd 3a 26 67 82 7b cc 45 f2 d3 8e 68 94 81 97 68
       7.849964e+23 6543.4385 5.395886e+24 5.723741e+24

exp_avg f4 [1, 36]
000000 0d 12 a0 9d 7c ae ba a1 56 e8 83 a2 37 04 39 a2
       -4.237031e-21 -1.2650036e-18 -3.5753616e-18 -2.5074407e-18
000010 af 12 9e a1 11 bd 43 a2 2a 32 23 a2 d0 9d ab 9f
       -1.0711442e-18 -2.6527519e-18 -2.2117176e-18 -7.2682396e-20
000020 d9 d9 b2 a2 b4 5f 03 a2 fa a8 37 a2 4a af 19 a2
       -4.847765e-18 -1.7804475e-18 -2.489058e-18 -2.0828164e-18
000030 da 24 d1 a1 33 90 56 a2 c5 58 76 a2 00 00 00 00
       -1.4172145e-18 -2.9078747e-18 -3.338621e-18 0.0
000040 0e 2b a4 a1 c7 5f 11 a0 1e 35 6e a0 3b 3d 13 a2
       -1.1124469e-18 -1.2313668e-19 -2.0176959e-19 -1.995463e-18
000050 05 58 6d a2 d9 f9 53 a1 97 f2 23 a2 bb 41 9f a1
       -3.2166087e-18 -7.182025e-19 -2.2219045e-18 -1.0791658e-18
000060 20 ea be a1 69 20 60 a2 00 00 00 00 33 e0 2d a0
       -1.2936873e-18 -3.0374819e-18 0.0 -1.4727851e-19
000070 ff 2a dc a0 6a b8 7b a2 0e 20 cc a2 79 14 4d a2
       -3.7297902e-19 -3.4114471e-18 -5.532825e-18 -2.7793519e-18
000080 56 3e 1c 9d 15 ea 95 a1 74 ad a6 a0 a8 66 86 a2
       -2.0678655e-21 -1.0158594e-18 -2.8236275e-19 -3.6429464e-18

exp_avg_sq f4 [1, 36]
000000 2f 7c 8f 42 e6 b7 d0 48 b6 ac 2f 4a 3a 01 ce 49
       71.742546 427455.2 2.8782535e+06 1.6875912e+06
000010 6b 65 f2 48 d6 63 0d 4a 95 65 c6 49 97 a9 da 45
       496427.34 2.3165335e+06 1.6252666e+06 6997.1987
000020 a0 09 cd 4a 2e a9 44 49 49 cf eb 49 09 93 93 49
       6.718672e+06 805522.9 1.9317531e+06 1.2089291e+06
000030 8b 90 06 49 07 50 33 4a 9c 85 36 4a 00 00 00 00
       551176.7 2.9378578e+06 2.990439e+06 0.0
000040 e4 75 7a 49 3e 9f 28 46 d7 ce 48 47 0f 1f 7e 49
       1.02588625e+06 10791.811 51406.84 1.04088094e+06
000050 a1 a7 38 4a 2e 3d 6d 48 ba 3d b8 49 ad 45 b0 48
       3.0253842e+06 242932.72 1.5093032e+06 361005.4
000060 b5 a2 01 49 9a 15 0f 4a 00 00 00 00 54 f9 05 47
       530987.3 2.3442945e+06 0.0 34297.33
000070 64 7d 07 48 6b 9c 41 4a d0 2b 10 4b 55 49 06 4a
       138741.56 3.1721228e+06 9.4484e+06 2.2001492e+06
000080 1a cc 7b 41 9f fc 25 49 98 fe a4 46 9e 0d 5c 4a
       15.7373295 679881.94 21119.297 3.6053515e+06
