data/policies/Pendulum-v0#default_team_-1679.7142549373339#squashedGaussian#200#-1679.7142549373339.pt (torch, 21703 bytes, 18 tensors)

weight f4 [24, 3]
-0.27420363 0.55051833 0.2941671 -0.47633976 -0.2506077 0.21052013 -0.16526337 0.6847694
-0.6749847 -0.35237792 0.4356966 0.59182805 0.53321236 0.27568805 -0.31162176 -0.069336995
-0.22759432 -0.24017939 0.4194342 0.5546875 0.39571452 -0.39611277 0.6496099 -0.49156356
0.41608474 -0.30920517 -0.1654441 0.20001863 -0.19729707 0.44278973 0.17195275 -0.6357447
-0.67324585 -0.3214073 0.5872924 0.41169614 -0.6142853 0.2796457 0.17413951 0.027126512
0.11791483 0.17141837 0.45389906 -0.37229416 0.61118436 0.1276847 -0.64278454 0.16192341
-0.4039677 0.7355068 0.197331 0.1425559 -0.18809351 0.6907118 0.3270425 -0.26835504
0.4950437 -0.682035 -0.6701804 0.6233621 -0.078970104 -0.5784027 -0.63886476 -0.1449199
0.2959767 0.1877607 -0.2752958 0.2197727 -0.6875163 -0.5225067 -0.57117254 -0.46032837
00000000: 6b64 8cbe c5ee 0c3f 129d 963e cee2 f3be
00000010: a74f 80be 9792 573e cd3a 29be 0c4d 2f3f
00000020: cccb 2cbf e16a b4be a013 df3e 0b82 173f
00000030: 9b80 083f fc26 8d3e e38c 9fbe 8e00 8ebd
00000040: 7c0e 69be 96f1 75be 14c0 d63e 0000 0e3f
00000050: 189b ca3e 4bcf cabe d64c 263f 38ae fbbe
00000060: 0f09 d53e 2450 9ebe 2e6a 29be afd1 4c3e
00000070: 3e08 4abe 56b5 e23e 6214 303e 2ac0 22bf
00000080: d759 2cbf 7f8f a4be cb58 163f d6c9 d23e
00000090: cd41 1dbf b92d 8f3e a151 323e 6b38 de3c
000000a0: 557d f13d 4c88 2f3e 7565 e83e 579d bebe
000000b0: 9476 1c3f c7bf 023e 878d 24bf 40cf 253e
000000c0: dbd4 cebe 2c4a 3c3f 2311 4a3e 2dfa 113e
000000d0: 969b 40be 7dd2 303f 1d72 a73e d565 89be
000000e0: 5e76 fd3e d999 2ebf f190 2bbf a994 1f3f
000000f0: 14bb a1bd 3312 14bf a48c 23bf e265 14be
00000100: 428a 973e 5744 403e 92f3 8cbe 180c 613e
00000110: 1101 30bf 00c3 05bf 5d38 12bf 29b0 ebbe

bias f4 [24]
0.033373475 0.3831619 0.69361216 -0.11852826 -0.23232014 -0.006982794 0.27263168 -0.024954407
0.4393838 -0.0853216 -0.0067589264 -0.29791674 -0.47656387 -0.39079848 0.04834944 -0.40163508
0.07002768 0.5692838 0.0030241162 0.4195628 0.3168396 0.20256719 0.26371297 0.26380476
00000000: a0b2 083d cc2d c43e 9190 313f f2be f2bd
00000010: 55e5 6dbe eccf e4bb 6196 8b3e 2f6d ccbc
00000020: eaf6 e03e 17bd aebd fc79 ddbb 8b88 98be
00000030: 2e00 f4be bd16 c8be 100a 463d 1da3 cdbe
00000040: ac6a 8f3d 95bc 113f 4030 463b efd0 d63e
00000050: cd38 a23e c66d 4f3e 6305 873e 6b11 873e

weight f4 [36, 24]
-0.092585325 -0.029437497 0.19431151 0.18208705 -0.10583186 -0.08319066 0.2015405 0.15881467
0.07513383 -0.14216897 0.25145456 -0.16797379 -0.15089615 0.016906306 0.123622544 0.10407367
-0.04836239 -0.00015375763 0.219466 0.124229915 0.062380925 -0.040157303 0.19714443 -0.010660794
-0.020743862 0.124294564 0.2944127 0.15669896 0.0036321878 0.122981854 0.005272124 0.07111715
0.12796558 0.22275852 0.051491573 0.094102 0.21454255 0.23703954 0.2526392 0.21586795
0.20331553 0.28424194 0.06032308 0.20396158 -0.030857373 0.088685475 0.080287114 -0.045533422
-0.20370623 -0.19991134 -0.032468826 0.044377606 0.03990934 -0.06688519 0.12641165 0.04716288
-0.1956642 -0.21258454 -0.19463922 0.075394385 0.049384557 -0.19607523 -0.15629727 -0.08671859
-0.18147632 -0.065956704 0.02239505 -0.021541093 -0.13133225 -0.25648084 -0.027403317 -0.0027814065
0.041960068 -0.014297735 0.03334884 0.2501018 0.2834586 0.07650155 0.14612637 0.34500754
0.10053027 0.07647554 0.110221535 0.14033669 0.29881343 0.09197255 0.1380175 0.28767312
0.34553364 0.05148167 0.30743694 0.061223462 0.12509188 0.21875907 0.26162118 0.27033085
0.26202047 0.15852654 0.08980427 0.29049826 0.15470426 0.25803033 0.082399175 0.29140675
0.19146146 0.23089372 0.21554628 0.081144296 0.049835403 0.17105648 0.21639217 0.15034433
0.36481786 0.0751471 0.038869966 0.30104318 0.3579735 0.28903538 0.22945772 0.21623492
-0.021117663 -0.24757099 0.038506553 -0.10891907 0.04880441 -0.009933421 -0.1363579 -0.25418678
-0.09577166 0.16873449 -0.16124603 0.12208442 -0.19884424 -0.055383984 0.16878982 0.091354996
0.021768153 -0.0683861 0.13591683 -0.23501676 -0.09741112 -0.21028718 0.1331022 -0.13816132
-0.20024294 -0.077141546 -0.14667487 -0.08897584 0.121686734 -0.06600668 0.07642462 -0.14840285
0.12072636 0.1461745 0.082276486 -0.13045242 0.0019434189 0.10073787 -0.15915433 -0.0034183618
-0.1870158 -0.07438087 0.193117 0.084709726 0.17213337 -0.14519599 -0.16430052 -0.07275963
0.29687682 0.11056939 0.22310077 0.10133489 0.052632887 0.19480218 0.16660711 0.13443561
0.2068226 0.27090684 0.20711412 0.3069445 -0.05582792 0.20983024 0.006626667 0.060525827
0.31041646 0.31346878 0.099949814 0.32996607 0.08898004 0.3184058 -0.061272133 0.09044299
-0.21923855 0.10386819 -0.082825676 -0.18870278 -0.20134783 -0.16594897 -0.2639888 0.09002107
0.04261564 -0.008574716 0.08959903 0.10602395 -0.2011972 0.12478727 0.12708987 0.072321534
-0.18423758 -0.23800722 0.0061074416 0.083764635 -0.15744384 -0.06592794 0.0246285 -0.25845456
-0.16102831 0.09562919 -0.22172128 0.09704938 -0.1632085 0.066599816 -0.13950916 0.108160295
-0.2069751 -0.07464007 -0.0964009 0.112384975 -0.17160137 0.08529141 0.1205467 0.15212804
0.1683782 -0.22196218 0.1339135 -0.08791168 0.047306843 -0.079127006 -0.16942528 0.02484831
0.32910854 0.27274865 -0.0105932485 0.14910743 0.14320047 0.109000854 -0.038186796 0.22758229
-0.039200943 0.07471092 -0.06792329 0.17382601 -0.08290714 -0.053905897 0.3218868 -0.03350337
00000000: 609d bdbd e826 f1bc 99f9 463e 0775 3a3e
00000010: 60be d8bd dd5f aabd a260 4e3e 50a0 223e
00000020: c4df 993d be94 11be a7be 803e 5201 2cbe
00000030: 8584 1abe 187f 8a3c d12d fd3d 9424 d53d
00000040: a417 46bd 003a 21b9 b2bb 603e 416c fe3d
00000050: 2483 7f3d fc7b 24bd 3be0 493e 9caa 2ebc
00000060: 08ef a9bc 268e fe3d 43bd 963e b175 203e
00000070: 000a 6e3b e9dd fb3d c8c1 ac3b dea5 913d
00000080: 6909 033e cf1a 643e d4e8 523d 8db8 c03d
00000090: 0bb1 5b3e 7eba 723e ed59 813e 7d0c 5d3e
000000a0: f231 503e 2988 913e 5515 773d 4edb 503e
000000b0: 9ac8 fcbc bba0 b53d 926d a43d 4181 3abd
000000c0: 5e98 50be 8fb5 4cbe 08fe 04bd 4bc5 353d
000000d0: fa77 233d 1afb 88bd 0e72 013e dd2d 413d
000000e0: 325c 48be c3af 59be 814f 47be 5f68 9a3d
000000f0: 7647 4a3d f2c7 48be 640c 20be 8499 b1bd
00000100: eed4 39be 4f14 87bd d375 b73c f276 b0bc
00000110: f67b 06be 7551 83be ec7c e0bc 4248 36bb
00000120: 52de 2b3d 0c41 6abc cb98 083d 580d 803e
00000130: 7c21 913e d8ac 9c3d 27a2 153e d4a4 b03e
00000140: d0e2 cd3d 359f 9c3d d4bb e13d 6cb4 0f3e
00000150: 13fe 983e 1b5c bc3d 7654 0d3e e449 933e
00000160: c9e9 b03e 72de 523d 6068 9d3e 74c5 7a3d
00000170: 1618 003e 6102 603e 36f3 853e ce68 8a3e
00000180: 8c27 863e c854 223e 4deb b73d 30bc 943e
00000190: cb6a 1e3e 8d1c 843e e6c0 a83d 4433 953e
000001a0: 790e 443e 676f 6c3e 2ab8 5c3e fb2e a63d
000001b0: 3520 4c3d 6e29 2f3e e995 5d3e ddf3 193e
000001c0: 68c9 ba3e b9e6 993d 1d36 1f3d 5522 9a3e
000001d0: 4d48 b73e 72fc 933e f7f6 6a3e b06c 5d3e
000001e0: f3fe acbc 4083 7dbe 0cb9 1d3d f610 dfbd
000001f0: 22e7 473d cabf 22bc 68a1 0bbe c524 82be
00000200: ef23 c4bd bcc8 2c3e ae1d 25be 6507 fa3d
00000210: d39d 4bbe 51da 62bd 3dd7 2c3e 5418 bb3d
00000220: 2053 b23c 030e 8cbd c82d 0b3e 3ca8 70be
00000230: 7b7f c7bd 8655 57be f14b 083e 297a 0dbe
00000240: 7c0c 4dbe 63fc 9dbd f031 16be f738 b6bd
00000250: e536 f93d 832e 87bd 8384 9c3d ebf6 17be
00000260: 623f f73d c5ae 153e 9380 a83d 5295 05be
00000270: 51ba fe3a a84f ce3d 5af9 22be 9806 60bb
00000280: 1281 3fbe ff54 98bd 76c0 453e 4b7c ad3d
00000290: bb43 303e 42ae 14be 653e 28be 0003 95bd
000002a0: 3d00 983e 3472 e23d 8774 643e ab88 cf3d
000002b0: 9595 573d 397a 473e 0e9b 2a3e 7da9 093e
000002c0: 4ec9 533e 4db4 8a3e b915 543e d427 9d3e
000002d0: d1ab 64bd bddd 563e 8324 d93b eee9 773d
000002e0: e8ee 9e3e fb7e a03e 7db2 cc3d 50f1 a83e
000002f0: 2b3b b63d 1606 a33e 7df8 7abd 2d3a b93d
00000300: 1280 60be d8b8 d43d 82a0 a9bd 4d3b 41be
00000310: 202e 4ebe 87ee 29be 8a29 87be f75c b83d
00000320: bd8d 2e3d f77c 0cbc b27f b73d 1623 d93d
00000330: a406 4ebe 7890 ff3d d923 023e 501d 943d
00000340: c7a8 3cbe 2ab8 73be ef20 c83b cb8c ab3d
00000350: f538 21be 3a05 87bd b5c1 c93c 2854 84be
00000360: 9be4 24be 3dd9 c33d e70a 63be d3c1 c63d
00000370: 2120 27be 7c65 883d 7ddb 0ebe 2583 dd3d
00000380: 48f1 53be e5dc 98bd d66d c5bd 182a e63d
00000390: 45b8 2fbe 43ad ae3d 30e1 f63d 74c7 1b3e
000003a0: 566b 2c3e 0e4a 63be 9f20 093e 0a0b b4bd
000003b0: d2c4 413d 570d a2bd d27d 2dbe af8e cb3c
000003c0: ea80 a83e b6a5 8b3e 4e8f 2dbc 9eaf 183e
000003d0: 25a3 123e d73b df3d c269 1cbd 550b 693e
000003e0: 2b91 20bd 0a02 993d 5e1b 8bbd 72ff 313e
000003f0: 38cb a9bd 6ecc 5cbd 59ce a43e d43a 09bd

bias f4 [36]
0.049237512 0.009046213 -0.043488603 0.25761312 0.2901731 -0.17374483 -0.1344967 0.19238202
-0.2182909 -0.1455574 0.09317957 0.005328401 -0.27752635 0.31490895 -0.12143044 -0.22133964
0.052390672 0.06880418 0.3189441 0.045326687 0.2292219 0.16705965 0.19689623 0.22055554
-0.11502791 0.048451044 0.031076655 0.11768991 0.31456286 0.16656017 -0.019810101 0.0078065675
0.00020665833 0.23290068 -0.16156787 -0.034611728
00000000: 46ad 493d 9136 143c 1b21 32bd dee5 833e
00000010: 9291 943e 2aea 31be 81b9 09be cbff 443e
00000020: a687 5fbe 000d 15be eed4 be3d de99 ae3b
00000030: ef17 8ebe bf3b a13e 86b0 f8bd dca6 62be
00000040: 9a97 563d 35e9 8c3d a44c a33e 7aa8 393d
00000050: 25b9 6a3e af11 2b3e 2a9f 493e 50d9 613e
00000060: c193 ebbd 9a74 463d 7894 fe3c 6807 f13d
00000070: 620e a13e c08e 2a3e cb48 a2bc 3cce ff3b
00000080: 6cb2 5839 847d 6e3e 0c72 25be 07c5 0dbd

weight f4 [1, 36]
0.16039027 0.039163552 0.022469005 0.20178062 0.29592946 0.051580135 0.049699105 0.02686688
-0.03703352 0.06290648 0.017807266 0.075895995 -0.18659972 0.22551414 -0.22722976 0.1059127
0.29961056 -0.1666666 0.29236022 0.16164586 0.21015319 0.24362183 0.07749221 0.2544785
0.0877442 0.065275654 0.19002298 -0.01820027 0.29029855 0.13443892 0.25030014 0.07442721
-0.13411576 0.23042972 -0.08353931 0.300056
00000000: 593d 243e f669 203d eb10 b83c 949f 4e3e
00000010: 1184 973e b145 533d 4a91 4b3d ee17 dc3c
00000020: 76b0 17bd 1dd5 803d 8be0 913c 5c6f 9b3d
00000030: ff13 3fbe 2eed 663e ebae 68be c2e8 d83d
00000040: 8e66 993e a6aa 2abe 3db0 953e 7e86 253e
00000050: 6632 573e 0078 793e 3cb4 9e3d 024b 823e
00000060: 3bb3 b33d 3eaf 853d 6295 423e bc18 95bc
00000070: 03a2 943e 5baa 093e 5727 803e 4b6d 983d
00000080: a455 09be c5f5 6b3e a816 abbd f1a0 993e

weight f4 [1, 36]
0.10100227 0.22360548 -0.032999717 0.15892524 0.26835892 -0.03358316 -0.14817852 0.2136879
-0.014296546 -0.08091075 0.21507443 0.2142407 -0.00041456218 0.24258052 0.0011534945 0.059948757
0.19634242 -0.010745098 0.2278814 0.1158769 0.19612628 0.14496623 0.1991087 0.18010527
0.1429718 0.1755739 0.20561595 0.3073031 0.1996904 0.1684425 0.03968639 -0.02924265
-0.053458914 0.16941376 0.07521427 0.20724122
00000000: 47da ce3d d6f8 643e b62a 07bd 4cbd 223e
00000010: 5766 893e 7f8e 09bd 1cbc 17be 00d1 5a3e
00000020: 0f3c 6abc 89b4 a5bd 793c 5c3e ea61 5b3e
00000030: 9859 d9b9 0767 783e da30 973a d48c 753d
00000040: fd0d 493e 350c 30bc be59 693e de50 ed3d
00000050: 54d5 483e 0772 143e 27e3 4b3e 846d 383e
00000060: 3367 123e a5c9 333e fd8c 523e d556 9d3e
00000070: a47b 4c3e 317c 2c3e 328e 223d 488e efbc
00000080: bcf7 5abd cd7a 2d3e f009 9a3d 0b37 543e

exp_avg f4 [24, 3]
1946.1626 -344.56512 -4337.043 1784.2627 118.17387 -2437.8572 1927.3375 -68.49748
5021.027 1077.9781 -80.24361 -3978.6729 244.5588 -51.313778 3338.1372 597.09717
78.23891 2882.0002 540.59125 -187.13322 -3913.9075 2626.7158 -274.34326 7607.748
992.50006 400.41385 5880.013 281.29977 8.947773 -2498.789 911.629 197.52916
5053.0083 774.5948 -170.74553 -3266.2654 1162.2703 -165.61751 -3580.4624 129.12474
-26.244898 -1376.9167 570.36237 97.39013 -4462.4146 180.2385 229.58612 -1817.3646
2538.344 -626.0295 -3555.5032 1542.476 73.30896 -4068.83 406.76016 32.426437
-3490.9773 2565.142 187.47755 -3794.2422 1084.6996 116.19565 4066.285 2354.6255
-267.61752 -3920.9045 2074.3845 18.569508 6121.348 1791.73 177.18289 4771.1396
00000000: 3445 f344 5648 acc3 5888 87c5 6808 df44
00000010: 0559 ec42 b75d 18c5 cdea f044 b6fe 88c2
00000020: 37e8 9c45 4dbf 8644 ba7c a0c2 c4aa 78c5
00000030: 0e8f 7443 4f41 4dc2 32a2 5045 3846 1544
00000040: 527a 9c42 0120 3445 d725 0744 1b22 3bc3
00000050: 859e 74c5 742b 2445 f02b 89c3 fcbd ed45
00000060: 0120 7844 f934 c843 1bc0 b745 5fa6 8c43
00000070: 142a 0f41 a02c 1cc5 42e8 6344 7787 4543
00000080: 11e8 9d45 11a6 4144 dbbe 2ac3 3f24 4cc5
00000090: a648 9144 159e 25c3 66c7 5fc5 ef1f 0143
000000a0: 8df5 d1c1 561d acc4 3197 0e44 bfc7 c242
000000b0: 5173 8bc5 0e3d 3443 0c96 6543 ab2b e3c4
000000c0: 81a5 1e45 e381 1cc4 0d38 5ec5 3bcf c044
000000d0: 309e 9242 484d 7ec5 4d61 cb43 acb4 0142
000000e0: a32f 5ac5 4652 2045 417a 3b43 e023 6dc5
000000f0: 6396 8744 2c64 e842 8f24 7e45 022a 1345
00000100: 0bcf 85c3 790e 75c5 27a6 0145 5a8e 9441
00000110: c94a bf45 5cf7 df44 d22e 3143 1e19 9545

exp_avg_sq f4 [24, 3]
512194.75 9812.65 644085.56 514023.03 1330.4412 290865.56 478303.97 1094.3331
855835.2 107299.44 573.75604 532543.5 2674.03 364.83698 427780.75 24866.97
639.2672 301910.56 17130.97 2267.037 555185.5 876214.1 7106.318 2.2057168e+06
65959.52 13358.719 1.2169654e+06 4378.5825 166.32199 219872.83 55982.957 3208.0864
850773.06 45403.227 1720.043 352197.16 88435.31 1495.8419 428893.06 2992.5994
89.29263 118206.93 34328.184 1784.8649 832979.94 1444.1641 1824.1941 133356.17
869657.3 33516.363 544114.25 451681.1 1745.3741 836004.8 10715.403 325.14133
431944.38 1.3356589e+06 5657.546 915103.9 84498.01 1060.4691 534031.7 1.00573844e+06
9727.031 777323.5 522272.22 556.1239 1.2226472e+06 315989.56 3088.201 779381.56
00000000: 5818 fa48 9a52 1946 593f 1d49 e1fc fa48
00000010: 1e4e a644 3206 8e48 ff8b e948 a9ca 8844
00000020: b3f1 5049 b891 d147 6370 0f44 f803 0249
00000030: 7b20 2745 226b b643 98e0 d048 f145 c246
00000040: 1ad1 1f44 d26a 9348 f1d5 8546 98b0 0d45
00000050: 188b 0749 62eb 5549 8b12 de45 53a0 064a
00000060: c3d3 8047 e0ba 5046 2b8e 9449 a9d4 8845
00000070: 6e52 2643 35b8 5648 f5ae 5a47 6281 4845
00000080: 51b5 4f49 3a5b 3147 6001 d744 a5f8 ab48
00000090: a8b9 ac47 f1fa ba44 a26b d148 9709 3b45
000000a0: d495 b242 77df e647 2f18 0647 ad1b df44
000000b0: 3f5d 4b49 4085 b444 3606 e444 0b3b 0248
000000c0: 9551 5449 5dec 0247 24d7 0449 238c dc48
000000d0: f92b da44 4d1a 4c49 9d6d 2746 1792 a243
000000e0: 0ce9 d248 570b a349 5ecc b045 fe69 5f49
000000f0: 0109 a547 038f 8444 fb60 0249 a78a 7549
00000100: 20fc 1746 b8c6 3d49 0704 ff48 ee07 0b44
00000110: ba3f 9549 b24a 9a48 3703 4145 5947 3e49

exp_avg f4 [24]
-2691.1545 -2526.6565 -2975.279 -1624.6028 -807.8626 -994.48566 -1305.3362 -3757.7354
-2810.4048 -699.4978 -1721.0094 -1177.5321 -1414.7028 -258.01306 -1460.6938 -423.94022
-3465.4895 -2506.689 -1030.62 -3494.6028 -1699.0819 -3362.3418 -3115.5642 -2551.865
00000000: 7932 28c5 81ea 1dc5 77f4 39c5 4a13 cbc4
00000010: 35f7 49c4 159f 78c4 c22a a3c4 c4db 6ac5
00000020: 7aa6 2fc5 dcdf 2ec4 4d20 d7c4 0731 93c4
00000030: 7dd6 b0c4 ac01 81c3 3496 b6c4 59f8 d3c3
00000040: d597 58c5 06ab 1cc5 d7d3 80c4 a569 5ac5
00000050: 9f62 d4c4 7825 52c5 07b9 42c5 d77d 1fc5

exp_avg_sq f4 [24]
581053.7 592241.0 580506.2 136515.1 25176.871 39539.715 53016.68 1.0652595e+06
318637.97 16276.499 110823.99 60998.758 101882.02 6400.3174 99303.66 6303.3086
995534.1 569650.44 36959.52 1.518177e+06 116166.164 1.1618359e+06 638250.2 377419.47
00000000: dbdb 0d49 1097 1049 a3b9 0d49 c650 0548
00000010: beb1 c446 b773 1a47 ae18 4f47 5c09 8249
00000020: bf95 9b48 ff51 7e46 ff73 d847 c246 6e47
00000030: 03fd c647 8a02 c845 d4f3 c147 78fa c445
00000040: e20c 7349 2713 0b49 855f 1047 0853 b949
00000050: 15e3 e247 5fd3 8d49 a3d2 1b49 6f49 b848

exp_avg f4 [36, 24]
-359.57166 -519.88745 -1316.0326 -610.7432 -223.39839 -285.90512 -423.75906 -740.51056
-296.65875 -394.4919 -833.6533 -369.4824 -134.61342 -74.30047 -586.66187 -73.50484
-347.09485 -879.3972 -460.0734 -980.27905 -1018.93414 -297.7372 -1119.3207 -904.835
-313.02106 -834.19574 -1009.60376 -557.5503 -56.05236 -65.07097 -362.47827 -425.00452
-142.88431 -183.37549 -219.38597 -235.90218 -54.041664 -62.74084 -358.52332 -14.65568
-449.37137 -919.589 -253.27882 -1356.9001 -490.20337 -295.24673 -641.25964 -693.79846
11.359506 23.413214 2.7872694 43.33938 0.0 0.0 25.87388 0.48041725
0.0 9.559619 0.0 21.094212 5.041634 9.13578 19.883287 0.0
12.096178 46.03013 15.978934 55.182045 0.0 6.3053503 0.35054183 0.24872917
-615.914 -1044.4342 -2163.1172 -1029.4937 -301.7956 -414.9468 -674.5272 -1135.5625
-430.56207 -563.0462 -1237.9243 -582.72485 -201.5954 -116.22813 -862.21655 -95.581154
-659.0496 -1508.2698 -667.59576 -1851.6682 -1588.8676 -521.6573 -1756.9893 -1525.3464
-1150.6631 -2186.3357 -4448.3 -2033.686 -511.0931 -782.4234 -1336.1304 -2236.379
-818.28735 -1014.2805 -2418.8804 -1084.34 -342.47736 -239.64073 -1630.5425 -149.99522
-1304.0398 -3034.9033 -1239.2 -3827.1816 -3208.5728 -981.3011 -3551.327 -3115.3784
1.657415 8.4725895 78.27835 0.29751015 0.5809892 11.192459 0.91363716 40.133724
0.2231694 0.0 26.087534 0.10307862 0.0 0.0 0.0 0.0
8.666157 0.15431246 0.0 0.007890686 40.957066 2.0083375 63.976757 34.679916
0.0 -0.37446454 -0.26867706 0.0 -0.1183442 -0.17782904 -0.19657846 0.0
-1.2233276 -0.22392705 -0.80411005 0.0 0.0 0.0 -0.7028774 -0.1788354
0.0 -0.97844386 -0.4687212 -0.7001316 -0.9859211 0.0 -0.13661331 -0.55805373
-246.7308 -740.9287 -1188.8053 -432.71506 -60.247234 -115.510376 -282.0445 -491.54092
-184.54854 -122.5089 -446.2746 -171.81268 -35.121197 -47.05048 -259.07455 -7.0920625
-378.0814 -741.6466 -178.03433 -1151.7753 -741.92993 -238.67781 -832.00946 -865.42883
3.3162282 27.013584 129.48724 21.376484 3.5079892 22.514277 10.541182 68.36749
1.9394622 7.630104 60.067787 7.246181 1.2127322 3.707851 15.465843 0.0
7.5129633 30.472672 12.281151 41.123947 83.26453 3.1741593 111.347404 70.854324
0.0 2.3334472 0.83161336 0.0 0.0 0.5578866 0.0 0.0
0.63852304 0.0 0.70773005 0.0 0.0 0.0 0.0 0.0
0.0 0.894829 0.0 3.6250389 3.0866706 0.0 0.51090866 3.5876825
-226.6611 -736.65045 -1120.7623 -409.28506 -35.758854 -103.49194 -250.16852 -467.80008
-142.7433 -102.58549 -399.80048 -154.18057 -27.363531 -45.28552 -230.66151 -2.5583026
00000000: 2cc9 b3c3 ccf8 01c4 0b81 a4c4 91af 18c4
00000010: fd65 5fc3 dbf3 8ec3 29e1 d3c3 ad20 39c4
00000020: 5254 94c3 f73e c5c3 d069 50c4 bfbd b8c3
00000030: 099d 06c3 d799 94c2 5caa 12c4 7a02 93c2
00000040: 248c adc3 6cd9 5bc4 6509 e6c3 dc11 75c4
00000050: c9bb 7ec4 5dde 94c3 43ea 8bc4 7135 62c4
00000060: b282 9cc3 878c 50c4 a466 7cc4 3863 0bc4
00000070: 9e35 60c2 5624 82c2 383d b5c3 9480 d4c3
00000080: 62e2 0ec3 2060 37c3 cf62 5bc3 f5e6 6bc3
00000090: aa2a 58c2 9ff6 7ac2 fc42 b3c3 aa7d 6ac1
000000a0: 89af e0c3 b2e5 65c4 6147 7dc3 ce9c a9c4
000000b0: 081a f5c3 959f 93c3 9e50 20c4 1a73 2dc4
000000c0: 89c0 3541 434e bb41 9f62 3240 865b 2d42
000000d0: 0000 0000 0000 0000 b5fd ce41 40f9 f53e
000000e0: 0000 0000 33f4 1841 0000 0000 f2c0 a841
000000f0: 1155 a140 282c 1241 f910 9f41 0000 0000
00000100: f289 4141 da1e 3842 b7a9 7f41 6aba 5c42
00000110: 0000 0000 6ec5 c940 387a b33e dcb2 7e3e
00000120: 7ffa 19c4 e58d 82c4 e031 07c5 ccaf 80c4
00000130: d6e5 96c3 3179 cfc3 bea1 28c4 00f2 8dc4
00000140: f247 d7c3 f5c2 0cc4 94bd 9ac4 64ae 11c4
00000150: 6c98 49c3 cd74 e8c2 dc8d 57c4 8d29 bfc2
00000160: 2dc3 24c4 a288 bcc4 21e6 26c4 6275 e7c4
00000170: c39b c6c4 116a 02c4 a89f dbc4 16ab bec4
00000180: 38d5 8fc4 5fa5 08c5 6602 8bc5 f435 fec4
00000190: eb8b ffc3 199b 43c4 2c04 a7c4 10c6 0bc5
000001a0: 6492 4cc4 f491 7dc4 162e 17c5 e18a 87c4
000001b0: 1a3d abc3 07a4 6fc3 5cd1 cbc4 c7fe 15c3
000001c0: 4601 a3c4 74ae 3dc5 66e6 9ac4 e832 6fc5
000001d0: 2a89 48c5 4553 75c4 3bf5 5dc5 0eb6 42c5
000001e0: 2d26 d43f ba8f 0741 848e 9c42 4053 983e
000001f0: b5bb 143f 5014 3341 20e4 693f ef88 2042
00000200: 8586 643e 0000 0000 45b3 d041 e21a d33d
00000210: 0000 0000 0000 0000 0000 0000 0000 0000
00000220: 94a8 0a41 1604 1e3e 0000 0000 f047 013c
00000230: 09d4 2342 9a88 0040 33e8 7f42 3cb8 0a42
00000240: 0000 0000 d1b9 bfbe 0a90 89be 0000 0000
00000250: 725e f2bd d118 36be dd4b 49be 0000 0000
00000260: 0096 9cbf 224d 65be 28da 4dbf 0000 0000
00000270: 0000 0000 0000 0000 c6ef 33bf a120 37be
00000280: 0000 0000 4c7b 7abf 3afc efbe d33b 33bf
00000290: 5365 7cbf 0000 0000 5ce4 0bbe 9cdc 0ebf
000002a0: 16bb 76c3 703b 39c4 c599 94c4 875b d8c3
000002b0: 2bfd 70c2 5005 e7c2 b205 8dc3 3dc5 f5c3
000002c0: 6d8c 38c3 8f04 f5c2 2623 dfc3 0cd0 2bc3
000002d0: 1b7c 0cc2 b133 3cc2 8b89 81c3 2df2 e2c0
000002e0: 6b0a bdc3 6269 39c4 ca08 32c3 cff8 8fc4
000002f0: 847b 39c4 85ad 6ec3 9b00 50c4 725b 58c4
00000300: 153d 5440 d21b d841 bc7c 0143 0a03 ab41
00000310: e582 6040 3d1d b441 aea8 2841 28bc 8842
00000320: 4c40 f83f d029 f440 6a45 7042 b7e0 e740
00000330: cf3a 9b3f 6e4d 6d40 1874 7741 0000 0000
00000340: 326a f040 08c8 f341 987f 4441 ec7e 2442
00000350: 7087 a642 6d25 4b40 dfb1 de42 6ab5 8d42
00000360: 0000 0000 3357 1540 9de4 543f 0000 0000
00000370: 0000 0000 a8d1 0e3f 0000 0000 0000 0000
00000380: 3f76 233f 0000 0000 cc2d 353f 0000 0000
00000390: 0000 0000 0000 0000 0000 0000 0000 0000
000003a0: 0000 0000 8313 653f 0000 0000 a300 6840
000003b0: 038c 4540 0000 0000 e9ca 023f 979c 6540
000003c0: 3ea9 62c3 a129 38c4 6518 8cc4 7da4 ccc3
000003d0: 1109 0fc2 e0fb cec2 242b 7ac3 69e6 e9c3
000003e0: 49be 0ec3 c52b cdc2 76e6 c7c3 3a2e 1ac3
000003f0: 83e8 dac1 5f24 35c2 59a9 66c3 3bbb 23c0

exp_avg_sq f4 [36, 24]
4253.3887 8272.4375 54248.438 15264.368 2079.2039 2883.029 7469.6235 16895.033
3165.5815 6085.1084 24424.652 5668.7676 674.41345 310.4017 13402.734 222.89282
3400.271 28119.143 8332.138 29919.807 33317.06 2499.0872 39962.97 24676.629
18067.104 170486.52 200765.17 79818.664 511.07217 397.71997 34933.547 32142.174
3931.6577 10053.751 4829.5493 15627.336 557.58905 1956.7346 37693.05 20.301758
39967.445 171254.22 18691.81 398831.03 43030.82 16625.965 78653.03 134831.2
693.82245 2947.485 41.772205 10099.382 0.0 0.0 3599.5864 1.2409852
0.0 491.37228 0.0 2392.522 136.66957 448.76675 2125.7195 0.0
786.7302 11392.364 1372.8562 16372.879 0.0 213.7705 0.66070753 0.3326464
10868.356 61307.613 169978.27 31065.605 3779.7705 5466.799 15115.168 40914.773
7480.5264 10655.793 54293.75 10416.891 1175.8049 521.2201 24373.365 365.80103
16293.685 65322.76 14783.542 134173.33 83492.24 8631.248 103170.83 90613.6
51303.234 378847.3 1.149764e+06 209122.02 13429.194 28228.97 98185.0 245150.44
42355.08 41774.895 332058.0 51405.793 3555.3984 4708.55 122953.03 853.90906
93276.28 442216.03 67032.805 891939.7 559964.06 41151.316 688023.25 566234.56
4.9777794 204.47081 15793.345 0.475919 1.2535098 479.18158 2.2655401 4180.802
0.119352624 0.0 2472.4219 0.057130326 0.0 0.0 0.0 0.0
138.59277 0.12803587 0.0 0.00033477967 5374.6006 6.7580295 11474.743 3879.2158
0.0 0.010056221 0.0067224754 0.0 0.001400535 0.002395041 0.0030690732 0.0
0.110819325 0.0036577263 0.048174717 0.0 0.0 0.0 0.035275154 0.002210981
0.0 0.06900801 0.015739301 0.035215408 0.07219533 0.0 0.0018663197 0.022965247
14559.981 148507.28 287659.66 62016.203 1663.9313 3461.1382 27303.658 51948.94
10117.462 7589.693 58078.996 12088.443 432.00198 1473.9463 28850.236 13.762494
33433.145 137740.56 14191.707 337240.84 113700.36 13653.457 147204.56 160661.6
43.953598 2109.2603 24508.758 1545.7189 23.6018 860.3613 385.4853 6564.088
6.336973 182.60008 5120.904 197.42493 7.650273 54.374687 753.85675 0.0
138.49112 2968.5835 496.35492 5389.1826 10628.093 31.74968 18584.06 8319.988
0.0 29.276909 3.718539 0.0 0.0 1.6734824 0.0 0.0
2.1922119 0.0 2.6931748 0.0 0.0 0.0 0.0 0.0
0.0 4.3053617 0.0 70.65696 51.22832 0.0 1.403512 69.208206
15508.63 159834.25 284888.25 69635.24 962.868 3500.8003 27209.875 54260.234
6883.8438 8571.128 52837.2 13696.11 493.14194 1726.0029 31703.662 14.351619
00000000: 1ceb 8445 c041 0146 70e8 5347 7981 6e46
00000010: 43f3 0145 7730 3445 fd6c e945 11fe 8346
00000020: 4ed9 4545 de28 be45 4ed1 be46 2426 b145
00000030: 769a 2844 6b33 9b43 f06a 5146 90e4 5e43
00000040: 5684 5445 49ae db46 8d30 0246 9dbf e946
00000050: 0f25 0247 6531 1c45 f81a 1c47 42c9 c046
00000060: 3526 8d46 a17d 2648 4b0f 4448 55e5 9b47
00000070: 3d89 ff43 28dc c643 8c75 0847 591c fb46
00000080: 86ba 7545 0117 1d46 65ec 9645 582d 7446
00000090: b365 0b44 8297 f444 0d3d 1347 006a a241
000000a0: 721f 1c47 8e3d 2748 9f07 9246 e1bd c248
000000b0: d216 2847 eee3 8146 849e 9947 cdab 0348
000000c0: a374 2d44 c337 3845 bd16 2742 87cd 1d46
000000d0: 0000 0000 0000 0000 62f9 6045 9ad8 9e3f
000000e0: 0000 0000 a7af f543 0000 0000 5a88 1545
000000f0: 69ab 0843 2562 e043 83db 0445 0000 0000
00000100: bcae 4444 7501 3246 669b ab44 84d3 7f46
00000110: 0000 0000 3fc5 5543 2124 293f a150 aa3e
00000120: 6dd1 2946 9d7b 6f47 91fe 2548 36b3 f246
00000130: 543c 6c45 64d6 aa45 ac2c 6c46 c6d2 1f47
00000140: 36c4 e945 2c7f 2646 c015 5447 90c3 2246
00000150: c2f9 9244 164e 0244 bb6a be46 88e6 b643
00000160: bd96 7e46 c32a 7f47 2bfe 6646 5507 0348
00000170: 1f12 a347 fedc 0646 6a81 c947 cdfa b047
00000180: 3c67 4847 eafb b848 205a 8c49 8138 4c48
00000190: c7d4 5146 f189 dc46 80c4 bf47 9c67 6f48
000001a0: 1473 2547 e52e 2347 4023 a248 cbcd 4847
000001b0: 6036 5e45 6624 9345 8424 f047 2e7a 5544
000001c0: 242e b647 01ed d748 67ec 8247 3bc2 5949
000001d0: c1b5 0849 51bf 2047 74f9 2749 a93d 0a49
000001e0: f849 9f40 8778 4c43 61c5 7646 a8ab f33e
000001f0: 0273 a03f 3e97 ef43 9cfe 1040 6aa6 8245
00000200: 266f f43d 0000 0000 c086 1a45 7d01 6a3d
00000210: 0000 0000 0000 0000 0000 0000 0000 0000
00000220: c097 0a43 d61b 033e 0000 0000 5e85 af39
00000230: cef4 a745 c741 d840 f94a 3346 7473 7245
00000240: 0000 0000 d9c2 243c 3648 dc3b 0000 0000
00000250: 2892 b73a 1ff6 1c3b 8122 493b 0000 0000
00000260: 3ef5 e23d 77b6 6f3b da52 453d 0000 0000
00000270: 0000 0000 0000 0000 ae7c 103d 1be6 103b
00000280: 0000 0000 1254 8d3d b5ef 803c 083e 103d
00000290: 25db 933d 0000 0000 4c9f f43a 9d21 bc3c
000002a0: ed7f 6346 d206 1148 7575 8c48 3440 7247
000002b0: cdfd cf44 3652 5845 514f d546 f1ec 4a47
000002c0: d915 1e46 8b2d ed45 ffde 6247 c6e1 3c46
000002d0: 4100 d843 483e b844 7964 e146 2d33 5c41
000002e0: 2599 0247 2483 0648 d4be 5d46 1bab a448
000002f0: 2e12 de47 d455 5546 24c1 0f48 66e5 1c48
00000300: 7cd0 2f42 2ad4 0345 8479 bf46 0137 c144
00000310: 7dd0 bc41 2017 5744 1ebe c043 b420 cd45
00000320: 7cc8 ca40 9f99 3643 3b07 a045 c86c 4543
00000330: 09cf f440 ae7f 5942 d576 3c44 0000 0000
00000340: ba7d 0a43 5689 3945 6e2d f843 7669 a845
00000350: 5f10 2646 58ff fd41 1f30 9146 f4ff 0146
00000360: 0000 0000 1c37 ea41 8bfc 6d40 0000 0000
00000370: 0000 0000 ac34 d63f 0000 0000 0000 0000
00000380: 334d 0c40 0000 0000 fa5c 2c40 0000 0000
00000390: 0000 0000 0000 0000 0000 0000 0000 0000
000003a0: 0000 0000 86c5 8940 0000 0000 5d50 8d42
000003b0: cde9 4c42 0000 0000 48a6 b33f 9a6a 8a42
000003c0: 8552 7246 9016 1c48 081b 8b48 9f01 8847
000003d0: 8db7 7044 cecc 5a45 c093 d446 3cf4 5347
000003e0: c01e d745 83ec 0546 3365 4e47 7100 5646
000003f0: 2b92 f643 18c0 d744 53af f746 3ba0 6541

exp_avg f4 [36]
-812.6477 -1321.5927 26.965162 -1639.5146 -3640.718 35.621826 -1.3506099 -1334.534
68.98965 4.0578156 -1294.1511 -1642.0853 29.051779 -2868.2031 30.880617 83.97666
-2525.1633 180.80849 -3079.373 -874.5942 -2161.0798 -1742.2112 -1252.1351 -2120.4233
-806.4798 -1070.6045 -1877.6499 -1949.6549 -2706.8718 -1330.5479 -19.72317 221.69075
5.908082 -1955.8704 0.2986808 -2565.1423
00000000: 7429 4bc4 f732 a5c4 a7b8 d741 78f0 ccc4
00000010: 7d8b 63c5 c07c 0e42 c9e0 acbf 17d1 a6c4
00000020: b3fa 8942 a0d9 8140 d6c4 a1c4 bb42 cdc4
00000030: 0b6a e841 4043 33c5 810b f741 0df4 a742
00000040: 9dd2 1dc5 f9ce 3443 f875 40c5 07a6 5ac4
00000050: 4711 07c5 c2c6 d9c4 5384 9cc4 c686 04c5
00000060: b59e 49c4 58d3 85c4 ccb4 eac4 f5b4 f3c4
00000070: f32d 29c5 8851 a6c4 0dc9 9dc1 d5b0 5d43
00000080: 020f bd40 da7b f4c4 b1ec 983e 4752 20c5

exp_avg_sq f4 [36]
22055.451 353123.9 3909.6282 144672.97 1.0435109e+06 3108.6646 0.1348632 360767.84
9310.696 88.534805 372309.47 389115.16 1501.4786 699602.4 2432.0347 6407.367
317135.56 38083.88 624854.6 25534.135 332157.75 121526.414 232312.86 245084.73
75639.63 166578.42 261123.48 960268.7 408469.47 149345.14 2385.334 59242.453
134.8077 202044.8 0.25568336 353971.7
00000000: e74e ac46 7d6c ac48 0d5a 7445 3e48 0d48
00000010: 6ec3 7e49 a24a 4245 9419 0a3e fb27 b048
00000020: c97a 1146 d211 b142 afca b548 65ff bd48
00000030: 51af bb44 26cd 2a49 8e00 1845 f03a c845
00000040: f2d9 9a48 e1c3 1447 6a8d 1849 457c c746
00000050: b82f a248 355b ed47 37de 6248 2f57 6f48
00000060: d1bb 9347 9bac 2248 df00 7f48 cb70 6a49
00000070: af72 c748 49d8 1148 5815 1545 746a 6747
00000080: c5ce 0643 334f 4548 eee8 823e 76d6 ac48

exp_avg f4 [1, 36]
-5655.5537 -10793.82 1.6242895 -13556.548 -19609.195 -3.3408818 -0.5144011 -15979.036
-4.6838355 -0.06761948 -14746.809 -15641.24 0.18278465 -14012.577 3.4064527 -221.53638
-12374.018 15.730888 -16402.209 -6386.185 -12654.859 -12841.358 -9001.417 -10270.47
-10494.743 -13625.912 -14025.274 -13717.739 -19099.828 -14158.865 -46.38174 -21.128542
0.15331985 -15831.789 -0.042246636 -10698.066
00000000: 6ebc b0c5 48a7 28c6 b8e8 cf3f 31d2 53c6
00000010: 6432 99c6 02d1 55c0 caaf 03bf 25ac 79c6
00000020: fbe1 95c0 157c 8abd 3c6b 66c6 f664 74c6
00000030: e62b 3b3e 4ff2 5ac6 5203 5a40 5089 5dc3
00000040: 1258 41c6 b8b1 7b41 6b24 80c6 7b91 c7c5
00000050: 70bb 45c6 6fa5 48c6 aba5 0cc6 e179 20c6
00000060: f9fa 23c6 a6e7 54c6 1925 5bc6 f556 56c6
00000070: a837 95c6 763b 5dc6 e786 39c2 4107 a9c1
00000080: e1ff 1c3e 285f 77c6 cf0a 2dbd 4428 27c6

exp_avg_sq f4 [1, 36]
1.0827058e+06 3.3877745e+06 14.18588 5.354116e+06 1.0230799e+07 30.044388 0.02347091 6.98411e+06
46.39181 0.024585161 5.9030325e+06 6.7849915e+06 0.15230906 5.526834e+06 36.873707 37509.27
4.4878115e+06 487.92737 7.2575675e+06 1.3627366e+06 4.4941565e+06 4.966821e+06 2.429613e+06 3.2091935e+06
3.3954515e+06 5.36256e+06 5.6342895e+06 5.298271e+06 9.912092e+06 5.8374405e+06 1458.8477 1200.4753
0.10943645 7.136133e+06 0.005115313 3.423076e+06
00000000: 8e2a 8449 fac5 4e4a 5df9 6241 0865 a34a
00000010: 0f1c 1c4b e85a f041 1146 c03c 5c23 d54a
00000020: 3791 3942 d266 c93c 7125 b44a bf0f cf4a
00000030: e8f6 1b3e 64aa a84a ad7e 1342 4585 1247
00000040: 07f5 884a b4f6 f343 bf7b dd4a 8559 a649
00000050: 9926 894a 4a93 974a b44a 144a a6df 434a
00000060: ee3d 4f4a 00a7 a34a e3f1 ab4a beb0 a14a
00000070: 1c3f 174b 0125 b24a 205b b644 360f 9644
00000080: 3820 e03d 0ac7 d94a 5b9e a73b 90ed 504a

exp_avg f4 [1, 36]
-2427.8613 -3551.2449 -21.245064 -4701.171 -12673.074 -27.991772 0.0 -9296.89
-69.62082 -0.16168688 -7658.5376 -7467.489 -40.019505 -6280.734 -57.404346 -1316.305
-4402.375 -579.8676 -9445.548 -495.47278 -5219.106 -3624.588 -2471.863 -2446.4404
-2124.8894 -5125.473 -6759.922 -6672.638 -11843.728 -5790.7627 -186.8199 -279.0312
-1.4103292 -6981.0205 -0.251152 -3544.3096
00000000: c8bd 17c5 ebf3 5dc5 e4f5 a9c1 5ee9 92c5
00000010: 4c04 46c6 26ef dfc1 0000 0000 8f43 11c6
00000020: dc3d 8bc2 3f91 25be 4d54 efc5 e95b e9c5
00000030: f913 20c2 df45 c4c5 0d9e 65c2 c389 a4c4
00000040: 0093 89c5 87f7 10c4 3196 13c6 84bc f7c3
00000050: d918 a3c5 6889 62c5 cf7d 1ac5 0ce7 18c5
00000060: 3bce 04c5 c92b a0c5 603f d3c5 1b85 d0c5
00000070: e90e 39c6 1af6 b4c5 e5d1 3ac3 fe83 8bc3
00000080: ab85 b4bf 2a28 dac5 ff96 80be f484 5dc5

exp_avg_sq f4 [1, 36]
2.4494298e+06 2.613504e+06 2426.8647 4.200587e+06 3.0653692e+07 2970.415 0.0 1.7149104e+07
16299.521 0.14056559 1.2605437e+07 1.0924045e+07 4124.553 7.33867e+06 12356.246 984787.0
3.4889942e+06 465989.72 1.6930384e+07 71411.695 5.5804155e+06 2.5048355e+06 1.1690576e+06 1.3299754e+06
992043.8 5.006691e+06 8.678426e+06 9.142563e+06 2.6604762e+07 6.555428e+06 30792.137 128513.47
7.9462013 9.173554e+06 0.18078446 2.3534738e+06
00000000: 5780 154a 0084 1f4a d6ad 1745 1631 804a
00000010: 7ede e94b a4a6 3945 0000 0000 58d6 824b
00000020: 16ae 7e46 6df0 0f3e fd57 404b 0db0 264b
00000030: 6de4 8045 5cf5 df4a fc10 4146 306d 7049
00000040: 89f3 544a b788 e348 282b 814b d979 8b47
00000050: ff4c aa4a 0ee2 184a 0db5 8e49 bb59 a249
00000060: bd32 7249 c6ca 984a 1a6c 044b 2381 0b4b
00000070: 6dfa ca4b 480e c84a 4690 f046 bc00 fb47
00000080: 4847 fe40 32fa 0b4b 901f 393e 07a5 0f4a
