data/policies/Pendulum-v0#default_team_-1419.017621384901#bernoulli#None#-1419.017621384901.pt (torch, 19153 bytes, 15 tensors)

weight f4 [24, 3]
000000 5d 1e cf be b2 2f 24 3f 1e 90 10 3f 8d a4 d4 bd
       -0.40452853 0.6413528 0.56469905 -0.10382948
000010 7d 91 df 3e 08 4b e6 3b ca ba e7 be d6 0a 20 3f
       0.43665686 0.0070279874 -0.45259696 0.62516534
000020 64 88 c2 3e 77 3c 58 3e a2 b5 35 3f dc b1 0c 3f
       0.37994683 0.21116816 0.70980275 0.5495889
000030 33 dd 0d be 0b b0 29 3f a2 a4 a0 3e 19 a6 56 3d
       -0.13853912 0.66284245 0.31375605 0.052404497
000040 c2 8a 0c 3f ae 91 a4 3e 38 04 33 bf 8a 56 32 3f
       0.5489923 0.32142395 -0.6992831 0.696633
000050 fd 8f aa 3e 91 c4 bf be 16 0b d7 3e 50 e1 57 be
       0.3331298 -0.37454656 0.42000645 -0.21082044
000060 85 ce 85 3d f1 6f 73 be 92 1b 3d 3f cc f1 3f 3e
       0.06533531 -0.23773171 0.73870194 0.18744582
000070 3a 25 1d 3f 6f bf c3 3e ae d6 5f be 3d 59 49 3e
       0.6138493 0.3823199 -0.21859238 0.19662948
000080 75 4c 3a be 8f b9 35 bf 87 c0 48 be d2 b5 24 3f
       -0.18193229 -0.70986265 -0.19604693 0.64339936
000090 04 22 2a bf 92 10 b6 be f0 f0 84 3e c8 99 d9 be
       -0.66458154 -0.35559517 0.2596507 -0.42500138
0000a0 b0 3b ef 3e 1c be ac 3e 26 d6 be 3e e2 9b c3 3e
       0.46725225 0.33738792 0.37272757 0.38204867
0000b0 c0 56 83 3e 4f 65 fe be 84 a9 e4 3e 62 6a 11 3f
       0.25652122 -0.49686667 0.4466058 0.5680295
0000c0 8c da de bc 2a 12 96 be a6 f5 2c 3f 08 8d bf bc
       -0.02720382 -0.29310733 0.6756233 -0.023382679
0000d0 39 5e b9 3e 5a 03 2a 3f b2 00 b8 be f0 a0 18 3e
       0.362047 0.66411364 -0.3593803 0.14905143
0000e0 1d ec ee be 93 e4 bf be 3d dd 19 be ee ba 96 3c
       -0.46664515 -0.37479076 -0.15025802 0.018399682
0000f0 b5 26 4b 3e 17 ff c3 bd 0e 08 32 3f 4f 1c a1 3e
       0.19838984 -0.09570139 0.6954354 0.3146691
000100 10 a2 ca bd 75 2d 0d 3f 37 52 d6 3e c3 69 b1 3e
       -0.09894192 0.55147487 0.418596 0.34651002
000110 9f 41 08 bf 89 62 46 be f2 96 92 3d fd 8f cf be
       -0.5322513 -0.19373526 0.07157697 -0.40539542

bias f4 [24]
000000 ea 74 7f bc a0 d5 30 3e 87 46 5c 3d b0 1f b4 bd
       -0.015591839 0.17268991 0.053778198 -0.087951064
000010 0f 2f c7 3e c5 d2 05 3f ab e3 37 3f 1d e3 43 bd
       0.3890309 0.52274734 0.7183177 -0.047824014
000020 76 04 10 3e 8a 69 95 bd 0d db e1 be f2 17 17 3e
       0.14064202 -0.072955206 -0.44112435 0.14755228
000030 3e b4 81 3e c2 2e 1e 3f 81 7f c9 3e 1e 24 1d 3f
       0.25332826 0.61790097 0.3935509 0.61383235
000040 fb 6a c4 be cf a5 a1 be 0b 4b 01 3e ed ff 82 3e
       -0.3836287 -0.31571814 0.12626283 0.2558588
000050 b3 41 03 be c6 c6 d3 3e 6c b0 5c 3e eb 54 71 be
       -0.12818031 0.4136259 0.21551675 -0.2356755

weight f4 [36, 24]
000000 c3 8f 43 be 9f 47 af bd 45 7a 13 be 9e 24 7d 3d
       -0.1909781 -0.085585825 -0.14402111 0.0618025
000010 8e 0c 7c 3d d0 50 76 bd aa 92 39 3e 50 c8 38 3e
       0.06153541 -0.060135663 0.18122354 0.18045163
000020 e0 22 26 be 21 52 23 3e d2 5c ca 3d 48 78 30 be
       -0.16224241 0.15949298 0.09880985 -0.17233384
000030 f6 25 3c 3e a5 83 5a 3e 2c c5 28 3d 66 bd 21 be
       0.18373856 0.21339281 0.041203663 -0.15794906
000040 72 ab 60 bd 27 58 16 bd e9 8b 30 3e 61 07 da 3d
       -0.054851003 -0.036705162 0.17240871 0.10645939
000050 d5 5c 06 3d 18 45 db bd f2 ae 58 3e 0d e4 07 3e
       0.032803375 -0.10706538 0.21160486 0.13270588
000060 d0 d9 77 3d 52 45 d1 bd bc ba 46 be 9a df 05 be
       0.060510457 -0.102183 -0.19407171 -0.13073578
000070 29 6a 36 bd 57 0f 9e be 5a ad 8d 3d 80 6e 19 3d
       -0.044534836 -0.30871078 0.0691783 0.037458897
000080 7b 0e 42 be 23 f5 85 be 19 c5 81 3d e5 74 09 be
       -0.18950836 -0.26163587 0.063364215 -0.13423498
000090 c2 29 8e be c1 7b 15 be 30 ad d7 3d 18 28 ae 3d
       -0.27766234 -0.1459799 0.1053108 0.08503741
0000a0 a3 38 4a be 23 56 c5 bd 53 6e 2f 3d f4 0d 05 3e
       -0.19748168 -0.0963557 0.042829823 0.12993604
0000b0 b8 a5 f4 3d ae 38 09 3c 86 d2 0e bc 91 bc d3 3d
       0.11945671 0.00837533 -0.008717185 0.103387006
0000c0 a0 e3 66 3d ee d6 93 3b 81 53 49 be dd e9 39 3d
       0.056369424 0.0045117056 -0.1966076 0.045389045
0000d0 21 96 04 be 27 b8 87 bc a3 bc 3f bd 30 6e ed bd
       -0.12947895 -0.016567303 -0.046810757 -0.11593282
0000e0 26 e7 5d be 82 ee 49 be 7f 6e 6c be 3d ec 07 bd
       -0.21670207 -0.1971989 -0.23089026 -0.03318428
0000f0 7f d2 1d be 81 cb 7a 3c 99 a7 3d be c6 cb 80 3d
       -0.15412329 0.015307308 -0.18520965 0.06288867
000100 3e 83 7b bd 9a c0 38 bb 4e a2 eb bd 19 90 3c be
       -0.06140446 -0.0028190971 -0.115055665 -0.18414344
000110 8e 33 f2 3d 11 0d 2c be 0a ff 3a 3d 28 a5 41 3d
       0.118262395 -0.1680186 0.04565338 0.047276646
000120 f7 f2 99 3c b4 d1 18 be 5d 1d 16 be 8c 72 b4 3d
       0.018792612 -0.14923745 -0.14659639 0.088109106
000130 2b d1 ed 3d 79 d6 0d be e3 5d 34 be 9c db 07 3e
       0.11612161 -0.13851346 -0.1761394 0.13267368
000140 cd 51 c5 3d b0 23 f0 3d cb 26 ae bc db 53 38 be
       0.09634743 0.11725557 -0.021258732 -0.18000738
000150 dd fb d5 bc 90 0f 6e bd e6 9c 23 3e 47 a9 b1 bd
       -0.026121074 -0.05812031 0.15977821 -0.08674865
000160 2a 36 78 bd 8d 37 3e 3d a9 c9 9c 3d 47 24 9a 3c
       -0.06059853 0.046439696 0.07655651 0.018816127
000170 e1 9a bf 3c 0f e5 04 be 56 de 49 be a4 6b d0 bc
       0.023389282 -0.12978004 -0.1971372 -0.025441952
000180 2a a3 47 3e d5 6b 12 bd 15 11 b6 3e 17 e0 2b 3e
       0.19495836 -0.035747368 0.35559908 0.16784702
000190 33 b6 45 3e 0d 3b a1 3e d0 22 0a 3e 93 45 60 3d
       0.19307785 0.31490365 0.13489842 0.05475385
0001a0 23 1d bd 3e a6 d6 e0 3c 8c a5 2d 3e 06 0a b2 3e
       0.36936292 0.027446102 0.16957682 0.34773272
0001b0 50 a7 9d 3e 86 35 b2 3e f6 15 44 3e 62 14 d8 3c
       0.30791712 0.3480646 0.19149002 0.026376907
0001c0 71 07 97 3e 7c 12 3b 3e e7 bb 85 3e f8 ec 1b 3e
       0.29497865 0.1826877 0.2611992 0.15227115
0001d0 0b 5c ac 3e b7 cd 83 3e 0f 16 a8 bd 26 4a ae 3b
       0.33663973 0.25742885 -0.08207332 0.005318898
0001e0 a4 7d cc bd 54 33 96 bd af aa de 3d f6 76 7f be
       -0.099849015 -0.07334009 0.10872399 -0.24947724
0001f0 69 a9 f1 bc 53 b5 bf 3d a4 c2 82 3d 0c 94 38 be
       -0.029499726 0.09360757 0.06384781 -0.18025225
000200 ba 9d d5 3d 9b 8e 83 bd 71 6b 68 3d bf 52 e5 3b
       0.104304746 -0.06423684 0.05674309 0.0069983895
000210 d2 56 04 be 4e e6 19 3d 3c f0 34 be d6 fd 04 be
       -0.12923744 0.03757315 -0.17669767 -0.12987456
000220 36 d4 3f be 13 89 0a be da ec 05 bd f0 06 35 3e
       -0.18733296 -0.13528852 -0.032696582 0.17678428
000230 82 09 dd bd 7c 90 82 be 09 1d 2e 3e 5a 4c 8a 3e
       -0.10792829 -0.25500858 0.17003264 0.27011377
000240 90 ab f1 bd e5 5b c8 bd 67 dd 2d be f5 10 02 3e
       -0.11800301 -0.097831525 -0.1697899 0.12701781
000250 40 e9 5d 3d 59 56 5c be 3b 3b 08 be 4c fa 12 3e
       0.054177523 -0.21517314 -0.13303845 0.14353293
000260 01 22 7b bd 2c 5d 62 be 64 5c b7 bb a9 e2 28 be
       -0.061311726 -0.22105855 -0.0055957306 -0.16492714
000270 f5 b8 a4 3d b8 65 ec 3d 7f 4b 62 3d b0 a5 79 be
       0.0804309 0.11542839 0.05524778 -0.24379611
000280 20 a8 7d 3d 1e c1 ef 3d 7b 35 1b bc a1 93 1e be
       0.061927915 0.11706756 -0.0094732 -0.15486003
000290 5f b2 b7 bd 40 9d 15 3e 45 13 c1 bd 1b cc 86 3c
       -0.089695685 0.14610767 -0.094275035 0.016454747
0002a0 d2 7a c4 3d 2b 54 33 3e ca f3 cd 3b 09 74 b1 3e
       0.095937386 0.17512576 0.0062851654 0.3465884
0002b0 1a 5a e7 3d 3c c2 2b bb 7a 55 90 3e be 3d c1 3d
       0.112964824 -0.0026208302 0.28190213 0.094356045
0002c0 55 ae 66 3e 83 e2 87 3e c6 cd ff 3d 0a 8a 4b 3e
       0.2252744 0.26540002 0.1249042 0.19876876
0002d0 6c 5e 2a 3e 35 20 bf 3e b2 b1 60 3e 75 c3 a9 3e
       0.16637582 0.3732926 0.21942785 0.33156934
0002e0 53 83 67 3e 5a 8a bc 3e fb 5e 15 bc cc f3 b5 3e
       0.2260869 0.36824304 -0.009116883 0.35537565
0002f0 5f ef b2 3e 8d f0 a5 3e 19 d5 a7 3d 7b 68 a0 3d
       0.3494825 0.32410088 0.08194942 0.07832428
000300 7c 40 22 be 37 37 b6 bd de 91 3b be 72 0c 31 3d
       -0.15844911 -0.0889725 -0.18317363 0.04322476
000310 72 70 88 be 28 48 f3 3d 7c 4e b1 bd 00 d5 4c bc
       -0.2664829 0.11878997 -0.08657548 -0.012501955
000320 35 8c 33 be e8 59 f5 3c 5a 2b a3 3d 6c 67 72 3d
       -0.17533953 0.029950097 0.07967253 0.059180662
000330 55 b6 8f be ce d1 5d 3c 34 df 98 bc 2a 00 55 3d
       -0.28068796 0.013538791 -0.018661119 0.05200211
000340 7b 2a b8 bd a1 01 33 be 2e bc 28 be a9 8c 9f bd
       -0.089924775 -0.1748109 -0.16478035 -0.07790501
000350 d0 9f 01 be 0a 38 21 be cc 52 60 3d fd ef 63 3d
       -0.1265862 -0.15744033 0.05476646 0.055648793
000360 d8 49 4e 3e b4 21 4c bc 87 64 68 3e fa 11 13 3e
       0.20145357 -0.012459207 0.22694598 0.14362326
000370 e4 85 ec bc c7 d7 40 3e 82 1a 3d 3d 1e e9 0d bd
       -0.028872438 0.18832313 0.046167858 -0.034646146
000380 96 18 ac 3d 58 4f 03 3d 7c a9 15 be c9 55 29 3e
       0.08403127 0.03205809 -0.14615434 0.1653663
000390 b1 46 7a 3e 18 ec ac 3b 05 f3 82 3e 46 75 31 3e
       0.24441029 0.005277168 0.25576034 0.17329893
0003a0 c0 8d 6e 3e be c7 11 3c 64 a6 e7 bd b7 d2 54 3e
       0.23296261 0.00889772 -0.11311033 0.20783506
0003b0 85 c2 65 3e c0 dd 94 3e 59 2b 6d 3e c7 d1 0f be
       0.22437485 0.29075432 0.23161067 -0.14044867
0003c0 df 53 af 3c 97 c3 93 3e 4c 80 50 3d 34 88 37 3e
       0.021402298 0.2886016 0.050903603 0.17923051
0003d0 30 94 5b 3e 1e 64 cf 3d b6 24 44 3e be 07 1a bc
       0.21443248 0.10126518 0.19154629 -0.00940126
0003e0 a7 9e 8d 3e f9 ec 0b 3e 18 2e a5 bd 61 56 cb 3e
       0.27660105 0.13664617 -0.08065432 0.3971434
0003f0 31 d2 5f 3e 64 26 ed 3d 2f 25 78 3e c4 5e b0 3e
       0.21857525 0.11579588 0.24232934 0.344473

bias f4 [36]
000000 6b 52 79 3d 9d 2b 8d 3d 97 2b f2 bd 8d 70 7a bd
       0.060869616 0.06893084 -0.1182472 -0.061142493
000010 6c 26 ce 3d 8f 4b 98 bd d5 de 0a be 73 7e 83 3e
       0.10065922 -0.07436287 -0.13561566 0.2568241
000020 2f c5 64 be ba 05 8b bd 8e 2e a4 3e d3 64 ae bd
       -0.22340845 -0.06788202 0.32066768 -0.085153244
000030 ac 58 2b be 6f 8c 2a 3e a6 97 0f 3e 6c b0 94 3c
       -0.16733044 0.16655134 0.14022693 0.01815053
000040 78 06 8a 3e be e7 3a be 58 40 ad 3e af 0d 96 3e
       0.2695806 -0.18252465 0.33838153 0.29307315
000050 5f 44 46 3d c3 d5 a8 3e 8e 2e 31 be 45 5d 29 bd
       0.048405048 0.32975587 -0.17302915 -0.041348714
000060 b2 ab 64 be 78 76 9b 3e 09 8b 7c be 23 ec 3e be
       -0.22331122 0.30363822 -0.24662413 -0.18644767
000070 5d 62 c5 3e 1a a3 7a be 58 b5 f9 bd dc b2 b4 bd
       0.38551608 -0.24476281 -0.12192792 -0.08823177
000080 cf 72 78 3e 26 d2 4a 3e 1e 28 5f be c2 a5 d1 bd
       0.24262546 0.19806728 -0.21792647 -0.10236694

weight f4 [1, 36]
000000 fb 60 de bd ed 8a 39 bd 83 60 e8 3d 90 e6 a1 3d
       -0.10858341 -0.045298506 0.11346533 0.079053044
000010 a9 57 7c be 48 ed e1 bd ce 05 c3 bc 62 a9 82 be
       -0.24642815 -0.11031586 -0.023806479 -0.25519854
000020 dd 32 09 3d f9 1d 23 be e5 cc ae be 6c 33 68 bb
       0.033495773 -0.15929402 -0.34140697 -0.003543104
000030 a0 dc e8 3d af d9 ac bd 0e 1c af 3d 74 41 e7 bc
       0.11370206 -0.08439957 0.08550273 -0.028229453
000040 f1 ff 4c be a0 a9 2f bd 69 7b 48 be d6 74 8e be
       -0.20019509 -0.042886376 -0.19578327 -0.27823514
000050 bc 00 a1 be d8 98 b4 be 76 d6 71 3d de 70 9e bd
       -0.31445873 -0.3527286 0.059042417 -0.077363715
000060 06 90 3e 3d b2 5d 94 be 83 97 64 3c bf 65 83 3c
       0.04652407 -0.28977734 0.013952139 0.016039727
000070 6e c7 ad be 49 d7 46 bd 16 75 be bd 1f 58 a8 3d
       -0.33941215 -0.048545156 -0.09299676 0.08219933
000080 97 f2 b5 be 7a c7 37 be e4 f2 68 3d e0 83 41 bc
       -0.35536644 -0.17947188 0.056872264 -0.011811227

exp_avg f4 [24, 3]
000000 8d d9 89 49 6c 2b b3 c8 31 4e ec c9 d3 24 dd 49
       1.1292656e+06 -366939.38 -1.9358141e+06 1.8116104e+06
000010 37 cc 6b c9 38 2b 15 4a fe 4a 00 4a 7d bf 2a c9
       -965827.44 2.443982e+06 2.1019515e+06 -699383.8
000020 be 9e 17 ca 37 ff 48 49 15 d8 d0 c8 ef 1b 19 ca
       -2.4841435e+06 823283.44 -427712.66 -2.5085398e+06
000030 8c 64 e7 49 8f 66 33 c9 83 20 ac c9 8b f5 ea 49
       1.8955695e+06 -734824.94 -1.4100644e+06 1.9247854e+06
000040 21 ab 28 c9 a3 5b c8 c9 ea bc 53 4a dc ad 10 c9
       -690866.06 -1.6413324e+06 3.4691145e+06 -592605.75
000050 4a 8c 63 49 ab f5 36 49 63 8e 69 c8 ea 22 0e 4a
       932036.6 749402.7 -239161.55 2.3287625e+06
000060 97 11 8d 49 1b 7a ad 46 e0 ae 2d ca 47 55 07 49
       1.1556349e+06 22205.053 -2.845624e+06 554324.44
000070 59 61 b6 c8 3d 3f bc c9 eb 64 d9 48 57 2d 11 c8
       -373514.78 -1.5421196e+06 445223.34 -148661.36
000080 ce 8e 10 4a f7 d6 1a 4a 15 5c ad c6 bc 29 54 ca
       2.3684355e+06 2.5368938e+06 -22190.041 -3.476079e+06
000090 6b c5 84 4a cf 61 93 47 4c 54 94 c9 21 f5 82 4a
       4.3506455e+06 75459.62 -1.2151135e+06 4.2912165e+06
0000a0 16 cf 2e c9 0d 5f 13 c9 34 02 73 49 4e 12 21 c9
       -716017.4 -603632.8 995363.25 -659748.9
0000b0 83 f8 e4 c9 0f 15 3f 4a 02 d4 fc c8 1f d2 21 ca
       -1.8757284e+06 3.1306918e+06 -517792.06 -2.6512718e+06
0000c0 e5 0d 72 49 01 bb 0b 47 56 ee 55 ca ae 84 12 49
       991454.3 35771.004 -3.5050455e+06 600138.9
0000d0 07 61 14 c8 0a 53 ec c9 e1 36 7a 49 29 43 0d c8
       -151940.11 -1.9359692e+06 1.02487806e+06 -144652.64
0000e0 2d ff 4a 4a 60 af 6c 4a 6a d3 17 c8 4f 02 75 4a
       3.3258992e+06 3.877848e+06 -155469.66 4.0142278e+06
0000f0 7e fd 3e 49 aa 2e 74 c7 81 60 1f ca a2 c1 cf 49
       782295.9 -62510.664 -2.6112322e+06 1.7019402e+06
000100 cc 6d 6c c7 bc 5f 6f ca eb ba 12 49 f6 1a 37 c8
       -60525.797 -3.921903e+06 601006.7 -187499.84
000110 50 cf 27 4a 24 2e 14 49 4a 20 db c7 e2 da 3e 4a
       2.749396e+06 606946.25 -112192.58 3.1269685e+06

exp_avg_sq f4 [24, 3]
000000 e7 0f 3b 51 af 73 5b 4f 3b 15 d3 51 58 90 de 51
       5.0214105e+10 3.6817917e+09 1.1332429e+11 1.1948805e+11
000010 08 a3 99 50 45 a7 80 52 c7 82 23 52 65 04 3b 50
       2.0620788e+10 2.7628107e+11 1.7556844e+11 1.255051e+10
000020 91 c6 55 52 c0 ab ce 50 6b 4f 90 4f 86 ae 2c 52
       2.2953986e+11 2.7738898e+10 4.8422477e+09 1.854156e+11
000030 28 de 08 52 cf 6f 48 50 79 df cd 51 18 87 13 52
       1.4696068e+11 1.3451083e+10 1.1052719e+11 1.5840667e+11
000040 d7 7e 2c 50 18 be f8 51 58 98 c0 52 55 61 00 50
       1.1575975e+10 1.3354264e+11 4.135948e+11 8.61545e+09
000050 09 2e 9c 52 d1 e0 bc 50 af 6b 0d 4f 74 e6 27 52
       3.3539362e+11 2.5350801e+10 2.3726446e+09 1.8028148e+11
000060 ae 6d 4a 51 a6 cf f0 4d 39 2b 54 52 72 ac 49 50
       5.433897e+10 5.0501754e+08 2.2781456e+11 1.3534087e+10
000070 f2 01 59 4f 1f 29 88 51 c5 6a b3 4f a4 4c 13 4e
       3.6407834e+09 7.310068e+10 6.020238e+09 6.178184e+08
000080 77 2f 28 52 7d 37 6b 52 c5 4d c5 4e ae fa bf 52
       1.8058771e+11 2.5256206e+11 1.6551041e+09 4.1227223e+11
000090 2f 38 15 53 68 22 06 50 28 a7 c7 52 5b c4 1c 53
       6.408927e+11 9.001607e+09 4.2875145e+11 6.733092e+11
0000a0 60 20 47 50 a4 8f e3 52 06 97 49 51 0d 1f 21 50
       1.3363151e+10 4.8868373e+11 5.4113886e+10 1.0812667e+10
0000b0 db f9 25 52 48 a7 af 52 c9 2d da 4f 65 be b0 52
       1.7821537e+11 3.772129e+11 7.3208673e+09 3.7955427e+11
0000c0 c1 87 0c 51 7b 65 41 4e 52 21 ae 52 b3 7a 5a 50
       3.7723312e+10 8.111633e+08 3.7394167e+11 1.4661897e+10
0000d0 cb 80 65 4e 0f fa c8 51 83 ac 1b 51 ab 48 49 4e
       9.6260576e+08 1.0789859e+11 4.1788387e+10 8.442457e+08
0000e0 2b f6 a9 52 8a a5 c5 52 87 b1 d1 4f 66 da 46 53
       3.6498974e+11 4.2444292e+11 7.036145e+09 8.5406764e+11
0000f0 a8 f2 bf 50 94 7c dd 4d dd be 38 52 bd c9 d7 51
       2.5762808e+10 4.6449114e+08 1.9836903e+11 1.1585032e+11
000100 db 7e 88 4e 1a 91 d1 52 33 f1 8e 50 bb ea a3 4e
       1.1450075e+09 4.5004128e+11 1.9185375e+10 1.3750348e+09
000110 13 c4 72 52 58 2f 57 50 6a d5 c0 4d a9 81 96 52
       2.6066792e+11 1.4440817e+10 4.0440147e+08 3.232102e+11

exp_avg f4 [24]
000000 a3 77 d5 c9 ad df 26 ca fe 29 3e ca c1 8f b7 c9
       -1.7487244e+06 -2.7340592e+06 -3.1156475e+06 -1.5037361e+06
000010 61 2e 35 ca c2 53 43 ca 26 e6 96 ca 28 24 8b c9
       -2.9684722e+06 -3.2002405e+06 -4.944659e+06 -1.139845e+06
000020 4a 39 eb c9 17 6b 7b c9 08 c0 1a c9 51 36 5c ca
       -1.9269532e+06 -1.02980944e+06 -633856.5 -3.6079562e+06
000030 99 40 b2 ca ff 03 c1 ca 51 30 09 ca b6 94 8f ca
       -5.8409725e+06 -6.3247355e+06 -2.2477002e+06 -4.704859e+06
000040 b8 c7 c5 c9 06 9e 78 c9 4f 5a ca c9 00 b3 a1 ca
       -1.620215e+06 -1.0183364e+06 -1.6576739e+06 -5.29856e+06
000050 f0 06 a7 c9 3d 5c 31 ca 6d bb 8a c9 61 7b 83 c9
       -1.368286e+06 -2.9058712e+06 -1.1364936e+06 -1.0771001e+06

exp_avg_sq f4 [24]
000000 2d d9 96 51 3b c8 25 52 54 38 76 52 2a e4 4e 51
       8.098609e+10 1.7800723e+11 2.6437675e+11 5.553695e+10
000010 08 bf 54 52 f4 4d 6b 52 20 9a 13 53 a8 53 1f 51
       2.2843451e+11 2.5265629e+11 6.33946e+11 4.2768957e+10
000020 2c c4 aa 51 b7 30 cd 50 be 33 21 50 53 6f a9 52
       9.167946e+10 2.7540175e+10 1.0818091e+10 3.638586e+11
000030 dd 95 57 53 bc a7 6e 53 06 b1 cb 51 40 06 06 53
       9.2593226e+11 1.0250163e+12 1.0935604e+11 5.756305e+11
000040 b7 b1 7d 51 98 c8 c8 50 22 c7 88 51 c0 e0 1a 53
       6.8100518e+10 2.6948714e+10 7.3432056e+10 6.6519564e+11
000050 67 6d 30 51 11 27 39 52 65 b4 0b 51 35 40 e0 50
       4.7359357e+10 1.988061e+11 3.7501686e+10 3.0098434e+10

exp_avg f4 [36, 24]
000000 9d e5 0a c7 8a ac d0 c7 a3 ef 65 c7 aa 4f 2e c6
       -35557.613 -106841.08 -58863.637 -11155.916
000010 35 77 b2 c7 c7 94 a4 c7 c3 a3 95 c8 f9 a5 92 c8
       -91374.414 -84265.555 -306462.1 -300335.78
000020 00 d5 5e c6 d3 2a 1a c6 22 23 85 c7 04 59 8d c7
       -14261.25 -9866.706 -68166.266 -72370.03
000030 16 32 11 c8 ee cb 38 c8 77 a1 05 c7 80 e2 0a c8
       -148680.34 -189231.72 -34209.465 -142218.0
000040 6f 57 13 c4 bb cf 25 c5 91 db 1e c9 15 01 36 c8
       -589.36615 -2652.9832 -650681.06 -186372.33
000050 5b 4d 4c c4 fa ef 96 c6 92 3f 0c c9 a3 6b af c8
       -817.2087 -19319.988 -574457.1 -359261.1
000060 43 8d 5a 46 ea 6e 7f c6 2e 4b 02 46 14 be 8c 45
       13987.315 -16347.729 8338.795 4503.76
000070 14 4c f0 45 bf 81 c5 45 ab f6 87 c5 cc 56 8a c7
       7689.51 6320.2183 -4350.8335 -70829.59
000080 77 8c 29 46 0f 24 17 45 a5 d0 af c6 06 93 9a 46
       10851.116 2418.2537 -22504.322 19785.512
000090 40 6c f9 c3 c5 6e b8 45 71 d7 ae c2 12 9d ad 46
       -498.8457 5901.846 -87.420784 22222.535
0000a0 d0 4e 9e 45 8b 24 c4 45 ed e6 28 c8 14 a1 df c6
       5065.8516 6276.568 -172955.7 -28624.54
0000b0 00 30 d8 45 e9 e9 d1 45 89 20 21 c8 ba cc d8 c7
       6918.0 6717.239 -164994.14 -111001.45
0000c0 5a 6b cf 45 51 69 2b 43 f9 3f 15 45 e8 b9 65 45
       6637.419 171.41139 2387.9983 3675.6191
0000d0 f9 17 1e 45 2a b2 cd 44 6b a8 a2 45 8f c9 df 42
       2529.4983 1645.5676 5205.0522 111.89367
0000e0 d0 9d 07 46 45 6b fd 44 b7 e8 88 41 a0 d1 09 46
       8679.453 2027.3522 17.11363 8820.406
0000f0 04 67 5c 45 4b 6b 56 45 ae ca 35 43 07 39 dd 45
       3526.4385 3430.7058 181.79172 7079.1284
000100 25 ed d0 45 94 6b c4 45 22 da 26 44 83 14 f8 43
       6685.643 6285.4473 667.4083 496.16025
000110 35 8f ff 45 ac c6 ac 45 4a 40 76 44 a3 14 a3 43
       8177.901 5528.834 985.0045 326.16122
000120 00 00 00 00 02 b7 60 45 00 00 00 00 00 00 00 00
       0.0 3595.438 0.0 0.0
000130 1b 75 22 42 00 00 00 00 83 bc f8 45 c6 d5 a4 46
       40.61436 0.0 7959.564 21098.887
000140 00 00 00 00 00 00 00 00 82 e9 3d 45 aa fb 8a 43
       0.0 0.0 3038.5942 277.96613
000150 55 c1 dd 45 f8 64 35 45 00 00 00 00 87 ee 38 44
       7096.1665 2902.3105 0.0 739.727
000160 00 00 00 00 00 00 00 00 37 f6 53 47 12 71 59 46
       0.0 0.0 54262.215 13916.268
000170 00 00 00 00 64 cf 17 c2 79 5f 2f 47 aa af de 46
       0.0 -37.95253 44895.473 28503.832
000180 0f 90 81 c9 99 55 f3 c8 0b 99 62 c9 4a 39 16 c9
       -1.0613779e+06 -498348.78 -928144.7 -615316.6
000190 ff f1 80 c9 e7 96 7e c9 0f 10 11 ca 3d cc 6c c9
       -1.0563199e+06 -1.04279844e+06 -2.3767078e+06 -969923.8
0001a0 cc a3 83 c9 87 01 bb c8 d7 19 37 c8 06 d1 bc c9
       -1.0783935e+06 -382988.22 -187495.36 -1.5467848e+06
0001b0 c2 9b 99 c9 54 af d5 c9 c2 d3 f1 c8 c7 2d f3 c9
       -1.2583602e+06 -1.7505065e+06 -495262.06 -1.9921209e+06
0001c0 b7 21 11 c9 46 13 20 c9 67 d2 e9 c9 b2 66 5b c9
       -594459.44 -655668.4 -1.9154689e+06 -898667.1
0001d0 66 9f 2e c9 62 a5 5d c9 45 61 ca c9 7d b4 76 c9
       -715254.4 -907862.1 -1.6578966e+06 -1.0105038e+06
0001e0 bc db 78 43 28 25 62 c7 3e cb 38 c5 29 e9 4d 42
       248.85834 -57893.156 -2956.7026 51.477695
0001f0 23 83 21 c6 b5 57 eb c5 b8 4a b0 c7 e8 aa 73 c8
       -10336.784 -7530.9634 -90261.44 -249515.62
000200 82 e9 c9 42 f4 8b 15 42 1f f2 95 c7 b7 5e 82 43
       100.95607 37.386673 -76772.24 260.73996
000210 e5 1a f6 c6 da 2a 11 c7 fe 98 86 c5 16 72 e9 c5
       -31501.447 -37162.85 -4307.124 -7470.2607
000220 0b 49 e6 40 f4 59 27 42 f7 ca 0b c9 ec 7e b8 c7
       7.1964164 41.837845 -572591.44 -94461.84
000230 3c d1 e9 41 cf 8d 20 42 5d d2 08 c9 8f 19 b3 c8
       29.227165 40.138485 -560421.8 -366796.47
000240 d6 d1 81 44 9f 63 96 c0 31 e5 be 43 19 a5 16 44
       1038.5574 -4.699661 381.79056 602.57965
000250 9e 0c cc 43 a1 e4 6e 43 c7 53 42 44 13 89 b4 bf
       408.09857 238.89308 777.309 -1.4104332
000260 51 3e 90 44 83 08 b0 43 00 00 00 00 1a 88 95 44
       1153.9474 352.0665 0.0 1196.2532
000270 95 45 d3 43 d8 ba f6 43 e0 2b 8d 41 86 83 78 44
       422.5436 493.45972 17.646423 994.05505
000280 19 bd 69 44 cf 89 71 44 00 00 00 00 11 16 3e 42
       934.95465 966.15326 0.0 47.52155
000290 56 9d 8b 44 0c d8 2c 44 1d 7c bd c1 00 00 00 00
       1116.9167 691.37573 -23.685602 0.0
0002a0 96 d4 87 c9 68 3f 00 c9 52 4e 6d c9 3e 84 1d c9
       -1.1127228e+06 -525302.5 -972005.1 -645187.9
0002b0 c0 3a 87 c9 77 6c 85 c9 68 37 18 ca 39 35 7a c9
       -1.1078e+06 -1.0930069e+06 -2.493914e+06 -1.02485156e+06
0002c0 d0 14 8a c9 09 e5 c3 c8 b8 86 3f c8 ba e5 c5 c9
       -1.131162e+06 -401192.28 -196122.88 -1.6211752e+06
0002d0 7b b1 a0 c9 8a fa df c9 16 3a fd c8 f3 bf fe c9
       -1.3163994e+06 -1.8348332e+06 -518608.7 -2.0869104e+06
0002e0 55 5e 18 c9 3b 03 28 c9 fa d1 f6 c9 d2 a5 65 c9
       -624101.3 -688179.7 -2.0219512e+06 -940637.1
0002f0 c3 4c 37 c9 41 4f 68 c9 b4 68 d6 c9 13 f3 81 c9
       -750796.2 -951540.06 -1.7564385e+06 -1.0645464e+06
000300 d9 2e 08 43 15 f5 33 44 6a 20 5b 43 f8 06 2b 43
       136.183 719.8294 219.12662 171.02722
000310 d2 b9 fe 43 72 e8 e2 43 66 15 71 44 b8 d4 ca 44
       509.45172 453.81598 964.33435 1622.6475
000320 1a 56 36 c0 e1 5f fd 42 b6 c2 04 43 12 a4 dc 41
       -2.8490052 126.68726 132.76059 27.580112
000330 53 0f e0 42 52 06 0c 44 68 2c 35 43 e1 9f e8 43
       112.02993 560.09875 181.17346 465.24905
000340 00 00 00 00 51 af b3 40 53 ff 7a 45 89 b4 22 44
       0.0 5.615151 4015.9578 650.82086
000350 b9 8c 34 bf 3d 2f 09 42 ae ba 86 45 a8 ac f9 44
       -0.70527226 34.29613 4311.335 1997.3955
000360 1c 5f f9 c8 a0 17 38 c8 b8 4d db c8 dc 83 90 c8
       -510712.88 -188510.5 -449133.75 -295966.88
000370 ca 4f f4 c8 36 e2 f5 c8 3b a3 7b c9 af 10 2a c8
       -500350.3 -503569.7 -1.0307077e+06 -174146.73
000380 c1 ed fc c8 d5 dd 37 c8 96 e4 81 c5 46 a4 35 c9
       -517998.03 -188279.33 -4156.573 -744004.4
000390 11 02 0e c9 7d 9c 43 c9 85 bc 76 c8 b3 79 66 c9
       -581665.06 -801223.8 -252658.08 -944027.2
0003a0 f5 6f 88 c8 b9 17 97 c8 ea ea 90 c8 20 1b a8 c8
       -279423.66 -309437.78 -296791.3 -344281.0
0003b0 9a 86 a4 c8 76 38 d9 c8 1b 34 66 c8 61 da c1 c7
       -336948.8 -444867.7 -235728.42 -99252.76
0003c0 a3 86 cb c9 08 ac 36 c9 aa 96 af c9 af b5 6c c9
       -1.6672844e+06 -748224.5 -1.4384212e+06 -969562.94
0003d0 2c 23 c7 c9 d2 4c c4 c9 b1 66 5f ca 90 67 b1 c9
       -1.6313335e+06 -1.6080902e+06 -3.6602042e+06 -1.453298e+06
0003e0 44 e5 cf c9 cb 24 12 c9 8c d5 84 c8 57 c0 13 ca
       -1.7030805e+06 -598604.7 -272044.38 -2.4207578e+06
0003f0 4c 76 eb c9 3c ab 24 ca 82 22 39 c9 f0 15 3d ca
       -1.9289055e+06 -2.697935e+06 -758312.1 -3.09798e+06

exp_avg_sq f4 [36, 24]
000000 84 1e 60 4c e9 9b 97 4d 68 ed 01 4d 85 1e 8b 4a
       5.8751504e+07 3.1794717e+08 1.3623872e+08 4.5586585e+06
000010 c7 fc 85 4d 27 f6 54 4d 84 18 4c 4f 8b b4 08 4f
       2.8099197e+08 2.2330635e+08 3.4241587e+09 2.2935334e+09
000020 b3 a2 30 4b 82 02 4f 4a 34 8e 2a 4d c0 f6 76 4d
       1.1575987e+07 3.3916485e+06 1.7884038e+08 2.5896038e+08
000030 10 a2 4e 4e d5 e6 9e 4e 49 a0 f6 4b bd fb 3f 4e
       8.6668186e+08 1.332964e+09 3.2325778e+07 8.0523654e+08
000040 93 6a 07 47 b9 d3 df 48 a3 5d 27 50 d6 65 85 4e
       34666.574 458397.78 1.1231727e+10 1.1190218e+09
000050 26 6f 68 47 6a 9d 57 4b 9a 61 2a 50 cf 96 70 4f
       59503.15 1.4130538e+07 1.1434093e+10 4.0364152e+09
000060 4f 93 1a 4d a4 3e fe 4a 7b d8 4d 4c 2f da c1 4b
       1.6208408e+08 8.33109e+06 5.3961196e+07 2.5408606e+07
000070 a2 31 83 4c 5e f8 1c 4c 96 d0 f1 4d 1b 2c 31 4d
       6.878338e+07 4.114879e+07 5.0712237e+08 1.8577861e+08
000080 0e cd e5 4c 95 3e 06 4b 5c 21 98 4b 8a e6 92 4d
       1.204819e+08 8.797845e+06 1.9940024e+07 3.0807277e+08
000090 28 c2 f5 4c f0 86 5c 4d b8 6c 3f 4a a8 f0 c0 4d
       1.2884819e+08 2.3123942e+08 3.136302e+06 4.0462464e+08
0000a0 0c 34 48 4c b6 e6 65 4c 39 34 65 4e 90 26 3c 4c
       5.2482096e+07 6.0267224e+07 9.6135123e+08 4.932256e+07
0000b0 7f 69 97 4c eb 06 26 4c 0c 27 81 4e 44 fd c6 4d
       7.9383544e+07 4.3522988e+07 1.0834099e+09 4.1731085e+08
0000c0 f3 e7 61 4d cd 88 73 47 51 ee e9 4b f5 8d 8a 4c
       2.3687966e+08 62344.8 3.0661794e+07 7.264247e+07
0000d0 d4 3c 03 4c 88 44 55 4b c1 ec 0a 4d 64 d1 52 48
       3.440315e+07 1.3976712e+07 1.4567323e+08 215877.56
0000e0 39 25 c1 4d a0 9b a8 4b 9c f5 09 44 3b 78 c7 4d
       4.0505526e+08 2.2099776e+07 551.83765 4.1831818e+08
0000f0 56 12 7f 4c 20 69 71 4c 81 43 c7 47 a9 7c 80 4d
       6.6865496e+07 6.328435e+07 102023.01 2.6945667e+08
000100 64 33 65 4d 21 95 4a 4d 66 e7 4c 49 a6 a4 91 49
       2.403344e+08 2.1242318e+08 839286.4 1.1931088e+06
000110 cf 77 ab 4d fb be 1c 4d 92 28 df 49 d6 be 43 48
       3.5959446e+08 1.6436011e+08 1.8281142e+06 200443.34
000120 00 00 00 00 71 33 b7 4a 00 00 00 00 00 00 00 00
       0.0 6.0031285e+06 0.0 0.0
000130 7a 24 88 44 00 00 00 00 31 0d f8 4b 86 1a fa 4c
       1089.1399 0.0 3.251261e+07 1.3112632e+08
000140 00 00 00 00 00 00 00 00 2a 3b 2b 4a b9 cd c4 46
       0.0 0.0 2.8054505e+06 25190.861
000150 3f 96 ac 4b 1e cc 81 4a 00 00 00 00 f5 69 75 48
       2.262131e+07 4.253199e+06 0.0 251303.83
000160 00 00 00 00 00 00 00 00 3a 6b 4f 4e 2a a4 6b 4c
       0.0 0.0 8.699777e+08 6.1771944e+07
000170 00 00 00 00 87 97 0e 45 2e bd 0f 4e 15 04 58 4d
       0.0 2281.4705 6.02885e+08 2.2650914e+08
000180 80 bb e7 50 99 10 a9 4f 73 6e ac 50 13 cd 37 50
       3.11026e+10 5.6728745e+09 2.3143356e+10 1.2334681e+10
000190 21 81 d0 50 c9 18 c5 50 1d 96 0e 52 de 38 9b 50
       2.7984988e+10 2.6453887e+10 1.5310096e+11 2.0833563e+10
0001a0 2c de 01 51 e6 74 8c 4f 12 2f 9f 4e 38 0c 76 51
       3.4861138e+10 4.7129426e+09 1.3353311e+09 6.6047934e+10
0001b0 3a a2 26 51 26 6d 97 51 8c 81 be 4f bc ec c5 51
       4.4730393e+10 8.129641e+10 6.392322e+09 1.0626004e+11
0001c0 d5 bf 3c 50 ca 00 5b 50 10 b0 a4 51 6b 23 a3 50
       1.2666754e+10 1.4697048e+10 8.841606e+10 2.1896059e+10
0001d0 9a d3 84 50 c2 36 af 50 94 99 a6 51 21 e7 e4 50
       1.782768e+10 2.3516811e+10 8.944265e+10 3.072282e+10
0001e0 e2 ee ec 47 1a 15 be 4c 00 e4 42 49 15 1c d4 45
       121309.766 9.965794e+07 798272.0 6787.5103
0001f0 6c 7e bd 4a 6f ea 27 4a 9a 4c bc 4d e4 21 da 4e
       6.209334e+06 2.7511318e+06 3.948921e+08 1.8298271e+09
000200 45 44 be 46 c3 16 6c 45 8d 11 5b 4d d6 a8 06 48
       24354.135 3777.4226 2.2971003e+08 137891.34
000210 7d a3 39 4c b6 1c 98 4c be 02 06 4a d5 83 a0 4a
       4.8664052e+07 7.975058e+07 2.1956315e+06 5.2597545e+06
000220 3b 87 fa 43 7c d9 55 45 bd 5f 1c 50 d4 cb 87 4d
       501.0565 3421.5928 1.049408e+10 2.8478528e+08
000230 a0 bf 31 45 95 4b 18 46 7b d7 3d 50 f0 ac 8c 4f
       2843.9766 9746.8955 1.2740062e+10 4.720288e+09
000240 95 fc b0 4a 0b 84 ed 42 9c 58 3f 49 08 53 ee 49
       5.7994985e+06 118.7579 783753.75 1.952353e+06
000250 f7 9f 5a 49 2d d5 95 48 ca 49 46 4a 23 24 2b 41
       895487.44 306857.4 3.2487545e+06 10.696322
000260 04 80 da 4a 36 b6 22 49 00 00 00 00 a2 d0 ea 4a
       7.15981e+06 666467.4 0.0 7.694417e+06
000270 2c 60 6a 49 06 d3 9f 49 c9 4a d1 44 d3 24 a2 4a
       960002.75 1.3092808e+06 1674.337 5.3131295e+06
000280 d5 6f 8f 4a 51 2b 99 4a 00 00 00 00 4b ba 3d 46
       4.7001385e+06 5.0190485e+06 0.0 12142.573
000290 98 b3 cc 4a 86 de 1c 4a 72 87 3c 45 00 00 00 00
       6.70766e+06 2.5701455e+06 3016.4653 0.0
0002a0 d8 d5 ff 50 dc 6c ba 4f b2 92 bd 50 0b 6e 4b 50
       3.4337636e+10 6.255393e+09 2.5444061e+10 1.3651946e+10
0002b0 d3 e2 e5 50 0d 30 d9 50 ee 37 1d 52 85 6e ab 50
       3.085478e+10 2.915044e+10 1.6881205e+11 2.3009176e+10
0002c0 2f c2 0f 51 62 fd 9a 4f 78 4b ac 4e 5b aa 87 51
       3.8589886e+10 5.200594e+09 1.4453135e+09 7.2834834e+10
0002d0 07 a7 36 51 12 a6 a6 51 1d cf d1 4f de e4 d9 51
       4.9030394e+10 8.946885e+10 7.040023e+09 1.1698096e+11
0002e0 67 80 51 50 f1 ff 72 50 ae f2 b4 51 8a a6 b2 50
       1.4059412e+10 1.6307439e+10 9.71457e+10 2.397807e+10
0002f0 9e 5c 93 50 b1 88 c1 50 4f b5 b6 51 e8 f1 f9 50
       1.9778564e+10 2.5975687e+10 9.809074e+10 3.3547043e+10
000300 6c 97 4c 46 f7 8b 34 48 48 86 01 47 0b 22 da 46
       13093.855 184879.86 33158.28 27921.021
000310 1d 8c 0d 48 3b 40 de 47 5a 62 d4 48 68 44 94 49
       144944.45 113792.46 434962.8 1.214605e+06
000320 eb 4f 94 43 3a 3d 8b 46 bf e8 e5 46 b0 f4 10 45
       296.62436 17822.613 29428.373 2319.293
000330 45 0e 22 46 a4 6c 20 48 33 07 c4 46 05 bf 08 48
       10371.567 164274.56 25091.6 140028.08
000340 00 00 00 00 21 49 05 43 77 93 07 4b e9 f2 94 48
       0.0 133.28566 8.885111e+06 305047.28
000350 28 43 41 40 26 fa df 46 1d 7e 09 4b 80 90 0a 4a
       3.019724 28669.074 9.010717e+06 2.27024e+06
000360 86 ae d3 4f 9b be 5f 4e 7e 66 a1 4f 2e 20 1f 4f
       7.1028603e+09 9.384527e+08 5.4156974e+09 2.6696863e+09
000370 79 66 bc 4f 1b fb b8 4f ba 35 d2 50 f3 d9 6a 4e
       6.3216645e+09 6.2069284e+09 2.8213891e+10 9.85038e+08
000380 d0 84 e3 4f 5b 04 82 4e 91 bd c1 49 b9 08 5f 50
       7.634264e+09 1.0906618e+09 1.5871221e+06 1.4967563e+10
000390 87 2d 0a 50 bc f9 77 50 bc 0c c5 4e 5f c6 ac 50
       9.272958e+09 1.6641356e+10 1.652973e+09 2.3189453e+10
0003a0 62 d8 1a 4f fe bf 34 4f 4b e4 2b 4f c8 63 53 4f
       2.597872e+09 3.0324813e+09 2.8838653e+09 3.5465318e+09
0003b0 bd 3c 5c 4f f4 d5 a1 4f 03 ce 0d 4f a1 72 be 4d
       3.694968e+09 5.430307e+09 2.3790886e+09 3.9939792e+08
0003c0 f2 1e 96 51 47 32 3b 50 ae f5 54 51 a6 ff f3 50
       8.059553e+10 1.2562537e+10 5.716593e+10 3.2748941e+10
0003d0 7f bf 7e 51 e8 ea 70 51 94 47 ac 52 08 c6 29 51
       6.8383404e+10 6.4670826e+10 3.6996763e+11 4.5573243e+10
0003e0 1d 99 ac 51 65 61 35 50 f4 4a 25 4f eb f6 1c 52
       9.26629e+10 1.2172236e+10 2.7731528e+09 1.6853937e+11
0003f0 2a 86 c7 51 13 d5 37 52 93 e7 66 50 b3 a5 77 52
       1.0711867e+11 1.9738845e+11 1.5495745e+10 2.6590922e+11

exp_avg f4 [36]
000000 a2 2c f6 c8 14 59 97 c7 db e2 2d 45 1c 3d f6 46
       -504165.06 -77490.16 2782.1785 31518.555
000010 79 e9 11 ca 9f 0e 94 c8 f1 0c 56 43 f8 56 19 ca
       -2.3906222e+06 -303220.97 214.05055 -2.512318e+06
000020 04 53 0b 45 83 8d 4b c9 f7 7c 5d ca dc 63 a8 47
       2229.1885 -833752.2 -3.6288618e+06 86215.72
000030 45 a5 0f 45 83 cb cd c8 ae 62 66 46 09 79 0b 47
       2298.3293 -421468.1 14744.67 35705.035
000040 70 cd dc c9 00 00 00 00 ab 59 d5 c9 63 bc 2c ca
       -1.808814e+06 0.0 -1.7477654e+06 -2.8301048e+06
000050 07 f6 47 ca cb fe 65 ca 00 00 00 00 00 00 00 00
       -3.2761618e+06 -3.7682428e+06 0.0 0.0
000060 e3 c3 2c 48 64 01 37 ca f8 de 83 47 3d 87 89 47
       176911.55 -2.998361e+06 67517.94 70414.48
000070 49 dd 5b ca 2f 57 40 40 c2 7b ab c8 47 c3 7d 43
       -3.6022582e+06 3.0053213 -351198.06 253.7628
000080 38 51 68 ca fa f5 ba c9 4b b8 45 48 15 9f 80 46
       -3.806286e+06 -1.5315832e+06 202465.17 16463.541

exp_avg_sq f4 [36]
000000 a7 83 be 4f 88 ca f2 4d 9a 96 f5 4b c8 95 87 4d
       6.392598e+09 5.0916992e+08 3.2189748e+07 2.8434253e+08
000010 03 72 e3 51 40 30 20 4f de 94 70 48 42 24 fb 51
       1.221088e+11 2.6875167e+09 246355.47 1.3483064e+11
000020 20 99 e1 49 4f 28 6d 50 9d ff 83 52 66 06 9b 4d
       1.8481e+06 1.5915367e+10 2.834646e+11 3.2511098e+08
000030 70 ec 99 4b c4 e9 98 4f 63 84 81 4d e7 03 25 4d
       2.0175072e+07 5.130914e+09 2.7161712e+08 1.7303102e+08
000040 5f 0a 82 51 00 00 00 00 12 c5 72 51 cd 28 22 52
       6.981497e+10 0.0 6.5168024e+10 1.741173e+11
000050 5c b4 56 52 2e 9f 8e 52 00 00 00 00 00 00 00 00
       2.3053723e+11 3.0627797e+11 0.0 0.0
000060 6d b3 a7 4e b8 8d 34 52 c2 95 a2 4e 21 0d 8d 4d
       1.406777e+09 1.9386794e+11 1.3638618e+09 2.9580598e+08
000070 ab 16 82 52 2e 41 42 42 70 a9 3e 4f 0a c4 f9 47
       2.7936303e+11 48.563652 3.1987753e+09 127880.08
000080 45 54 91 52 40 e8 3b 51 ef 2b e1 4e c8 0e 81 4c
       3.1209203e+11 5.044096e+10 1.8888764e+09 6.766342e+07

exp_avg f4 [1, 36]
000000 0e ec 92 4a 43 51 0c 49 15 16 67 45 69 43 6c 46
       4.814343e+06 574740.2 3697.3801 15120.853
000010 3f 31 97 4b 86 6f 3f 49 b8 38 a5 44 7c 97 aa 4b
       1.9817086e+07 784120.4 1321.7725 2.23598e+07
000020 ea 3e 86 c3 d6 84 ce 4a 9f 78 8f 4b c9 39 de 48
       -268.49152 6.767211e+06 1.8805054e+07 455118.28
000030 dd ff 0a 44 c8 7b e3 49 ef 03 93 45 77 37 4a 49
       555.99786 1.863545e+06 4704.4917 828279.44
000040 2a d6 9d 4b 00 00 00 00 60 d5 9a 4b 37 f4 30 4b
       2.0687956e+07 0.0 2.0294336e+07 1.1596855e+07
000050 ca d7 d2 4b bc 64 ac 4b 00 00 00 00 00 00 00 00
       2.7635604e+07 2.259596e+07 0.0 0.0
000060 57 fd e8 48 fe db 7d 4b ae f3 09 48 56 12 ea 47
       477162.72 1.6636926e+07 141262.72 119844.67
000070 be b3 d1 4b 6e b0 8f 43 84 bb a2 4a 24 2f 5c c4
       2.7486076e+07 287.37836 5.332418e+06 -880.7366
000080 7b 48 c2 4b 60 b7 99 4b 10 40 e2 48 e9 ef 17 47
       2.5465078e+07 2.0147904e+07 463360.5 38895.91

exp_avg_sq f4 [1, 36]
000000 cb 61 02 53 61 d5 80 50 52 7a 8d 4c a4 cd d9 4c
       5.5998644e+11 1.7291741e+10 7.417512e+07 1.1419165e+08
000010 ad cd 09 55 bb 7a e5 50 a6 56 0f 4b 4a d6 2b 55
       9.469779e+12 3.0800206e+10 9.39383e+06 1.1808553e+13
000020 53 e8 bb 4b c1 d8 84 53 97 8d f2 54 aa fa 23 50
       2.4629414e+07 1.1411444e+12 8.3340606e+12 1.1004455e+10
000030 4c c5 38 4a 8f 7d d8 51 73 08 1b 4c 36 94 d4 50
       3.027283e+06 1.1622743e+11 4.0640972e+07 2.8531864e+10
000040 a5 e5 0e 55 00 00 00 00 7c d4 03 55 19 c0 3f 54
       9.81981e+12 0.0 9.05929e+12 3.2942465e+12
000050 65 00 7f 55 5b 4d 26 55 00 00 00 00 00 00 00 00
       1.7523572e+13 1.1428198e+13 0.0 0.0
000060 6e 14 36 50 bc 64 bf 54 48 58 fc 4f 61 e2 e6 4e
       1.2219169e+10 6.5762304e+12 8.467288e+09 1.9367978e+09
000070 5c 28 87 55 f8 d2 d8 48 92 6b 3c 53 4c 7d 33 4a
       1.8575926e+13 444055.75 8.092586e+11 2.940755e+06
000080 67 5b 59 55 95 93 f7 54 20 c5 3c 50 4f b8 0c 4e
       1.4936662e+13 8.5066635e+12 1.2668142e+10 5.902223e+08
