data/policies/Pendulum-v0#default_team_-1357.9887956374803#bernoulli#None#-1357.9887956374803.pt (torch, 19153 bytes, 15 tensors)

weight f4 [24, 3]
0	0xbef2c7da	-0.474181
1	0x3f39939e	0.7249087
2	0x3f24e8f3	0.6441795
3	0xbe3ac84e	-0.18240473
4	0x3f076799	0.5289245
5	0xbdb0d294	-0.086339146
6	0xbf05c321	-0.5225087
7	0x3f362208	0.7114568
8	0x3ee6d7cd	0.45086518
9	0x3e121843	0.14267068
10	0x3f4b6a84	0.79459405
11	0x3f215025	0.63012916
12	0xbe537cc1	-0.20653059
13	0x3f424ea8	0.7590127
14	0x3eb8ef44	0.36120045
15	0xbc49ea19	-0.01232388
16	0x3f2574a3	0.646311
17	0x3ebfae8e	0.37437862
18	0xbf478049	-0.7793012
19	0x3f49efd1	0.78881556
20	0x3e934d61	0.28769973
21	0xbee80a6b	-0.45320448
22	0x3ef3d6a5	0.47624698
23	0xbea2bc36	-0.3178422
24	0xbb10a4a2	-0.0022070785
25	0xbe85035a	-0.2597912
26	0x3f521d87	0.82076305
27	0x3dfb7dba	0.1227984
28	0x3f335bf9	0.70062214
29	0x3eebd0c5	0.46057716
30	0xbea3d3ba	-0.31997472
31	0x3e8ced9d	0.27525035
32	0xbe912654	-0.28349555
33	0xbf47ba86	-0.7801899
34	0xbe513a50	-0.204324
35	0x3f3798e0	0.71717644
36	0xbf3ecdbe	-0.7453269
37	0xbecbf58c	-0.39835775
38	0x3e87d17e	0.26527017
39	0xbeffbcf5	-0.4994885
40	0x3f0dd681	0.5540543
41	0x3eab4c95	0.33456865
42	0x3ea2eadd	0.3181981
43	0x3ef3e238	0.4763353
44	0x3ea0783d	0.31341735
45	0xbf11b0f5	-0.5691064
46	0x3f07545d	0.52863103
47	0x3f1fde1c	0.62448287
48	0xbdc83348	-0.09775406
49	0xbe9ed3d7	-0.31020996
50	0x3f413d27	0.75483936
51	0xbdbc3154	-0.09189096
52	0x3edc0579	0.42972925
53	0x3f3eddb3	0.74557036
54	0xbee135db	-0.439864
55	0x3e3c73b0	0.18403506
56	0xbf1194c6	-0.56867635
57	0xbeed8406	-0.46389788
58	0xbe141a6b	-0.14463203
59	0xbd8b1258	-0.06790608
60	0x3e061805	0.130951
61	0xbd62203f	-0.055206534
62	0x3f46c5ee	0.77645767
63	0x3e7e6c76	0.24846062
64	0xbdb69f6c	-0.08917126
65	0x3f217a1d	0.63076955
66	0x3eb094a2	0.34488398
67	0x3ec7494f	0.38923118
68	0xbf22dd47	-0.6361889
69	0xbe8ec3ed	-0.27883855
70	0x3de85b3a	0.11345525
71	0xbf01319c	-0.5046632

bias f4 [24]
0	0x3d8dfc06	0.06932835
1	0x3e8d4636	0.2759263
2	0x3e0d4baf	0.13798402
3	0x38c8b550	9.570515e-05
4	0x3ef5b516	0.4798972
5	0x3f1d8812	0.6153575
6	0x3f4fba24	0.81143403
7	0x3d550e3f	0.05201554
8	0x3e6b5fa8	0.22985709
9	0x3c610088	0.013733037
10	0xbea6a1d3	-0.32545337
11	0x3e6d0b47	0.23148833
12	0x3eaff8de	0.34369558
13	0x3f35dcdf	0.7104015
14	0x3efc1024	0.49231064
15	0x3f33710c	0.7009437
16	0xbe987fda	-0.29785043
17	0xbe6b81c1	-0.22998716
18	0x3e6e79b6	0.23288617
19	0x3eb68c88	0.35654092
20	0xbd298041	-0.041382078
21	0x3f01cfdf	0.5070781
22	0x3ea791af	0.32728335
23	0xbdf96caa	-0.12178929

weight f4 [36, 24]
0	0xbe01ea98	-0.12687147
1	0x3cac55db	0.021037033
2	0xbd983726	-0.07432394
3	0x3e08be80	0.1335392
4	0x3e113724	0.1418119
5	0x3cd05d05	0.02543498
6	0x3e85c049	0.26123264
7	0x3e938c96	0.28818196
8	0xbdd5417e	-0.10412882
9	0x3e6f39db	0.23361914
10	0x3e4eec37	0.20207296
11	0xbde13213	-0.10995879
12	0x3e874a0d	0.26423684
13	0x3e94b201	0.29042056
14	0x3e14b310	0.14521432
15	0xbdb44beb	-0.08803543
16	0xbc415d4f	-0.011802032
17	0x3c8ec697	0.01742868
18	0x3e8e0083	0.27734765
19	0x3e51e96c	0.204992
20	0x3d9d1751	0.07670463
21	0xbcba6727	-0.022754265
22	0x3e9c6f83	0.30553827
23	0x3e6e61c9	0.2327949
24	0x3d39a762	0.045325644
25	0x3d2980b3	0.041382503
26	0xbe56c885	-0.2097493
27	0xbe1284d0	-0.14308476
28	0xbd553e4a	-0.052061357
29	0xbea0be27	-0.31395075
30	0x3da9661f	0.08271431
31	0x3e16bb51	0.14719893
32	0xbe4fdd91	-0.20299365
33	0xbe8b9bdd	-0.27267352
34	0x3e3a35a6	0.18184528
35	0xbe192fa1	-0.14959575
36	0xbe8642f8	-0.26222968
37	0xbe13b0c3	-0.14422898
38	0x3e0b2e2e	0.13591835
39	0x3d902dab	0.070399605
40	0xbe541e33	-0.20714645
41	0xbddc38c5	-0.107530154
42	0x3e1ea3dc	0.15492195
43	0x3e729f17	0.236935
44	0x3ddeab57	0.10872524
45	0xbb2f87c0	-0.0026783794
46	0x3dbe0800	0.0927887
47	0x3e5a6ce7	0.21330605
48	0x3d4e79a1	0.050408963
49	0xbba311e0	-0.004976496
50	0xbe4f6e01	-0.20256807
51	0x3d217fde	0.039428584
52	0xbe0ab0a1	-0.13543941
53	0xbcb98e4d	-0.022650862
54	0xbd5826a2	-0.052771218
55	0xbdf43f46	-0.11926131
56	0xbe6401a6	-0.22266254
57	0xbe500902	-0.20315936
58	0xbe76bdfb	-0.2409591
59	0xbd20563c	-0.03914474
60	0xbe23ecff	-0.16008376
61	0x3c192388	0.00934685
62	0xbe45b5b1	-0.19307591
63	0x3d692d8d	0.056928206
64	0xbd89f69d	-0.06736491
65	0xbc0fd81f	-0.008779555
66	0xbe0020a6	-0.12512454
67	0xbe42fddb	-0.1904215
68	0x3de5fe90	0.112301946
69	0xbe322791	-0.17397906
70	0x3d11c10d	0.0355845
71	0x3d18672b	0.037207764
72	0x3c99f2f7	0.018792612
73	0xbe2d9678	-0.1695193
74	0xbe161d5d	-0.14659639
75	0x3db4728c	0.088109106
76	0x3dcafb7e	0.099112496
77	0xbe0dd679	-0.13851346
78	0xbe481f85	-0.19543274
79	0x3ddb8fc4	0.107207805
80	0x3dc551cd	0.09634743
81	0x3df023b0	0.11725557
82	0xbd3dc6eb	-0.04633228
83	0xbe511d2f	-0.20421289
84	0xbd3f749a	-0.04674206
85	0xbd9edd6e	-0.07757078
86	0x3e239ce6	0.15977821
87	0xbddb6df2	-0.1071433
88	0xbd78362a	-0.06059853
89	0x3d3e378d	0.046439696
90	0x3d516da0	0.051129937
91	0xbbb955db	-0.0056559867
92	0x3cbf9ae1	0.023389282
93	0xbdf34c6f	-0.11879813
94	0xbe63bf18	-0.22240865
95	0xbd536d70	-0.05161804
96	0x3e8e67f5	0.27813688
97	0x3d86f78f	0.06590187
98	0x3ee13d52	0.43992096
99	0x3e7a4448	0.2444011
100	0x3e9002a6	0.2812702
101	0x3ecf4f86	0.4049036
102	0x3e6233f7	0.22090136
103	0x3e242eb3	0.1603344
104	0x3ee5fc75	0.44919172
105	0x3dd61ea5	0.10455064
106	0x3e866eda	0.26256448
107	0x3edca4a3	0.43094358
108	0x3ec93180	0.39295578
109	0x3ede4b79	0.43416956
110	0x3e8f8d65	0.28037563
111	0x3de33155	0.11093394
112	0x3ebc679a	0.36797792
113	0x3e83cee2	0.25743777
114	0x3eba100f	0.36340377
115	0x3e7b211f	0.24524353
116	0x3ed24324	0.4106685
117	0x3eae19ec	0.34004152
118	0x3bf8f330	0.0075973496
119	0x3dcc067d	0.09962175
120	0xbde0d636	-0.109783575
121	0x3d34bf86	0.044127963
122	0x3e1e2d2a	0.15446916
123	0xbe84be29	-0.2592633
124	0x3d6012d3	0.054705452
125	0x3e46b789	0.1940595
126	0x3e16bcad	0.14720412
127	0xbd9f7309	-0.07785613
128	0x3deb2ad3	0.114827774
129	0xbd6fab3b	-0.058512907
130	0x3e1dc558	0.15407312
131	0x3c7106e0	0.014711112
132	0xbcdb5dfd	-0.026778216
133	0x3dec11fc	0.11526868
134	0xbdc4b5ab	-0.09604963
135	0xbd9d1aad	-0.076711036
136	0xbe446d2f	-0.19182275
137	0xbe14a881	-0.14517404
138	0x3d82e916	0.06392114
139	0x3e95ac3d	0.2923297
140	0xbdec905c	-0.11550972
141	0xbe44a139	-0.19202127
142	0x3e82e925	0.255685
143	0x3eb9c8a1	0.3628588
144	0xbdfde08e	-0.12396346
145	0xbdbc26e7	-0.091871075
146	0xbe33f7e7	-0.17575036
147	0x3df7ecec	0.12105736
148	0x3d457f41	0.048217062
149	0xbe6270d9	-0.2211336
150	0xbe0e55bb	-0.13899891
151	0x3e1914cc	0.1494934
152	0xbd89c5ff	-0.06727218
153	0xbe6877ac	-0.22701901
154	0xbbb75c64	-0.0055957306
155	0xbe2efd29	-0.1708876
156	0x3d9883f7	0.07447045
157	0x3de030ba	0.10946794
158	0x3d49e180	0.04928732
159	0xbe7fc030	-0.24975657
160	0x3d653e21	0.055967454
161	0x3de38c20	0.11110711
162	0xbc1b357b	-0.0094732
163	0xbe24ae21	-0.1608205
164	0xbdc3e75d	-0.095656134
165	0x3e0f82c0	0.14014721
166	0xbdb4de47	-0.088314585
167	0x3c86cc1b	0.016454747
168	0x3e373987	0.17893039
169	0x3e8dcaa9	0.2769368
170	0x3db95a8d	0.09050474
171	0x3ed884d4	0.4228884
172	0x3e4ddbd5	0.2010339
173	0x3db2a1e4	0.087222844
174	0x3ebc5168	0.36780858
175	0x3e4d026f	0.2002046
176	0x3e9c16c3	0.30486116
177	0x3eaf408d	0.34228936
178	0x3e5f50c6	0.21808156
179	0x3e904a7f	0.28181836
180	0x3e80ab6f	0.25130793
181	0x3eeb29f5	0.45930448
182	0x3e9dbc0c	0.3080753
183	0x3ed4fcdb	0.41599163
184	0x3e990071	0.2988315
185	0x3ee2acdc	0.44272506
186	0x3dbf7fbc	0.09350535
187	0x3ee57f60	0.44823742
188	0x3ed8b54a	0.42325813
189	0x3ed01ddd	0.40647784
190	0x3e307447	0.17231856
191	0x3e313dff	0.17308806
192	0xbe33186f	-0.1748979
193	0xbde59a47	-0.11211067
194	0xbe4c99d6	-0.19980559
195	0x3cee35de	0.02907842
196	0xbe91e895	-0.28497759
197	0x3dcd33ab	0.100196205
198	0xbddab1da	-0.10678454
199	0xbd068f1c	-0.032851323
200	0xbe3134dd	-0.17305322
201	0x3c89e849	0.016834395
202	0x3d8d4374	0.06897631
203	0x3d51fbb7	0.051265445
204	0xbe977f24	-0.29589188
205	0xbbb63743	-0.005560787
206	0xbd0d2f68	-0.03446904
207	0x3d0e9d83	0.034818184
208	0xbdb82a7b	-0.089924775
209	0xbe39e3d2	-0.18153313
210	0xbe3bcd8f	-0.18340133
211	0xbdc0e75f	-0.094191305
212	0xbdf7c2ad	-0.12097678
213	0xbe2415eb	-0.16023986
214	0x3d0f03cc	0.03491573
215	0x3d18e3fe	0.037326805
216	0x3e920689	0.2852061
217	0x3db93cd4	0.09044805
218	0x3e9f6230	0.311296
219	0x3e641c76	0.22276482
220	0x3d7392aa	0.05946604
221	0x3e8ea95c	0.27863586
222	0x3e099c12	0.13438442
223	0x3da66004	0.08123782
224	0x3e29f571	0.16597535
225	0x3de3085f	0.11085581
226	0x3acb8a60	0.001552891
227	0x3e7f7140	0.24945545
228	0x3eaa1676	0.3322026
229	0x3dbea0a0	0.093079805
230	0x3eb1296d	0.34601918
231	0x3e84ac0c	0.2591251
232	0x3e9e11ba	0.308729
233	0x3db146f0	0.086561084
234	0x3c3009cf	0.010744526
235	0x3e9b6ae2	0.30354983
236	0x3e9a1940	0.3009739
237	0x3ec024b5	0.37528005
238	0x3eb2c8fd	0.34918967
239	0xba72acf0	-0.0009257337
240	0x3dd21156	0.10257213
241	0x3ec79aca	0.38985282
242	0x3e094501	0.13405229
243	0x3e81abc5	0.25326362
244	0x3e9a553f	0.30143163
245	0x3e426815	0.18985017
246	0x3e8d8aff	0.27645108
247	0x3dc49ab1	0.095998175
248	0x3eb535fe	0.35392755
249	0x3e58b68f	0.2116339
250	0x3c32d486	0.010914927
251	0x3ef51344	0.4786626
252	0x3e9ad90c	0.3024372
253	0x3e4d9a19	0.20078315
254	0x3ea8a190	0.32935762
255	0x3edaec14	0.42758238

bias f4 [36]
0	0x3e28eed1	0.16497351
1	0x3e16302a	0.1466681
2	0xbe00067c	-0.12502474
3	0xbdb220ab	-0.08697637
4	0x3e4f68d9	0.2025484
5	0x3cf2f593	0.029658115
6	0xbe10f955	-0.14157613
7	0x3eb7993f	0.35859105
8	0xbe7bfa50	-0.24607205
9	0x3d1a3640	0.037649393
10	0x3ed7b01e	0.42126554
11	0xbe1adeae	-0.15124008
12	0xbe329694	-0.17440253
13	0x3e86ba3e	0.26313967
14	0x3e02ee30	0.12786174
15	0xbc645933	-0.013937282
16	0x3ebeab1d	0.37239924
17	0xbe3ae7be	-0.18252465
18	0x3ee1fd27	0.44138452
19	0x3ec989d2	0.3936296
20	0x3e18e6e2	0.14931825
21	0x3edc454c	0.4302162
22	0xbe312e8e	-0.17302915
23	0xbd295d45	-0.041348714
24	0xbe93ce90	-0.28868532
25	0x3ecf1540	0.404459
26	0xbe8b2f08	-0.2718432
27	0xbe78dd9b	-0.24303286
28	0x3ef8e262	0.48610216
29	0xbe805ecd	-0.25072327
30	0xbc785ac3	-0.015158358
31	0xbdc8c8f6	-0.09803955
32	0x3eafacc5	0.343115
33	0x3e9a3daa	0.3012517
34	0xbe90c805	-0.28277603
35	0xbe05266c	-0.13002938

weight f4 [1, 36]
0	0xbe5b96f5	-0.21444304
1	0xbe0f9db9	-0.1402501
2	0x3ddc39a9	0.10753185
3	0x3d73b211	0.05949599
4	0xbead7598	-0.3387878
5	0xbe5295f2	-0.20565012
6	0xbcf3d9cb	-0.029766938
7	0xbeb28ec7	-0.34874555
8	0x3d0c42eb	0.034243505
9	0xbe80b542	-0.2513829
10	0xbedee57d	-0.4353446
11	0xbd820f90	-0.063506246
12	0x3ddfd109	0.10928542
13	0xbe35bb77	-0.17747293
14	0x3d9a38a0	0.075303316
15	0xbdc60bd2	-0.09670223
16	0xbe97567b	-0.29558167
17	0xbd2fa9a0	-0.042886376
18	0xbe96a29d	-0.2942094
19	0xbebebeed	-0.3725504
20	0xbed19e90	-0.40941286
21	0xbee63cdf	-0.44968316
22	0x3d71d676	0.059042417
23	0xbd9e70de	-0.077363715
24	0xbc5722f6	-0.013130894
25	0xbec4fe34	-0.38475192
26	0xbbedd3b1	-0.0072579016
27	0xbcb0edd8	-0.021597788
28	0xbedc62dd	-0.43044177
29	0xbd5f4148	-0.054505616
30	0xbe434574	-0.19069463
31	0x3db6e1b8	0.08929771
32	0xbee66ae1	-0.45003417
33	0xbe8ff950	-0.28119898
34	0xb9b02928	-0.000336
35	0xbd0b03c6	-0.033939146

exp_avg f4 [24, 3]
0	0x4806142f	137296.73
1	0xc72e3102	-44593.008
2	0xc865d7ff	-235359.98
3	0x48a247d6	332350.7
4	0xc8032c35	-134320.83
5	0x4959ac86	891592.4
6	0x488e959f	292012.97
7	0xc7a7ee95	-85981.164
8	0xc87213e2	-247887.53
9	0x47c41fd2	100415.64
10	0xc74a913f	-51857.246
11	0xc894fa63	-305107.1
12	0x48858f7d	273531.9
13	0xc7f6387d	-126064.98
14	0xc542a3ec	-3114.245
15	0x4881159c	264364.88
16	0xc7ec430b	-120966.086
17	0xc71c18b6	-39960.71
18	0x490e757f	583511.94
19	0xc7ca73c4	-103655.53
20	0x49249eff	674287.94
21	0x4839d0fb	190275.92
22	0xc709fa20	-35322.125
23	0x4941990d	792976.8
24	0x48074738	138524.88
25	0x45e692cd	7378.35
26	0xc8a7980a	-343232.3
27	0x47791399	63763.598
28	0xc738d99c	-47321.61
29	0xc8335f69	-183677.64
30	0x480c303e	143552.97
31	0xc6e36351	-29105.658
32	0x492db9b1	711579.06
33	0x4897e643	311090.1
34	0x45f4b514	7830.635
35	0xc8ca36e3	-414135.1
36	0x4925a679	678503.56
37	0x479a85a0	79115.25
38	0x485bd44e	225105.22
39	0x491c182e	639362.9
40	0xc7e4009f	-116737.24
41	0x48a1e13e	331529.94
42	0x47cc0ac3	104469.52
43	0xc7ba6c98	-95449.19
44	0xc83befec	-192447.69
45	0x48d64938	438857.75
46	0xc77a12c2	-64018.758
47	0xc8605b71	-229741.77
48	0x47eb67d3	120527.65
49	0x458465d3	4236.728
50	0xc8d00e70	-426099.5
51	0x478e854e	72970.61
52	0xc6904e74	-18471.227
53	0xc865d8df	-235363.48
54	0x48643b92	233710.28
55	0xc69230a4	-18712.32
56	0x496f84e5	981070.3
57	0x491ed4a9	650570.56
58	0xc647507f	-12756.124
59	0x49a5acee	1.3572138e+06
60	0x47b9f832	95216.39
61	0xc5f144db	-7720.607
62	0xc89afd8b	-317420.34
63	0x483d8828	194080.62
64	0x438a9135	277.13443
65	0xc8e0fd06	-460776.2
66	0x482b78c0	175587.0
67	0xc6b4fd86	-23166.762
68	0x495903e4	888894.25
69	0x48223d52	166133.28
70	0xc68da035	-18128.104
71	0x495396d9	866669.56

exp_avg_sq f4 [24, 3]
0	0x51375b34	4.921932e+10
1	0x4f571ab9	3.6088527e+09
2	0x51cee6b4	1.1107923e+11
3	0x51dc9f3f	1.1844556e+11
4	0x509862dd	2.0452927e+10
5	0x52892792	2.945372e+11
6	0x522075ce	1.722928e+11
7	0x5037508b	1.2302036e+10
8	0x5251f518	2.2544004e+11
9	0x50ca93e7	2.7189524e+10
10	0x4f8d73d1	4.746355e+09
11	0x522942c2	1.8174237e+11
12	0x5206a2cf	1.4456427e+11
13	0x5047a600	1.339818e+10
14	0x51cdecaf	1.105549e+11
15	0x52110a14	1.5573484e+11
16	0x502cd52f	1.1598609e+10
17	0x51f7bb1a	1.32999496e+11
18	0x52bd95d1	4.0713116e+11
19	0x5006cf46	9.046923e+09
20	0x52a0c3fc	3.4524142e+11
21	0x50bf65c6	2.5688945e+10
22	0x4f175693	2.5390333e+09
23	0x523398b6	1.928403e+11
24	0x51467ddb	5.328219e+10
25	0x4dfa5c10	5.2504218e+08
26	0x524ff91c	2.233094e+11
27	0x5045ea43	1.3281857e+10
28	0x4f54f920	3.5730964e+09
29	0x51857e65	7.16689e+10
30	0x4fc1f104	6.507596e+09
31	0x4e2bc5ff	7.2046995e+08
32	0x522ffa8d	1.889557e+11
33	0x52669503	2.4758562e+11
34	0x4ecbf60a	1.7109496e+09
35	0x52bc37fe	4.0419662e+11
36	0x5312bbf7	6.3021875e+11
37	0x5010d9d9	9.720784e+09
38	0x52cb343f	4.3637745e+11
39	0x531a02d9	6.6147274e+11
40	0x504e353d	1.3838382e+10
41	0x52e2e84f	4.8728005e+11
42	0x514642cb	5.3220258e+10
43	0x501ff7d3	1.0735275e+10
44	0x522338d1	1.7525822e+11
45	0x52ac634f	3.7020025e+11
46	0x4fd68bd1	7.1989745e+09
47	0x52add6ad	3.733155e+11
48	0x5109bf0c	3.6975985e+10
49	0x4e3d9108	7.9509965e+08
50	0x52aaae35	3.6653357e+11
51	0x505626a9	1.4371431e+10
52	0x4e60f4da	9.4353574e+08
53	0x51c4fec9	1.0576102e+11
54	0x511c96fd	4.2034254e+10
55	0x4e845f87	1.1104265e+09
56	0x52b0352f	3.7840326e+11
57	0x52c2dff3	4.1849045e+11
58	0x4fe66896	7.7312276e+09
59	0x534e74fe	8.8672607e+11
60	0x50bc254a	2.5252483e+10
61	0x4dd91a56	4.5529773e+08
62	0x523515e9	1.9443917e+11
63	0x51d3da8a	1.1373807e+11
64	0x4e8c9399	1.1792416e+09
65	0x52cd7c94	4.412792e+11
66	0x5093fc20	1.9862192e+10
67	0x4ec09b01	1.6156919e+09
68	0x527fc4e9	2.7463007e+11
69	0x505e5393	1.4920076e+10
70	0x4e0c5e83	5.8875104e+08
71	0x529a49c7	3.3133137e+11

exp_avg f4 [24]
0	0xc84f96a7	-212570.61
1	0xc904288b	-541320.7
2	0xc8cab8df	-415174.97
3	0xc8322a1c	-182440.44
4	0xc8de14e9	-454823.28
5	0xc8ea5d54	-479978.62
6	0xc94a8321	-829490.06
7	0xc89bd3f0	-319135.5
8	0xc86ae4f1	-240531.77
9	0xc7fc7d8e	-129275.11
10	0xc856c427	-219920.61
11	0xc8dbd7cd	-450238.4
12	0xc95b4056	-898053.4
13	0xc96f9b5d	-981429.8
14	0xc892b838	-300481.75
15	0xc919bab2	-629675.1
16	0xc8403e0e	-196856.22
17	0xc7f1ca50	-123796.625
18	0xc8c8947a	-410787.8
19	0xc967c009	-949248.56
20	0xc822368c	-166106.19
21	0xc8b7d03f	-376449.97
22	0xc8a6d131	-341641.53
23	0xc8950e93	-305268.6

exp_avg_sq f4 [24]
0	0x5193dc23	7.9381684e+10
1	0x52248d81	1.7668717e+11
2	0x527187ee	2.5934191e+11
3	0x514acb15	5.443691e+10
4	0x525135ed	2.2463822e+11
5	0x52674fa7	2.4836845e+11
6	0x5311414a	6.238656e+11
7	0x5121e3a2	4.34568e+10
8	0x51a779d3	8.991293e+10
9	0x50c946da	2.701491e+10
10	0x502d599e	1.1633326e+10
11	0x52a621cf	3.567659e+11
12	0x535401ce	9.1056334e+11
13	0x536a7ee6	1.00715135e+12
14	0x51c83d88	1.0750322e+11
15	0x53037b34	5.647077e+11
16	0x5178ab17	6.6751394e+10
17	0x50c4ce50	2.6414842e+10
18	0x518a03f0	7.409644e+10
19	0x5318e988	6.5675303e+11
20	0x512ceeb4	4.6421197e+10
21	0x5235d0d6	1.9522319e+11
22	0x51108182	3.8790504e+10
23	0x50e659e4	3.0917206e+10

exp_avg f4 [36, 24]
0	0xc587110f	-4322.1323
1	0xc701d583	-33237.51
2	0xc5e07068	-7182.051
3	0xc4a81637	-1344.6942
4	0xc65c900d	-14116.013
5	0xc64c2de3	-13067.472
6	0xc7652f72	-58671.445
7	0xc79a718f	-79075.12
8	0xc4de8bf9	-1780.3741
9	0xc498195d	-1216.7926
10	0xc6e3892a	-29124.582
11	0xc60a73b0	-8860.922
12	0xc6e31da1	-29070.814
13	0xc6fe61f0	-32560.969
14	0xc5c6cecb	-6361.849
15	0xc69781b2	-19392.848
16	0xc28ba9d1	-69.83167
17	0xc3a1300f	-322.37546
18	0xc81a89b6	-158246.84
19	0xc7446dd9	-50285.848
20	0xc2babb05	-93.36527
21	0xc541090a	-3088.565
22	0xc80ca5e6	-144023.6
23	0xc7bd55e8	-96939.81
24	0x44d4915d	1700.5426
25	0xc654777b	-13597.87
26	0x447923cc	996.5593
27	0x4408e361	547.5528
28	0xc43fe955	-767.6458
29	0xc4317410	-709.8135
30	0xc64a356a	-12941.354
31	0xc6ff9794	-32715.79
32	0x449f5903	1274.7816
33	0x438b08bf	278.06833
34	0xc6641c38	-14599.055
35	0x45129dc7	2345.861
36	0xc5c4ba6c	-6295.3027
37	0xc597c2f0	-4856.367
38	0xc481f607	-1039.6884
39	0x44ada08c	1389.0171
40	0x4419f8e5	615.889
41	0x443ec55c	763.08374
42	0xc77f19d8	-65305.844
43	0xc6951bd0	-19085.906
44	0x4452444a	841.067
45	0x43ff2d92	510.35602
46	0xc76ef526	-61173.15
47	0xc72936bc	-43318.734
48	0x4449bd1b	806.9548
49	0x41a6b786	20.839611
50	0x43912991	290.32474
51	0x43df6f42	446.8692
52	0x4399c38d	307.52774
53	0x43481002	200.06253
54	0x441e3401	632.81256
55	0x4159a88e	13.603651
56	0x4483e6fd	1055.2184
57	0x43767a82	246.47855
58	0x400528d3	2.0806167
59	0x44860b5b	1072.3549
60	0x43d65dbd	428.73233
61	0x43d08bfa	417.09357
62	0x41b0d01d	22.101618
63	0x44572a02	860.6564
64	0x444b3454	812.8176
65	0x443f0a74	764.1633
66	0x42a24850	81.141235
67	0x42714933	60.321484
68	0x44788f76	994.2416
69	0x44280b52	672.1769
70	0x42ef81c9	119.75349
71	0x421e9d43	39.653576
72	0x00000000	0.0
73	0x43da8f80	437.1211
74	0x00000000	0.0
75	0x00000000	0.0
76	0x409e0219	4.937756
77	0x00000000	0.0
78	0x4471ec97	967.6967
79	0x4520521a	2565.1313
80	0x00000000	0.0
81	0x00000000	0.0
82	0x43b8b602	369.42194
83	0x42072d3c	33.794174
84	0x4457ae95	862.72784
85	0x43b06d2e	352.85297
86	0x00000000	0.0
87	0x42b3ddf1	89.93348
88	0x00000000	0.0
89	0x00000000	0.0
90	0x45ce2820	6597.0156
91	0x44d37c8f	1691.8925
92	0x00000000	0.0
93	0xc093a706	-4.6141386
94	0x45aa91ea	5458.2393
95	0x45589660	3465.3984
96	0xc7fc0678	-129036.94
97	0xc7b9dce6	-95161.8
98	0xc7dc787a	-112880.95
99	0xc7920ff3	-74783.9
100	0xc8028531	-133652.77
101	0xc800d170	-131909.75
102	0xc89ee3ee	-325407.44
103	0xc83ac289	-191242.14
104	0xc8001bea	-131183.66
105	0xc735fe6a	-46590.414
106	0xc7648bad	-58507.676
107	0xc837c2a0	-188170.5
108	0xc828272c	-172188.69
109	0xc85fb3e3	-229071.55
110	0xc77bc3fd	-64451.99
111	0xc86fdf5d	-245629.45
112	0xc78d2639	-72268.445
113	0xc79bb0c6	-79713.55
114	0xc8b4f501	-370600.03
115	0xc8197dd5	-157175.33
116	0xc7a9d079	-86944.945
117	0xc7da8475	-111880.914
118	0xc8a1c9b6	-331341.7
119	0xc85256b3	-215386.8
120	0x41f40861	30.504091
121	0xc6c9a738	-25811.61
122	0xc3c01b1d	-384.21182
123	0x40fc629e	7.887038
124	0xc57bad52	-4026.8325
125	0xc54f9cd0	-3321.8008
126	0xc6f1bff6	-30943.98
127	0xc7884e21	-69788.26
128	0xc2812d22	-64.58815
129	0xc19f537d	-19.915766
130	0xc6dfb9f2	-28636.973
131	0xc2869f75	-67.31144
132	0xc65d83d2	-14176.955
133	0xc652306f	-13452.108
134	0xc50b21fe	-2226.1245
135	0xc5362c30	-2914.7617
136	0x3f6ac39c	0.91704726
137	0x40a2c4c1	5.086518
138	0xc80ba838	-143008.88
139	0xc7116202	-37218.008
140	0x40648e7b	3.5711963
141	0xc3d9688d	-434.8168
142	0xc8053f69	-136445.64
143	0xc7b77a9f	-93941.24
144	0x42fc874f	126.264275
145	0xbf12453a	-0.5713688
146	0x4239aacc	46.416794
147	0x429284e7	73.259575
148	0x424675fd	49.615223
149	0x41e859b7	29.043806
150	0x42bd0155	94.5026
151	0xbe2f9751	-0.17147566
152	0x430c4b00	140.29297
153	0x422b3651	42.803043
154	0x00000000	0.0
155	0x43116fb7	145.43639
156	0x424d7c54	51.371414
157	0x426ff902	59.99317
158	0x40094e1b	2.1453922
159	0x42f1b52c	120.85385
160	0x42e35654	113.66861
161	0x42eaec59	117.46162
162	0x00000000	0.0
163	0x40b8e159	5.7775083
164	0x4307ca7c	135.79095
165	0x42a81c37	84.05511
166	0xc0384b9d	-2.879615
167	0x00000000	0.0
168	0xc8041bcf	-135279.23
169	0xc7c24daf	-99483.37
170	0xc7e6e342	-118214.516
171	0xc799275c	-78414.72
172	0xc808c9de	-140071.47
173	0xc806efae	-138174.72
174	0xc8a662db	-340758.84
175	0xc8437477	-200145.86
176	0xc806604f	-137601.23
177	0xc73ea467	-48804.402
178	0xc76cdd4b	-60637.293
179	0xc8409899	-197218.39
180	0xc82f9e78	-179833.88
181	0xc86a31cb	-239815.17
182	0xc783b19f	-67427.24
183	0xc87b39dd	-257255.45
184	0xc7943009	-75872.07
185	0xc7a36916	-83666.17
186	0xc8bd54c4	-387750.12
187	0xc81fe6de	-163739.47
188	0xc7b240c8	-91265.56
189	0xc7e4fcc7	-117241.555
190	0xc8a993d9	-347294.78
191	0xc85b82a7	-224778.61
192	0x4184740d	16.556665
193	0x42af075f	87.5144
194	0x41d52015	26.640665
195	0x41a657e0	20.792908
196	0x4277bfe6	61.9374
197	0x425cb191	55.173405
198	0x42ea7b21	117.240486
199	0x434546a4	197.27594
200	0xbeb157b7	-0.34637234
201	0x41766f6f	15.402205
202	0x41811fea	16.140583
203	0x40569921	3.3530962
204	0x4159ec67	13.620215
205	0x42883095	68.09489
206	0x41b0362b	22.02645
207	0x426240ed	56.563404
208	0x00000000	0.0
209	0x3f2ec388	0.68267107
210	0x43f41f89	488.24637
211	0x429e3fc9	79.12458
212	0xbdaf9ade	-0.085744604
213	0x40856d6b	4.1696067
214	0x44030a14	524.1575
215	0x4372d628	242.83655
216	0xc772898d	-62089.55
217	0xc73b8176	-48001.46
218	0xc7556a32	-54634.195
219	0xc70c7e73	-35966.45
220	0xc77c4f07	-64591.027
221	0xc77d521e	-64850.117
222	0xc81430d4	-151747.31
223	0xc7911ca1	-74297.26
224	0xc7763906	-63033.023
225	0xc6b2fe91	-22911.283
226	0xc6ce9683	-26443.256
227	0xc7b0d3da	-90535.7
228	0xc7a509ab	-84499.336
229	0xc7d54243	-109188.52
230	0xc7037527	-33653.152
231	0xc7e517db	-117295.71
232	0xc704b0b5	-33968.707
233	0xc712f425	-37620.145
234	0xc8045e78	-135545.88
235	0xc7953d0d	-76410.1
236	0xc71ffc5a	-40956.35
237	0xc7573f3c	-55103.234
238	0xc7eeba53	-122228.65
239	0xc79a3aa8	-78965.31
240	0xc845f319	-202700.39
241	0xc804c64b	-135961.17
242	0xc82ad47c	-174929.94
243	0xc7e629a2	-117843.266
244	0xc8485bd6	-205167.34
245	0xc84588e8	-202275.62
246	0xc8f07254	-492434.62
247	0xc884f373	-272283.6
248	0xc84a4c16	-207152.34
249	0xc78e3607	-72812.055
250	0xc79b6e7a	-79580.95
251	0xc88fc7fb	-294463.84
252	0xc87d8d5f	-259637.48
253	0xc8aa7c48	-349154.25
254	0xc7bf1e99	-97853.195
255	0xc8ba1279	-381075.78

exp_avg_sq f4 [36, 24]
0	0x4c5bade1	5.7587588e+07
1	0x4d9d2436	3.295495e+08
2	0x4cfeb502	1.3353986e+08
3	0x4a885e51	4.4685205e+06
4	0x4d83cf5e	2.7642566e+08
5	0x4d5278ff	2.2069656e+08
6	0x4f493f55	3.376371e+09
7	0x4f0b8693	2.3408525e+09
8	0x4b2d431a	1.1354906e+07
9	0x4a4af996	3.3255415e+06
10	0x4d3ec848	2.000498e+08
11	0x4d721441	2.5383835e+08
12	0x4e4c9c40	8.58198e+08
13	0x4e9c5825	1.3115112e+09
14	0x4c024c37	3.4156764e+07
15	0x4e3c52f2	7.898881e+08
16	0x4704bd54	33981.33
17	0x48db6491	449316.53
18	0x50292e5c	1.1353551e+10
19	0x4e8728d7	1.1338003e+09
20	0x47641ba5	58395.645
21	0x4b5ed45c	1.4603356e+07
22	0x502c6b60	1.1570872e+10
23	0x4f75e1f1	4.1252252e+09
24	0x4d178361	1.588731e+08
25	0x4b52010a	1.3762826e+07
26	0x4c49c491	5.2892228e+07
27	0x4bbe030d	2.4905242e+07
28	0x4c8122dc	6.770454e+07
29	0x4c1b6a0d	4.0740916e+07
30	0x4df02bc8	5.0367514e+08
31	0x4d47fc55	2.0970018e+08
32	0x4ce140b2	1.180973e+08
33	0x4b0396c0	8.623808e+06
34	0x4bce85ef	2.7069406e+07
35	0x4d8ffde4	3.019726e+08
36	0x4cf5e323	1.28915736e+08
37	0x4d59c2fd	2.2833966e+08
38	0x4a594cb3	3.5602368e+06
39	0x4dbd3a26	3.9683808e+08
40	0x4c443cb2	5.1442376e+07
41	0x4c6158bf	5.9073276e+07
42	0x4e785d10	1.0417121e+09
43	0x4c61a69a	5.9153e+07
44	0x4c946999	7.781089e+07
45	0x4c23009b	4.2730092e+07
46	0x4e8ae966	1.1652759e+09
47	0x4dda6bfd	4.5806378e+08
48	0x4d5d6e40	2.3218688e+08
49	0x476eb5b2	61109.695
50	0x4be54bec	3.005436e+07
51	0x4c87cf43	7.120335e+07
52	0x4c00a33d	3.3721588e+07
53	0x4b510aeb	1.3699819e+07
54	0x4d082c2f	1.4278731e+08
55	0x484ea436	211600.84
56	0x4dbd51ac	3.970308e+08
57	0x4ba54480	2.1661952e+07
58	0x440739f1	540.90533
59	0x4dc3849c	4.1003098e+08
60	0x4c7a04b9	6.5540836e+07
61	0x4c6ca0cb	6.2030636e+07
62	0x47c350e8	100001.81
63	0x4d7be20d	2.6411848e+08
64	0x4d60a8f9	2.3557314e+08
65	0x4d4691b8	2.0821491e+08
66	0x4948d836	822659.4
67	0x498ec201	1.1694721e+06
68	0x4da81230	3.5247053e+08
69	0x4d19a409	1.6110402e+08
70	0x49dabcce	1.7918978e+06
71	0x483fde19	196472.39
72	0x00000000	0.0
73	0x4ab39254	5.884202e+06
74	0x00000000	0.0
75	0x00000000	0.0
76	0x44857206	1067.5632
77	0x00000000	0.0
78	0x4bf3232d	3.1868506e+07
79	0x4cf5261b	1.285286e+08
80	0x00000000	0.0
81	0x00000000	0.0
82	0x4a27d6c1	2.7498722e+06
83	0x46c0e79d	24691.807
84	0x4ba92af3	2.2173158e+07
85	0x4a7e73af	4.1689398e+06
86	0x00000000	0.0
87	0x48708d53	246325.3
88	0x00000000	0.0
89	0x00000000	0.0
90	0x4e4b4f4a	8.527428e+08
91	0x4c66f917	6.0548188e+07
92	0x00000000	0.0
93	0x450bc45c	2236.2725
94	0x4e0ce430	5.909412e+08
95	0x4d53bc88	2.2202176e+08
96	0x50e32441	3.0486432e+10
97	0x4fa755aa	5.6148183e+09
98	0x50a903f3	2.2684867e+10
99	0x503428ed	1.2090324e+10
100	0x50cc65f9	2.743388e+10
101	0x50c13e14	2.5936568e+10
102	0x520bd122	1.5012728e+11
103	0x509a5017	2.071152e+10
104	0x50fe971f	3.4170534e+10
105	0x4f89ac95	4.619578e+09
106	0x4ea51c66	1.3850509e+09
107	0x51712c65	6.4739496e+10
108	0x51237080	4.3872944e+10
109	0x5194741a	7.970038e+10
110	0x4fbb055e	6.2753823e+09
111	0x51c201b6	1.04156545e+11
112	0x50390293	1.2415815e+10
113	0x5056aa19	1.4405887e+10
114	0x51a37bb4	8.776938e+10
115	0x50a0cb3e	2.1581394e+10
116	0x508231f6	1.7474499e+10
117	0x50abc500	2.3054516e+10
118	0x51a57e83	8.8849015e+10
119	0x50e45fd4	3.0651884e+10
120	0x47e83d52	118906.64
121	0x4cd7887d	1.1300145e+08
122	0x493f0eef	782574.94
123	0x45cff1ef	6654.2417
124	0x4ad3ad62	6.936241e+06
125	0x4a716e8a	3.9556185e+06
126	0x4dc0db74	4.0445094e+08
127	0x4edf38f9	1.8725265e+09
128	0x46f1a36f	30929.717
129	0x458b3e08	4455.754
130	0x4d6ace15	2.462109e+08
131	0x480daa78	145065.88
132	0x4c539c39	5.5472356e+07
133	0x4c9d61c9	8.251348e+07
134	0x4a6030ba	3.6731345e+06
135	0x4aadaa18	5.690636e+06
136	0x43f590ae	491.1303
137	0x45519ceb	3353.8074
138	0x501da55f	1.0579443e+10
139	0x4d944529	3.1094506e+08
140	0x452e3a2a	2787.6353
141	0x481c5986	160102.1
142	0x503e97aa	1.2790442e+10
143	0x4f8e2a1e	4.7702497e+09
144	0x4aad7afb	5.6846055e+06
145	0x42e8cf76	116.4052
146	0x493b8e30	768227.0
147	0x49e99a58	1.913675e+06
148	0x49564b31	877747.06
149	0x4892dd4a	300778.3
150	0x4a425c28	3.184394e+06
151	0x4127c02c	10.484417
152	0x4ad62bdf	7.0179675e+06
153	0x491f7cff	653263.94
154	0x00000000	0.0
155	0x4ae629bf	7.5419835e+06
156	0x4965bb83	940984.2
157	0x499ca877	1.2833429e+06
158	0x44cd2557	1641.1669
159	0x4a9eee81	5.2078725e+06
160	0x4a8c9861	4.6070245e+06
161	0x4a962281	4.9196165e+06
162	0x00000000	0.0
163	0x4639f813	11902.019
164	0x4ac8a56d	6.5747745e+06
165	0x4a19c2f4	2.519229e+06
166	0x4538cb4d	2956.7063
167	0x00000000	0.0
168	0x50fac45a	3.3657377e+10
169	0x4fb87396	6.1891656e+09
170	0x50b9d143	2.4939993e+10
171	0x50476655	1.338149e+10
172	0x50e15ba0	3.0247027e+10
173	0x50d4f04d	2.8580145e+10
174	0x521a29a0	1.6553083e+11
175	0x50aa5629	2.2862186e+10
176	0x510ce921	3.7825417e+10
177	0x4f97eb60	5.0975703e+09
178	0x4eb286c1	1.4975878e+09
179	0x5184fa55	7.1391945e+10
180	0x513325cd	4.8089584e+10
181	0x51a36041	8.771182e+10
182	0x4fcdf602	6.9109033e+09
183	0x51d5949e	1.1466518e+11
184	0x504d59e5	1.3780882e+10
185	0x506e2f8d	1.5984375e+10
186	0x51b38cfd	9.639557e+10
187	0x50b00e09	2.3629679e+10
188	0x50907141	1.938673e+10
189	0x50bdba82	2.5464934e+10
190	0x51b56c09	9.74002e+10
191	0x50f9403c	3.3453892e+10
192	0x464889d2	12834.455
193	0x4830f84e	181217.22
194	0x46fdeac6	32501.387
195	0x46d5cfc4	27367.883
196	0x480abe3e	142072.97
197	0x47d9d910	111538.125
198	0x48d02d39	426345.78
199	0x49915474	1.1905425e+06
200	0x43915fbd	290.74796
201	0x46887b12	17469.535
202	0x46e15abf	28845.373
203	0x450e1588	2273.3457
204	0x461ed863	10166.097
205	0x481d3f0a	161020.16
206	0x46c02507	24594.514
207	0x4806097f	137253.98
208	0x00000000	0.0
209	0x4302a529	130.64516
210	0x4b04e3e1	8.709089e+06
211	0x4891ff80	299004.0
212	0x403d6f03	2.9599006
213	0x46db8a3b	28101.115
214	0x4b06c4cb	8.832203e+06
215	0x4a07d1c1	2.2252642e+06
216	0x4fcf7cf6	6.9621463e+09
217	0x4e6202cc	9.479585e+08
218	0x4f9e33ef	5.3084073e+09
219	0x4f1bf92a	2.6167977e+09
220	0x4fb8b797	6.198079e+09
221	0x4fb5698d	6.087187e+09
222	0x50ce46be	2.7685941e+10
223	0x4e84df3e	1.1146115e+09
224	0x4fdf0309	7.483036e+09
225	0x4e7ee209	1.0690566e+09
226	0x4c1bd4d2	4.085025e+07
227	0x505a9da2	1.4671055e+10
228	0x5007a742	9.103542e+09
229	0x50732d04	1.6319255e+10
230	0x4ec1af69	1.6247492e+09
231	0x50a95bc8	2.2730916e+10
232	0x4f17c70f	2.546405e+09
233	0x4f312b4e	2.9724052e+09
234	0x4f4a25a2	3.391464e+09
235	0x4f52cd35	3.5366638e+09
236	0x4f57dfc9	3.6217674e+09
237	0x4f9eacfb	5.324273e+09
238	0x4f2eec19	2.9347085e+09
239	0x4e1f149a	6.672319e+08
240	0x51932597	7.8998856e+10
241	0x5038dede	1.2406454e+10
242	0x5150bda3	5.6033423e+10
243	0x50ef2a30	3.2100155e+10
244	0x5179b8ff	6.703441e+10
245	0x516c309e	6.3401746e+10
246	0x52a8e9e9	3.6273943e+11
247	0x51284556	4.516986e+10
248	0x51a92dca	9.082721e+10
249	0x5031c98a	1.1931101e+10
250	0x4f29c9dd	2.8485788e+09
251	0x5219dae0	1.6520053e+11
252	0x51c3aa2f	1.0504673e+11
253	0x523436a5	1.9350272e+11
254	0x5062979b	1.5206346e+10
255	0x5272be60	2.6064401e+11

exp_avg f4 [36]
0	0xc7cbaa2d	-104276.35
1	0xc70147d8	-33095.844
2	0x43a91fb5	338.2477
3	0x456f7eb1	3831.9182
4	0xc8b2f60c	-366512.38
5	0xc795326e	-76388.86
6	0x41d03033	26.023535
7	0xc8bb5393	-383644.6
8	0x43878232	271.01715
9	0xc8181b4a	-155757.16
10	0xc903fe73	-540647.2
11	0x4623c740	10481.8125
12	0x438bb624	279.42297
13	0xc7a82e4e	-86108.61
14	0x44e01369	1792.6066
15	0x454ad7d6	3245.4897
16	0xc88b1729	-284857.28
17	0x00000000	0.0
18	0xc8872348	-276762.25
19	0xc8d0ea8f	-427860.47
20	0xc8efe689	-491316.28
21	0xc908eba5	-560826.3
22	0x00000000	0.0
23	0x00000000	0.0
24	0x46a881b9	21568.861
25	0xc8dc60b3	-451333.6
26	0x46000251	8192.579
27	0x4605c302	8560.752
28	0xc902fc9a	-536521.6
29	0x3ebb12a7	0.36537668
30	0xc79d75fd	-80619.98
31	0x41f6d01b	30.851614
32	0xc90a223a	-565795.6
33	0xc87123e9	-246927.64
34	0x46c1b29f	24793.31
35	0x44fa3296	2001.5808

exp_avg_sq f4 [36]
0	0x4fbdad81	6.364529e+09
1	0x4dfa9d85	5.255784e+08
2	0x4bf0b916	3.1552044e+07
3	0x4d84e626	2.7870944e+08
4	0x51df9196	1.2002753e+11
5	0x4f21d1ca	2.7148805e+09
6	0x486bd0bb	241474.92
7	0x51f6d608	1.325191e+11
8	0x49dd20fc	1.8114875e+06
9	0x506af788	1.5768363e+10
10	0x5281a8eb	2.7844238e+11
11	0x4d97f42f	3.186703e+08
12	0x4b96dfd0	1.9775392e+07
13	0x4f97c9c7	5.0931666e+09
14	0x4d7de711	2.6623618e+08
15	0x4d229797	1.7049022e+08
16	0x517fd53b	6.867463e+10
17	0x00000000	0.0
18	0x516ed775	6.411356e+10
19	0x521f555a	1.7108294e+11
20	0x5252ee70	2.2648586e+11
21	0x528c1746	3.0084294e+11
22	0x00000000	0.0
23	0x00000000	0.0
24	0x4ea46184	1.3789271e+09
25	0x5231647b	1.9047375e+11
26	0x4e9f5d3e	1.336844e+09
27	0x4d8a41c6	2.899458e+08
28	0x527f9105	2.7441242e+11
29	0x423e6800	47.601562
30	0x4f3f696b	3.211357e+09
31	0x47f4d156	125346.67
32	0x528ebf50	3.0654752e+11
33	0x5138f66a	4.9650508e+10
34	0x4edcbb2c	1.851627e+09
35	0x4c7d0083	6.6322956e+07

exp_avg f4 [1, 36]
0	0x4980bc62	1.0546042e+06
1	0x48815370	264859.5
2	0x43e0c1e8	449.5149
3	0x44e5caf0	1838.3418
4	0x4a2a0744	2.785745e+06
5	0x48a4b625	337329.16
6	0x4320b254	160.6966
7	0x4a4170ac	3.169323e+06
8	0xc20291b3	-32.642284
9	0x49767286	1.0094484e+06
10	0x4a23e1db	2.6850468e+06
11	0x475823bb	55331.73
12	0x42873153	67.59634
13	0x48da59fe	447183.94
14	0x440efd30	571.95605
15	0x47c7743d	102120.48
16	0x4a350550	2.965844e+06
17	0x00000000	0.0
18	0x4a38464c	3.019155e+06
19	0x49dcbc18	1.808259e+06
20	0x4a6f32c2	3.9190245e+06
21	0x4a48b39a	3.2882945e+06
22	0x00000000	0.0
23	0x00000000	0.0
24	0x47629604	58006.016
25	0x4a19516c	2.511963e+06
26	0x46861ff8	17167.984
27	0x4663a93a	14570.307
28	0x4a670352	3.7849165e+06
29	0x420bc102	34.938484
30	0x498f7467	1.1751809e+06
31	0xc2d62767	-107.07696
32	0x4a5b4942	3.5927845e+06
33	0x4a3c7a89	3.0880342e+06
34	0x475d40d9	56640.848
35	0x4593c6a8	4728.832

exp_avg_sq f4 [1, 36]
0	0x53026337	5.600103e+11
1	0x508c98ea	1.8870653e+10
2	0x4c8aacce	7.270565e+07
3	0x4cd57d09	1.11929416e+08
4	0x55072af4	9.28866e+12
5	0x50f783d8	3.3220903e+10
6	0x4b0c7fb1	9.207729e+06
7	0x55289113	1.1583815e+13
8	0x4bb82f55	2.4141482e+07
9	0x5382616b	1.1199603e+12
10	0x54edf5f1	8.1762677e+12
11	0x5020bb08	1.0786447e+10
12	0x4a351c36	2.9673095e+06
13	0x51d835a4	1.1607661e+11
14	0x4c17f62e	3.983583e+07
15	0x50d06565	2.7970447e+10
16	0x550c353a	9.635015e+12
17	0x00000000	0.0
18	0x55016eae	8.894523e+12
19	0x543c5de1	3.2361155e+12
20	0x557a2b8f	1.7191562e+13
21	0x5523371e	1.121607e+13
22	0x00000000	0.0
23	0x00000000	0.0
24	0x503278fe	1.1977095e+10
25	0x54bbed34	6.457108e+12
26	0x4ff75880	8.2995446e+09
27	0x4ee24f6e	1.8984282e+09
28	0x55848b40	1.8216701e+13
29	0x48d48754	435258.62
30	0x533c4353	8.0858336e+11
31	0x4a2fef02	2.8824965e+06
32	0x55553a2b	1.4652863e+13
33	0x54f348da	8.3591944e+12
34	0x503909b2	1.2417681e+10
35	0x4e09eea2	5.785294e+08
