data/policies/Pendulum-v0#default_team_-1382.970033413695#squashedGaussian#200#-1382.970033413695.pt (torch, 21703 bytes, 18 tensors)

weight f4 [24, 3]
-0.3388171 -0.3817531 0.48467574 -0.25650775 0.17038721 0.3111647 -0.025146686 -0.6665109
0.5304447 0.11451366 -0.31627637 0.03182654 -0.38764265 0.34817532 -0.27431968 0.519441
0.042252667 -0.16297506 -0.43422753 0.05272344 -0.16288705 0.23447649 0.6864405 0.20141076
-0.48632666 -0.34226692 0.31922784 0.4270109 0.44286448 -0.5003433 -0.16281357 0.36067128
0.40459952 0.31367514 -0.5319837 -0.506103 -0.19991948 0.08561891 -0.7117742 0.5353745
0.4096971 -0.30361938 -0.6332285 0.618425 -0.15210512 0.15910037 0.09675038 0.6614339
-0.2425833 0.50767636 -0.31995794 0.082495145 0.39587733 -0.49127474 -0.030192314 0.7022021
0.24042 -0.038389735 -0.53214175 0.5743496 -0.44620672 -0.17146689 -0.57251555 -0.5007559
-0.18020695 0.576896 0.029922402 -0.06235783 -0.43560693 -0.6402175 0.5242182 -0.28202888
00000000: 6f79 adbe 2475 c3be 6b27 f83e fc54 83be
00000010: fc79 2e3e fb50 9f3e 6c00 cebc 75a0 2abf
00000020: 39cb 073f 2386 ea3d faee a1be 8c5c 023d
00000030: 1979 c6be 0944 b23e a173 8cbe 16fa 043f
00000040: 2211 2d3d efe2 26be 1253 debe 89f4 573d
00000050: ddcb 26be 9b1a 703e 91ba 2f3f 9f3e 4e3e
00000060: cfff f8be 9c3d afbe d571 a33e 2ca1 da3e
00000070: 22bf e23e 8016 00bf 9ab8 26be e8a9 b83e
00000080: ab27 cf3e 079a a03e 1530 08bf f78f 01bf
00000090: b1b7 4cbe f858 af3d d536 36bf 4e0e 093f
000000a0: d1c3 d13e 0074 9bbe 431b 22bf 1a51 1e3f
000000b0: 72c1 1bbe 35eb 223e 1025 c63d bb53 293f
000000c0: c267 78be 14f7 013f 87d1 a3be 37f3 a83d
000000d0: 6fb0 ca3e 5d88 fbbe df55 f7bc 84c3 333f
000000e0: a930 763e 8e3e 1dbd 713a 08bf 9308 133f
000000f0: 3575 e4be 0495 2fbe 6190 12bf 8a31 00bf
00000100: 2c88 38be 75af 133f d31f f53c ed6a 7fbd
00000110: df07 dfbe 4be5 23bf 2a33 063f 1766 90be

bias f4 [24]
0.5328477 0.30592772 0.06634106 0.30321357 -0.62872237 0.31846124 -0.021558952 0.42644212
0.17451634 0.30563068 0.27630702 0.018336564 -0.18898973 0.096145295 0.52457374 0.127011
0.11451077 0.61029166 -0.016661154 -0.4055698 -0.122774616 0.11409439 0.42796126 -0.27728623
00000000: b568 083f 8fa2 9c3e d2dd 873d cf3e 9b3e
00000010: f3f3 20bf 5a0d a33e 669c b0bc 9f56 da3e
00000020: 69b4 323e a07b 9c3e 1d78 8d3e 9036 963c
00000030: 8686 41be d3e7 c43d 774a 063f 2c0f 023e
00000040: 9f84 ea3d 133c 1c3f f97c 88bc d8a6 cfbe
00000050: 4271 fbbd 52aa e93d bd1d db3e 76f8 8dbe

weight f4 [36, 24]
0.078467585 -0.178397 -0.22360739 0.092051834 -0.1661872 0.03520772 0.13158646 0.08164319
-0.13373856 0.13421324 -0.095146604 0.0610087 -0.21781646 0.069597155 0.09794397 -0.102632895
0.08459846 -0.24749626 -0.2429446 -0.050229006 -0.034984645 -0.13588019 -0.06557369 -0.108289786
0.2217035 0.020791616 0.21543717 0.10923408 -0.0028493432 0.1253472 0.11395924 0.067682065
0.27016997 0.20962447 0.1221372 0.04043256 -0.0572976 0.023623021 -0.0614552 0.039469663
-0.1546781 -0.057057276 -0.025313593 -0.01752241 -0.05725666 0.050016038 0.22518316 0.24138202
0.13283446 0.05468221 0.34155342 0.33076656 0.16360235 0.35699546 0.25139993 0.2234784
-0.047916554 0.29272583 0.2222004 0.25523755 0.21851316 0.10709361 -0.061952 -0.018998168
0.005122467 0.37059835 0.25994268 0.30820176 0.07567579 0.31982595 0.23323703 0.06709515
-0.020407526 0.079629935 0.22429568 0.01599595 0.17710085 0.23471437 0.07997945 0.16054232
0.18572769 0.3124558 0.289466 0.16826224 0.14143433 0.312191 0.25825956 0.10241218
0.056888103 0.21267866 0.33048746 -0.0057196757 0.07258464 0.26440215 0.104505 0.067517824
-0.07296353 0.074129045 0.27607372 0.09037727 -0.03605087 0.012036867 0.17896749 -0.038425546
0.031003308 0.015065685 0.22857982 0.032362357 0.3372084 0.0077979295 0.2903317 -0.08251841
0.34103677 0.26090348 0.021209706 0.08928344 0.35354367 0.058994405 -0.022518776 -0.0156065915
0.03507219 0.03189627 0.29239133 0.17891759 0.24438296 0.1418017 0.17142405 0.10162538
0.204229 0.2607053 0.30202764 -0.041584782 -0.018091522 -5.8099627e-05 0.23138441 0.10757288
0.21383567 0.050774466 0.27814126 0.124525085 0.14395198 0.2338162 -0.034494895 0.007842954
0.26884663 0.16567299 0.22780037 0.0038289311 0.26022533 0.03143762 0.17702064 0.1730263
0.15046106 0.17768483 -0.029919561 0.32405156 0.3028721 0.03479989 0.19087656 0.07628152
0.26483002 0.014648224 0.19905564 -0.093994774 0.11342187 0.03661356 0.02858587 0.1473501
0.119027525 -0.24266754 0.051311117 -0.055202648 0.10465688 -0.26766023 -0.2729255 -0.25596103
-0.21613403 -0.28707966 0.08034781 -0.086257204 0.08785121 -0.09197869 0.006487268 0.017338078
-0.09182085 0.0394329 -0.17910534 0.0044214204 -0.27226576 -0.15092434 0.08703995 -0.038207624
0.3508616 0.122312896 -0.02461561 0.14128187 0.020235222 -0.030251501 -0.0018262211 0.237277
-0.05135972 0.32256046 0.31840423 0.26656953 0.3674663 0.0062519144 0.18974937 0.3416935
0.048934784 0.027717756 0.12180012 0.23818198 0.2915944 0.33731878 0.18411933 0.13761142
0.14380877 -0.053680368 0.060179517 0.07057967 0.013814007 0.0649271 0.24375392 0.18890725
-0.093326315 0.024465425 -0.060817286 0.1538507 0.33061433 0.31534642 0.1831095 -0.024766173
0.21478891 0.29084745 0.3107273 0.20525308 0.11756528 -0.04311648 0.20561776 0.13691904
-0.08202869 0.11636059 0.0019677775 0.16051546 0.09236685 0.08857268 0.29174587 0.19372231
0.22771673 0.27736124 0.101514086 0.157844 0.13934527 0.037152883 0.22776479 -0.020953279
00000000: 9db3 a03d b4ad 36be 56f9 64be ac85 bc3d
00000010: fa2c 2abe f835 103d 9abe 063e 8b34 a73d
00000020: c3f2 08be 326f 093e 39dc c2bd 42e4 793d
00000030: 470b 5fbe f488 8e3d d996 c83d 3231 d2bd
00000040: f541 ad3d a96f 7dbe 78c6 78be eebc 4dbd
00000050: 0f4c 0fbd 2d24 0bbe 804b 86bd 09c7 ddbd
00000060: 3e06 633e 2e53 aa3c 909b 5c3e 1eb6 df3d
00000070: 0cbc 3abb 045b 003e 7663 e93d e59c 8a3d
00000080: b853 8a3e cca7 563e 1123 fa3d 9d9c 253d
00000090: e3b0 6abd 1185 c13c 73b8 7bbd f1aa 213d
000000a0: f063 1ebe e4b4 69bd 745e cfbc 288b 8fbc
000000b0: f685 6abd 9edd 4c3d 6a96 663e d92c 773e
000000c0: c205 083e 74fa 5f3d 17e0 ae3e 3c5a a93e
000000d0: 6087 273e 1cc8 b63e 7eb7 803e 86d7 643e
000000e0: 2644 44bd 29e0 953e 8088 633e 7fae 823e
000000f0: eac1 5f3e e553 db3d 61c1 7dbd 0ca2 9bbc
00000100: 5eda a73b 11bf bd3e 3517 853e 9fcc 9d3e
00000110: e9fb 9a3d 3ac0 a33e b0d5 6e3e 2f69 893d
00000120: af2d a7bc 0515 a33d c4ad 653e f009 833c
00000130: ed59 353e f758 703e 44cc a33d 3565 243e
00000140: 662f 3e3e 35fa 9f3e e334 943e f04c 2c3e
00000150: 29d4 103e 80d7 9f3e 993a 843e 7abd d13d
00000160: 8003 693d 6fc8 593e a735 a93e 1e6c bbbb
00000170: 41a7 943d b85f 873e b806 d63d c946 8a3d
00000180: e76d 95bd f8d0 973d 8959 8d3e b817 b93d
00000190: 14aa 13bd 4836 453c 4143 373e 1b64 1dbd
000001a0: a6fa fd3c 10d6 763c d410 6a3e 648e 043d
000001b0: 94a6 ac3e c685 ff3b 5ba6 943e 6aff a8bd
000001c0: 5f9c ae3e 2495 853e fabf ad3c 3cda b63d
000001d0: ad03 b53e 1ea4 713d 4c79 b8bc cab2 7fbc
000001e0: dba7 0f3d aaa5 023d 51b4 953e 2c36 373e
000001f0: 873f 7a3e 7734 113e c989 2f3e f820 d03d
00000200: 6821 513e 2a7b 853e 5ea3 9a3e ce54 2abd
00000210: ac34 94bc 00b0 73b8 09f0 6c3e 2c4f dc3d
00000220: bdf7 5a3e e3f8 4f3d 8868 8e3e 0207 ff3d
00000230: 2668 133e 846d 6f3e 854a 0dbd bc7f 003c
00000240: 44a6 893e 2ea6 293e 8044 693e ceee 7a3b
00000250: 413c 853e bcc4 003d e644 353e ce2d 313e
00000260: 7712 1a3e 03f3 353e de19 f5bc 16ea a53e
00000270: 0d12 9b3e 548a 0e3d 2575 433e 7c39 9c3d
00000280: cd97 873e 1bff 6f3c 3ed5 4b3e 5580 c0bd
00000290: ba49 e83d 1af8 153d ea2c ea3c f2e2 163e
000002a0: b4c4 f33d d77d 78be 9b2b 523d 2c1c 62bd
000002b0: 5956 d63d c30a 89be e4bc 8bbe 530d 83be
000002c0: 3d52 5dbe 1bfc 92be 658d a43d 9ea7 b0bd
000002d0: 56eb b33d 535f bcbd 2693 d43b 9608 8e3c
000002e0: 920c bcbd 6484 213d 6467 37be 90e1 903b
000002f0: 6b66 8bbe e98b 1abe 0042 b23d 997f 1cbd
00000300: 22a4 b33e 2f7f fa3d ada6 c9bc 32ac 103e
00000310: 56c4 a53c ffd1 f7bc d05d efba bef8 723e
00000320: 925e 52bd a526 a53e e105 a33e cd7b 883e
00000330: 8b24 bc3e dcdc cc3b a94d 423e 73f2 ae3e
00000340: d76f 483d 5910 e33c 5772 f93d fae5 733e
00000350: dc4b 953e 0cb5 ac3e c789 3c3e 02ea 0c3e
00000360: 9b42 133e f2df 5bbd cc7e 763d 138c 903d
00000370: 2554 623c 80f8 843d a19a 793e e770 413e
00000380: de21 bfbd b76b c83c 8c1b 79bd 0a8b 1d3e
00000390: 4846 a93e 1675 a13e 0f81 3b3e 6ee2 cabc
000003a0: a0f1 5b3e f5e9 943e a617 9f3e dd2d 523e
000003b0: 11c6 f03d e89a 30bd 768d 523e 8134 0c3e
000003c0: a8fe a7bd 764e ee3d d4f5 003b 2a5e 243e
000003d0: d52a bd3d 9865 b53d b75f 953e 245f 463e
000003e0: 932e 693e 4b02 8e3e 9ee6 cf3d dca1 213e
000003f0: 87b0 0e3e 9f2d 183d 2c3b 693e 36a6 abbc

bias f4 [36]
-0.17997037 0.13767484 0.25348198 0.14248016 0.023021083 0.2862341 0.120191775 -0.2697911
0.33993384 0.25108805 0.048724063 0.070481546 -0.06210002 0.2859167 0.16493697 0.08540512
0.04471402 -0.2658607 -0.23342387 0.26547572 0.0013920804 0.17435361 0.08026062 0.16454878
0.053359322 0.17762087 -0.17399493 -0.1850179 0.0025844541 0.17365706 0.33366013 -0.006732098
-0.032411277 0.0012740315 0.0037032743 0.21191521
00000000: 274a 38be a2fa 0c3e 64c8 813e 52e6 113e
00000010: b696 bc3c 478d 923e 1b27 f63d 0f22 8abe
00000020: cf0b ae3e 9d8e 803e e292 473d a158 903d
00000030: 975c 7ebd ac63 923e 3de5 283e e1e8 ae3d
00000040: 0c26 373d e51e 88be ab06 6fbe 6fec 873e
00000050: 7876 b63a c189 323e ae5f a43d 7a7f 283e
00000060: 4e8f 5a3d 3fe2 353e ba2b 32be 5575 3dbe
00000070: f25f 293b 28d3 313e 80d5 aa3e ee98 dcbb
00000080: b0c1 04bd 67fd a63a a2b2 723b 4d00 593e

weight f4 [1, 36]
0.05831747 0.024732566 0.18594112 0.24858475 0.23562674 0.30119932 0.12097489 -0.07677447
0.31786194 0.27835584 0.1920959 -0.010232486 0.0842109 0.18581979 0.23011391 -0.1627497
0.21995625 -0.09561145 0.20752615 0.28589687 0.11413019 0.1745038 0.1681846 0.22542776
0.107809015 0.32873788 -0.09125054 0.078717306 -0.07331879 0.30137023 0.22416788 0.15220308
0.08303124 -0.015801447 0.0121769635 0.12962721
00000000: 4dde 6e3d f39b ca3c 5967 3e3e 008d 7e3e
00000010: 2348 713e cc36 9a3e afc1 f73d ef3b 9dbd
00000020: cdbe a23e a884 8e3e cab4 443e 28a6 27bc
00000030: c476 ac3d 8b47 3e3e fba2 6b3e dba7 26be
00000040: 363c 613e f0cf c3bd bc81 543e 1361 923e
00000050: 17bd e93d 20b1 323e 9538 2c3e 89d6 663e
00000060: f9ca dc3d 5550 a83e 90e1 babd 8a36 a13d
00000070: 2928 96bd 334d 9a3e 448c 653e 20db 1b3e
00000080: 480c aa3d 0972 81bc e381 473c ffbc 043e

weight f4 [1, 36]
-0.051487867 0.2070793 0.20421447 0.2666169 0.22467361 0.22730745 0.22328334 -0.06363449
0.17858832 0.19529091 0.28643215 0.12505737 0.19531313 0.27722532 0.16940406 0.029996932
-0.027227685 0.07419486 -0.061180916 0.12101138 0.23164156 0.09831122 0.1861452 0.12899403
0.18951891 0.1896845 -0.047683917 0.06035368 -0.025797062 0.19623044 0.28470743 0.22938754
-0.103201024 0.005176883 0.11316092 0.24594414
00000000: f1e4 52bd 990c 543e 991d 513e 0382 883e
00000010: d710 663e 49c3 683e 63a4 643e cd52 82bd
00000020: dbdf 363e 57fa 473e 3ca7 923e 0a0f 003e
00000030: 2a00 483e 7af0 8d3e 4278 2d3e 20bc f53c
00000040: 980c dfbc 7af3 973d d798 7abd d0d4 f73d
00000050: 7233 6d3e 6557 c93d d99c 3e3e 0317 043e
00000060: 3f11 423e a73c 423e 3650 43bd 6c35 773d
00000070: 5c54 d3bc a2f0 483e 2cc5 913e 91e4 6a3e
00000080: 0f5b d3bd d8a2 a93b eac0 e73d c8d8 7b3e

exp_avg f4 [24, 3]
618.676 54.893635 -5311.3096 365.74954 -29.150986 -4213.3936 810.5866 158.08644
-8507.883 42.825703 285.0295 -1419.5707 119.817444 -45.732956 2267.001 -140.14641
-50.789536 6285.1274 1215.1481 -37.602398 6830.2188 298.61374 -429.92258 -5219.5137
281.92767 28.250845 -2285.119 169.2133 -96.63316 9318.901 1143.3353 -134.32533
-8596.076 140.80606 76.16613 6916.0083 763.6774 -22.354523 13245.064 29.700966
-82.06097 7443.0493 2119.1467 -623.91833 6836.9414 249.7711 -25.350428 -5962.477
1001.05634 -174.83044 10524.59 922.90753 -68.698616 10449.431 256.37735 -278.51736
-6549.9443 183.60008 6.7172055 -5014.0474 992.7422 16.148218 11115.77 862.7798
13.467283 -6423.1807 398.63385 24.605322 6591.5303 646.8208 -126.67313 5023.6577
00000000: 44ab 1a44 1593 5b42 7afa a5c5 f1df b643
00000010: 3835 e9c1 26ab 83c5 8ba5 4a44 2116 1e43
00000020: 88ef 04c6 854d 2b42 c783 8e43 4372 b1c4
00000030: 88a2 ef42 8cee 36c2 04b0 0d45 7b25 0cc3
00000040: 7c28 4bc2 0569 c445 bde4 9744 db68 16c2
00000050: c071 d545 8f4e 9543 17f6 d6c3 1c1c a3c5
00000060: bef6 8c43 bb01 e241 e7d1 0ec5 9b36 2943
00000070: 2e44 c1c2 9b9b 1146 bbea 8e44 4953 06c3
00000080: 4e50 06c6 5ace 0c43 0f55 9842 1120 d845
00000090: 5beb 3e44 10d6 b2c1 42f4 4e46 949b ed41
000000a0: 371f a4c2 6598 e845 5972 0445 c6fa 1bc4
000000b0: 88a7 d545 67c5 7943 adcd cac1 d153 bac5
000000c0: 9b43 7a44 98d4 2ec3 5c72 2446 15ba 6644
000000d0: b165 89c2 b945 2346 4d30 8043 3942 8bc3
000000e0: 8eaf ccc5 9f99 3743 59f3 d640 61b0 9cc5
000000f0: 802f 7844 8d2f 8141 14af 2d46 e8b1 5744
00000100: fe79 5741 72b9 c8c5 2251 c743 b3d7 c441
00000110: 3efc cd45 88b4 2144 a458 fdc2 43fd 9c45

exp_avg_sq f4 [24, 3]
229198.53 1902.25 1.1569301e+06 81018.9 530.2192 833478.2 267042.03 7899.8857
3.0321952e+06 52424.484 3536.793 715443.75 5405.529 274.20462 244975.92 6958.571
494.90143 1.2490938e+06 434992.12 1549.8932 1.3236512e+06 250319.1 6822.377 1.5745388e+06
52564.375 473.6267 361033.44 25737.92 1272.0698 2.2698578e+06 726149.6 2657.8752
2.7888645e+06 9860.09 2281.661 1.2794548e+06 108321.766 1941.5952 4.5336895e+06 4935.251
459.74124 1.5390652e+06 1.3118006e+06 16359.25 2.1504978e+06 15632.394 386.87753 1.3872249e+06
407379.72 2464.5635 2.9086572e+06 485973.6 2921.819 2.864069e+06 8430.491 6909.315
1.7955692e+06 1715.6553 149.54048 1.0364839e+06 305350.66 1696.3491 3.1932788e+06 357307.94
1409.5 1.5940404e+06 152633.14 1371.5364 1.2031356e+06 99594.914 544.5788 705693.25
00000000: a2d3 5f48 00c8 ed44 113a 8d49 733d 9e47
00000010: 078e 0444 637c 4b49 4164 8248 16df f645
00000020: 0d12 394a 7cc8 4c47 b00c 5d45 3cab 2e49
00000030: 3bec a845 311a 8943 fb3b 6f48 9174 d945
00000040: 6273 f743 2e7a 9849 0466 d448 95bc c144
00000050: 1a94 a149 c673 7448 0433 d545 5634 c049
00000060: 6054 4d47 38d0 ec43 2e49 b048 d713 c946
00000070: 3c02 9f44 878a 0a4a 5a48 3149 011e 2645
00000080: 0238 2a4a 5c10 1a46 939a 0e45 f62e 9c49
00000090: e290 d347 0cb3 f244 735b 8a4a 023a 9a45
000000a0: e1de e543 cadf bb49 c521 a049 009d 7f46
000000b0: 8741 034a 9341 7446 5370 c143 c756 a949
000000c0: 77ea c648 0409 1a45 c587 314a b34a ed48
000000d0: 1b9d 3645 14cf 2e4a f7b9 0346 85ea d745
000000e0: 8a2f db49 f874 d644 5d8a 1543 3e0c 7d49
000000f0: d518 9548 2c0b d444 fbe6 424a 7e77 ae48
00000100: 0030 b044 c395 c249 490e 1548 2a71 ab44
00000110: fddd 9249 7585 c247 0b25 0844 d449 2c49

exp_avg f4 [24]
-1851.7717 -1223.0166 -2524.7964 -1706.7772 -356.00867 -1778.4928 -2080.3599 -2650.4097
-701.6143 -2279.9426 -2981.3743 -1602.3174 -3064.0762 -1675.6136 -4581.761 -1447.0007
-2853.7773 -3297.8088 -1578.7015 -1018.78076 -2813.4365 -2048.1616 -1918.916 -1221.748
00000000: b278 e7c4 88e0 98c4 becc 1dc5 df58 d5c4
00000010: 1c01 b2c3 c54f dec4 c205 02c5 8ea6 25c5
00000020: 5167 2fc4 157f 0ec5 fd55 3ac5 284a c8c4
00000030: 3881 3fc5 a373 d1c4 172e 8fc5 06e0 b4c4
00000040: 705c 32c5 f11c 4ec5 7356 c5c4 f8b1 7ec4
00000050: fcd6 2fc5 9602 00c5 50dd efc4 f0b7 98c4

exp_avg_sq f4 [24]
290831.66 116824.09 413068.8 134752.3 11483.037 77822.41 492650.0 362276.88
68566.38 127749.14 876391.44 63025.258 285913.28 70971.45 1.635364e+06 70421.22
527001.44 648513.3 81076.945 36143.57 424392.66 430311.4 209864.08 120367.99
00000000: f501 8e48 0c2c e447 9ab1 c948 1398 0348
00000010: 266c 3346 34ff 9747 408d f048 9ce4 b048
00000020: 31eb 8547 9282 f947 77f6 5549 4231 7647
00000030: 299b 8b48 ba9d 8a47 20a1 c749 9c8a 8947
00000040: 97a9 0049 1554 1e49 795a 9e47 922f 0d47
00000050: 1539 cf48 ed1c d248 05f2 4c48 ff17 eb47

exp_avg f4 [36, 24]
1.7309034 1.152669 1.0306267 2.3729994 1.8293205 5.4180527 0.0 4.7760057
0.33010277 7.3280945 0.9811324 3.3007488 3.8475795 5.3823595 2.190271 1.8617234
2.3646507 7.972166 0.40281498 0.0 2.0769508 0.15410513 5.8668194 0.7964117
-464.0668 -289.5594 -158.72147 -178.64853 43.207516 -45.06519 -68.08332 -97.72027
-359.0869 35.197876 -198.17558 33.281963 119.29292 6.092492 -338.4649 -151.2808
-0.21056512 -83.41255 -17.054996 -69.54766 41.02377 -323.2225 -63.010307 -17.114183
-1640.8656 -1052.5518 -1142.4192 -457.4214 -505.53793 -601.2415 -528.6347 -708.9068
-1097.6204 -1539.1042 -1079.5834 -1347.0387 -1889.4586 -808.84906 -1392.1278 -1414.7158
-1016.0853 -1966.1643 -444.93588 -933.207 -1624.741 -1477.8783 -1634.9941 -758.62335
-2443.9521 -1588.2384 -1635.9415 -681.22815 -758.0563 -872.1428 -790.71906 -1047.0154
-1653.387 -2251.7827 -1593.7905 -1955.7571 -2771.8835 -1172.8729 -2177.9802 -2033.2446
-1508.5011 -2925.7083 -642.6012 -1314.5005 -2392.536 -2181.5193 -2424.5698 -1131.69
-1755.4166 -1101.9387 -1242.255 -429.54776 -695.8624 -704.7545 -701.05176 -768.8639
-1135.5353 -1992.72 -1195.3837 -1757.8827 -2558.9912 -1021.18396 -1741.1667 -1539.9398
-1371.5654 -2562.8218 -525.39813 -1069.6937 -2207.056 -1616.4266 -2144.4854 -1033.3497
-2719.0383 -1754.0293 -1952.0598 -708.4424 -787.97864 -961.5423 -856.4554 -1173.781
-1814.8871 -2495.4136 -1822.3082 -2175.4097 -3054.9731 -1337.8282 -2159.425 -2430.836
-1653.7189 -3091.0552 -762.19006 -1610.5143 -2599.9211 -2488.5745 -2545.952 -1230.6427
-1297.1783 -836.5481 -766.7935 -392.12186 -343.55435 -404.46222 -398.778 -511.5499
-899.21 -994.5804 -787.35236 -856.4392 -1210.7327 -512.4414 -1224.6393 -927.4243
-700.8086 -1407.5961 -289.04102 -582.27454 -1089.7582 -1097.2344 -1167.9536 -537.3196
0.70876604 0.8976705 0.0 3.5494604 79.35818 14.9111 23.11336 4.0802994
0.2619128 76.038124 0.09605669 57.840374 136.70718 21.573345 94.78421 0.0
64.69017 129.44698 0.0751063 0.0 121.32558 0.0 122.77263 58.042446
-2507.6138 -1598.3922 -1912.2666 -645.4284 -879.2757 -1020.96423 -858.47833 -1147.0436
-1630.7068 -2714.434 -1743.932 -2398.0657 -3367.7695 -1433.847 -2037.1064 -2392.4583
-1743.1057 -3287.6533 -771.57 -1617.6067 -2828.7502 -2358.4126 -2738.606 -1282.8995
-1894.7444 -1186.2316 -1451.7869 -489.6405 -785.9185 -898.7533 -754.7911 -933.2487
-1186.3479 -2402.7185 -1346.505 -2117.3313 -2979.2458 -1262.9529 -1746.4541 -1828.3287
-1551.7927 -2950.2612 -632.31464 -1266.5798 -2518.7434 -1778.9579 -2459.4553 -1146.2404
-1714.94 -1090.7946 -1041.5881 -490.41235 -616.79346 -685.4616 -661.61053 -767.9638
-1133.4304 -1782.707 -1103.8156 -1536.7086 -2193.2222 -914.9488 -1860.8431 -1295.4413
00000000: 3e8e dd3f a88a 933f 93eb 833f 39df 1740
00000010: 2d27 ea3f b060 ad40 0000 0000 0ad5 9840
00000020: 3b03 a93e c07f ea40 7e2b 7b3f 783f 5340
00000030: be3e 7640 4a3c ac40 662d 0c40 f44c ee3f
00000040: 7056 1740 fc1b ff40 c43d ce3e 0000 0000
00000050: c3ec 0440 bccd 1d3e fcbc bb40 a3e1 4b3f
00000060: 8d08 e8c3 9ac7 90c3 b2b8 1ec3 06a6 32c3
00000070: 7fd4 2c42 c142 34c2 a92a 88c2 c770 c3c2
00000080: 208b b3c3 a0ca 0c42 f32c 46c3 bb20 0542
00000090: fa95 ee42 b2f5 c240 823b a9c3 e347 17c3
000000a0: 629e 57be 3ad3 a6c2 a270 88c1 6718 8bc2
000000b0: 5718 2442 7b9c a1c3 8e0a 7cc2 d9e9 88c1
000000c0: b31b cdc4 a891 83c4 6acd 8ec4 f0b5 e4c3
000000d0: dbc4 fcc3 754f 16c4 9f28 04c4 093a 31c4
000000e0: da33 89c4 5663 c0c4 abf2 86c4 3d61 a8c4
000000f0: ad2e ecc4 5736 4ac4 1704 aec4 e8d6 b0c4
00000100: 7605 7ec4 42c5 f5c4 cb77 dec3 3f4d 69c4
00000110: b617 cbc4 1bbc b8c4 d05f ccc4 e5a7 3dc4
00000120: 3cbf 18c5 a187 c6c4 217e ccc4 9a4e 2ac4
00000130: 9a83 3dc4 2409 5ac4 05ae 45c4 7ee0 82c4
00000140: 62ac cec4 86bc 0cc5 4c39 c7c4 3a78 f4c4
00000150: 233e 2dc5 ef9b 92c4 af1f 08c5 d427 fec4
00000160: 0990 bcc4 55db 36c5 7aa6 20c4 0450 a4c4
00000170: 9388 15c5 4f58 08c5 1e89 17c5 1476 8dc4
00000180: 556d dbc4 0abe 89c4 2948 9bc4 1dc6 d6c3
00000190: 32f7 2dc4 4a30 30c4 5043 2fc4 4a37 40c4
000001a0: 21f1 8dc4 0a17 f9c4 476c 95c4 3fbc dbc4
000001b0: dcef 1fc5 c64b 7fc4 56a5 d9c4 137e c0c4
000001c0: 1872 abc4 262d 20c5 7b59 03c4 33b6 85c4
000001d0: e5f0 09c5 a70d cac4 c407 06c5 312b 81c4
000001e0: 9df0 29c5 f040 dbc4 ea01 f4c4 501c 31c4
000001f0: a2fe 44c4 b562 70c4 251d 56c4 feb8 92c4
00000200: 63dc e2c4 9ef6 1bc5 ddc9 e3c4 8ef6 07c5
00000210: 92ef 3ec5 813a a7c4 cdf6 06c5 60ed 17c5
00000220: 01b7 cec4 e230 41c5 2a8c 3ec4 7550 c9c4
00000230: bd7e 22c5 3189 1bc5 3b1f 1fc5 91d4 99c4
00000240: b525 a2c4 1423 51c4 c9b2 3fc4 990f c4c3
00000250: f5c6 abc3 2a3b cac3 9663 c7c3 63c6 ffc3
00000260: 71cd 60c4 25a5 78c4 8dd6 44c4 1c1c 56c4
00000270: 7257 97c4 401c 00c4 7514 99c4 28db 67c4
00000280: c033 2fc4 13f3 afc4 4085 90c3 9291 11c4
00000290: 4338 88c4 8027 89c4 84fe 91c4 7454 06c4
000002a0: b171 353f bccd 653f 0000 0000 5c2a 6340
000002b0: 63b7 9e42 de93 6e41 29e8 b841 d091 8240
000002c0: 6f19 863e 8513 9842 5fb9 c43d 8b5c 6742
000002d0: 0ab5 0843 3696 ac41 8491 bd42 0000 0000
000002e0: 5e61 8142 6d72 0143 55d1 993d 0000 0000
000002f0: b2a6 f242 0000 0000 968b f542 772b 6842
00000300: d2b9 1cc5 8dcc c7c4 8808 efc4 6b5b 21c4
00000310: a5d1 5bc4 b63d 7fc4 9d9e 56c4 6561 8fc4
00000320: 9ed6 cbc4 f2a6 29c5 d3fd d9c4 0de1 15c5
00000330: 507c 52c5 1b3b b3c4 68a3 fec4 5587 15c5
00000340: 62e3 d9c4 747a 4dc5 7be4 40c4 6a33 cac4
00000350: 01cc 30c5 9a66 13c5 b229 2bc5 c95c a0c4
00000360: d2d7 ecc4 6947 94c4 2e79 b5c4 fcd1 f4c3
00000370: c97a 44c4 36b0 60c4 a1b2 3cc4 eb4f 69c4
00000380: 224b 94c4 7f2b 16c5 2950 a8c4 4d55 04c5
00000390: ef33 3ac5 7ede 9dc4 884e dac4 858a e4c4
000003a0: 5ef9 c1c4 2e64 38c5 2314 1ec4 8e52 9ec4
000003b0: e56b 1dc5 a75e dec4 49b7 19c5 b147 8fc4
000003c0: 145e d6c4 6d59 88c4 d232 82c4 c834 f5c3
000003d0: c832 1ac4 8b5d 2bc4 1367 25c4 affd 3fc4
000003e0: c6ad 8dc4 a0d6 dec4 19fa 89c4 ad16 c0c4
000003f0: 8e13 09c5 b9bc 64c4 fb9a e8c4 1fee a1c4

exp_avg_sq f4 [36, 24]
16.10924 7.143955 5.7112665 25.578905 17.993227 123.16983 0.0 91.69191
0.5859056 223.24725 5.0406337 50.187077 78.00582 120.80501 22.326437 18.636312
26.410265 266.22238 0.72948414 0.0 23.194324 0.12769195 150.87 3.4103959
119484.88 49420.938 16647.484 10342.322 254.72385 2442.865 11186.547 3020.0647
75666.484 4502.55 23709.342 3572.4697 4468.592 1542.6857 152048.98 17734.81
7978.7627 27014.0 313.74637 7125.2207 8682.727 64187.723 15760.141 8107.9155
187022.42 83681.016 57029.914 15937.18 10118.484 10691.566 17759.475 19615.035
106833.19 63895.094 57435.223 49209.152 99973.07 17674.594 232264.2 91047.66
33798.62 125309.64 7946.413 39347.84 77748.22 119903.336 86072.01 22848.889
477631.44 223583.67 117897.875 39520.438 28908.008 23805.52 46076.66 47260.09
284149.3 145173.39 139858.45 107258.61 232334.2 38208.234 661915.75 186794.55
84291.766 313757.38 17180.498 74804.02 184239.61 297288.47 211898.45 58935.105
214383.61 85168.195 59945.8 11086.798 21857.598 13540.122 30173.414 20612.533
110469.94 110455.15 68126.89 85003.5 191561.61 28488.055 350894.16 95976.32
63341.46 225097.95 11150.815 48727.598 150249.92 135562.23 157174.14 43882.97
442249.78 204836.19 161936.19 33205.406 15976.449 23864.818 36786.89 49810.582
250843.98 160237.8 149105.7 127531.58 243637.03 47630.58 427660.9 264676.06
76346.07 257902.53 22477.168 114315.83 177207.42 304028.38 173047.11 48644.652
234085.22 105891.68 38103.81 21499.156 11861.861 7133.971 23585.18 15993.183
144653.86 38365.97 56196.25 27234.496 68128.6 8728.965 362705.2 53819.516
32475.291 125677.2 4421.8345 19507.871 64883.86 129246.1 86201.73 25647.145
2.190054 3.5130382 0.0 33.26184 9568.456 322.20212 973.7667 33.44154
0.2990628 8576.956 0.040225755 4920.077 28221.314 699.28564 16214.218 0.0
6603.9663 26331.674 0.013723067 0.0 22780.033 0.0 23447.996 5452.323
263663.06 113508.836 132458.67 17482.697 21078.648 27194.867 24715.533 42247.77
130281.01 188430.81 110737.07 150590.52 289295.28 54531.16 234006.92 216048.53
76779.64 271669.0 22483.22 102930.58 200017.77 209220.53 189012.94 43776.43
154751.84 61144.656 84160.8 7758.4814 18641.037 21294.688 20525.07 27778.596
67958.58 148426.44 69989.766 117432.99 229535.58 42206.766 183160.22 137322.97
63727.742 230419.97 16061.456 70084.375 163500.33 126361.94 160531.3 37924.234
331750.6 136785.19 40391.72 22859.76 30714.492 16817.104 48712.78 23235.367
188906.95 109784.25 77968.02 77421.13 190253.31 25752.992 673306.94 62920.043
00000000: b9df 8041 489b e440 b2c2 b640 99a1 cc41
00000010: 21f2 8f41 f456 f642 0000 0000 4262 b742
00000020: e9fd 153f 4c3f 5f43 df4c a140 91bf 4842
00000030: fb02 9c42 2a9c f142 8b9c b241 2b17 9541
00000040: 3948 d341 771c 8543 79bf 3a3f 0000 0000
00000050: fa8d b941 aec1 023e b8de 1643 ed43 5a40
00000060: 715e e947 f00c 4147 f80e 8246 4a99 2146
00000070: 4eb9 7e43 d7ad 1845 30ca 2e46 09c1 3c45
00000080: 3ec9 9347 66b4 8c45 af3a b946 8447 5f45
00000090: bca4 8b45 f1d5 c044 3f7c 1448 9f8d 8a46
000000a0: 1a56 f945 000c d346 89df 9c43 c4a9 de45
000000b0: e8aa 0746 b9bb 7a47 9040 7646 535f fd45
000000c0: 9ba3 3648 8270 a347 eac5 5e47 b804 7946
000000d0: f019 1e46 440e 2746 f3be 8a46 123e 9946
000000e0: 98a8 d047 1897 7947 395b 6047 2739 4047
000000f0: 8942 c347 3015 8a46 0dd2 6248 d4d3 b147
00000100: 9f06 0447 d2be f447 4e53 f845 d7b3 1947
00000110: 1cda 9747 ab2f ea47 011c a847 c781 b246
00000120: ee37 e948 eb57 5a48 f044 e647 7060 1a47
00000130: 04d8 e146 0afb b946 a9fc 3347 179c 3847
00000140: aabe 8a48 59c5 0d48 9d94 0848 4e7d d147
00000150: 8de3 6248 3c40 1547 bc99 2149 a36a 3648
00000160: e2a1 a447 ac33 9948 ff38 8646 031a 9247
00000170: e7eb 3348 0f29 9148 9dee 4e48 1b37 6647
00000180: e75b 5148 1958 a647 cd29 6a47 313b 2d46
00000190: 32c3 aa46 7d90 5346 d4ba eb46 1109 a146
000001a0: f8c2 d747 93bb d747 720f 8547 c005 a647
000001b0: 6712 3b48 1c90 de46 c555 ab48 2974 bb47
000001c0: 766d 7747 7dd2 5b48 433b 2e46 9957 3e47
000001d0: 7bba 1248 8f62 0448 897d 1948 f86a 2b47
000001e0: 39f1 d748 0c09 4848 0c24 1e48 68b5 0147
000001f0: cca1 7946 a371 ba46 e4b2 0f47 9592 4247
00000200: fff6 7448 737b 1c48 6d9c 1148 ca15 f947
00000210: 42ed 6d48 940e 3a47 9dd1 d048 823c 8148
00000220: 091d 9547 a2db 7b48 569a af46 ea45 df47
00000230: db0d 2d48 8c73 9448 c7fd 2848 a704 3e47
00000240: 4e99 6448 d7d1 ce47 cfd7 1447 50f6 a746
00000250: 7257 3946 c5ef de45 5c42 b846 bbe4 7946
00000260: 7743 0d48 f8dd 1547 4084 5b47 fec4 d446
00000270: 4d10 8547 dc63 0846 261a b148 843b 5247
00000280: 95b6 fd46 9a76 f547 ad2e 8a45 be67 9846
00000290: dc73 7d47 0d6f fc47 dd5c a847 4a5e c846
000002a0: d829 0c40 9ed5 6040 0000 0000 200c 0542
000002b0: d381 1546 df19 a143 1271 7344 23c4 0542
000002c0: c21e 993e d303 0646 c3c3 243d 9ec0 9945
000002d0: a17a dc46 48d2 2e44 df58 7d46 0000 0000
000002e0: bb5f ce45 59b7 cd46 b7d6 603c 0000 0000
000002f0: 11f8 b146 0000 0000 fe2f b746 9662 aa45
00000300: e2bd 8048 6bb2 dd47 ab5a 0148 6595 8846
00000310: 4cad a446 bc75 d446 1117 c146 c507 2547
00000320: 8174 fe47 b403 3848 8948 d847 a10f 1348
00000330: e941 8d48 2903 5547 bb85 6448 22fc 5248
00000340: d2f5 9547 a0a6 8448 71a6 af46 4a09 c947
00000350: 7154 4348 2251 4c48 3c95 3848 6e00 2b47
00000360: f61f 1748 a8d8 6e47 6660 a447 da73 f245
00000370: 13a2 9146 605d a646 245a a046 3105 d946
00000380: 4abb 8447 9cf2 1048 e2b2 8847 7f5c e547
00000390: e527 6048 c4de 2447 0ede 3248 be1a 0648
000003a0: beef 7847 fe04 6148 d3f5 7a46 30e2 8847
000003b0: 15ab 1f48 f8cc f647 d3c4 1c48 3c24 1447
000003c0: d3fc a148 4c94 0548 b8c7 1d47 8597 b246
000003d0: fcf4 ef46 3562 8346 c848 3e47 bc86 b546
000003e0: bd7a 3848 206c d647 0348 9847 9136 9747
000003f0: 54cb 3948 fc31 c946 af61 2449 0bc8 7547

exp_avg f4 [36]
8.131886 -542.6903 -1757.8047 -2705.8943 -1972.4055 -2662.527 -1552.641 88.627174
-2508.3047 -2099.146 -2234.7207 80.210014 -953.27277 -2396.3682 -1804.4901 0.0
263.27158 55.121204 168.23157 -1795.8871 -1546.7388 -962.1659 -1410.7339 -1456.517
-1126.0549 -2607.858 0.0 5.0068817 355.589 -2531.3591 -2763.471 -1799.5929
9.471467 421.33887 24.663734 -1764.3208
00000000: 341c 0241 2eac 07c4 c0b9 dbc4 4f1e 29c5
00000010: fa8c f6c4 6f68 26c5 8314 c2c4 1d41 b142
00000020: e0c4 1cc5 5632 03c5 88ab 0bc5 876b a042
00000030: 7551 6ec4 e4c5 15c5 af8f e1c4 0000 0000
00000040: c3a2 8343 1d7c 5c42 483b 2843 637c e0c4
00000050: a457 c1c4 9e8a 70c4 7c57 b0c4 8b10 b6c4
00000060: c2c1 8cc4 bafd 22c5 0000 0000 6038 a040
00000070: 64cb b143 bf35 1ec5 89b7 2cc5 f9f2 e0c4
00000080: 218b 1741 60ab d243 544f c541 448a dcc4

exp_avg_sq f4 [36]
282.00034 169653.7 278357.56 776482.8 358024.94 499519.38 426123.9 14234.878
287429.06 201598.56 711290.6 13844.763 171912.12 873764.44 172817.44 0.0
48132.895 3370.1743 28104.057 79810.75 434479.78 28332.303 157715.81 71534.75
199108.73 316060.16 0.0 269.42807 117752.82 355435.72 997526.1 454449.34
274.5968 135996.92 636.8567 538312.3
00000000: 0b00 8d43 6dad 2548 b2ea 8748 2d92 3d49
00000010: 1ed1 ae48 ece7 f348 7d11 d048 836b 5e46
00000020: a258 8c48 a4df 4448 aaa7 2d49 0d53 5846
00000030: 08e2 2748 4752 5549 5cc4 2848 0000 0000
00000040: e504 3c47 caa2 5245 1d90 db46 60e1 9b47
00000050: f925 d448 9b58 dd46 f404 1a48 60b7 8b47
00000060: 2f71 4248 8553 9a48 0000 0000 cbb6 8643
00000070: 69fc e547 778d ad48 6289 7349 2be6 dd48
00000080: 644c 8943 3bcf 0448 d436 1f44 856c 0349

exp_avg f4 [1, 36]
1.4821413 -9262.1045 -24367.08 -19748.162 -13432.947 -14330.804 -17589.709 -3.7141173
-25558.85 -16242.44 -18610.252 -9229.818 -18034.592 -15597.084 -23803.742 0.0
-156.14897 -17.37216 -25.673828 -18729.447 -21936.416 -7420.9194 -17022.74 -14665.536
-15927.15 -23886.281 0.0 -19.631847 -37.883923 -23380.756 -22241.367 -20333.104
0.6718346 -105.5848 -1229.6382 -20856.65
00000000: ceb6 bd3f 6bb8 10c6 295e bec6 5348 9ac6
00000010: cae3 51c6 37eb 5fc6 6b6b 89c6 19b4 6dc0
00000020: b3ad c7c6 c3c9 7dc6 8164 91c6 4637 10c6
00000030: 2fe5 8cc6 56b4 73c6 7cf7 b9c6 0000 0000
00000040: 2326 1cc3 2ffa 8ac1 0064 cdc1 e552 92c6
00000050: d560 abc6 5be7 e7c5 7bfd 84c6 2526 65c6
00000060: 9adc 78c6 909c bac6 0000 0000 060e 9dc1
00000070: 2389 17c2 83a9 b6c6 bcc2 adc6 35da 9ec6
00000080: 5afd 2b3f 6b2b d3c2 6cb4 99c4 4df1 a2c6

exp_avg_sq f4 [1, 36]
11.921145 2.0728428e+06 1.3602974e+07 8.923974e+06 4.2536785e+06 5.257532e+06 6.9697925e+06 32.250927
1.4933988e+07 6.3607355e+06 8.023227e+06 2.2375802e+06 7.590552e+06 5.460889e+06 1.2981811e+07 0.0
23339.037 336.8777 1181.5101 8.670046e+06 1.1045513e+07 1.3784576e+06 7.5072905e+06 5.1238535e+06
5.907041e+06 1.3059993e+07 0.0 912.7029 2316.6687 1.2419925e+07 1.1039189e+07 9.34269e+06
2.145997 10367.613 62298.367 9.776265e+06
00000000: 03bd 3e41 5608 fd49 9e90 4f4b 462b 084b
00000010: ddcf 814a 7872 a04a 81b3 d44a f300 0142
00000020: e4df 634b 3f1d c24a 76d9 f44a 3192 084a
00000030: 30a5 e74a 32a7 a64a 3316 464b 0000 0000
00000040: 1356 b646 5870 a843 53b0 9344 5e4b 044b
00000050: 898a 284b cd44 a849 b51a e54a 1b5e 9c4a
00000060: c244 b44a 9947 474b 0000 0000 fc2c 6444
00000070: b3ca 1045 5583 3d4b d571 284b e28e 0e4b
00000080: 0458 0940 74fe 2146 5e5a 7347 892c 154b

exp_avg f4 [1, 36]
-4.7371035 -1414.3031 -3997.3362 -2803.3774 -1197.5642 -2965.8381 -2472.7527 -81.26062
-5419.9175 -1990.58 -2782.826 -2328.6377 -1584.4797 -3251.0718 -3732.6567 0.0
-1243.7424 -137.66962 -225.58289 -2230.9744 -3596.2437 -802.9671 -2484.142 -1206.532
-1446.3718 -3395.9758 0.0 -164.66078 -416.99957 -3814.0764 -6185.828 -3107.3816
-2.3119235 -1135.7546 -315.6881 -4072.8984
00000000: 5a96 97c0 b3c9 b0c4 61d5 79c5 0a36 2fc5
00000010: 0eb2 95c4 695d 39c5 0b8c 1ac5 7085 a2c2
00000020: 575f a9c5 8fd2 f8c4 37ed 2dc5 348a 11c5
00000030: 5a0f c6c4 2631 4bc5 824a 69c5 0000 0000
00000040: c277 9bc4 6cab 09c3 3895 61c3 976f 0bc5
00000050: e6c3 60c5 e5bd 48c4 4642 1bc5 06d1 96c4
00000060: e6cb b4c4 9d3f 54c5 0000 0000 29a9 24c3
00000070: f27f d0c3 3961 6ec5 a04e c1c5 1b36 42c5
00000080: 8ef6 13c0 26f8 8dc4 14d8 9dc3 608e 7ec5

exp_avg_sq f4 [1, 36]
113.67096 677272.56 4.560388e+06 2.6738698e+06 786554.5 3.670382e+06 2.5751195e+06 11086.559
1.0645257e+07 1.2762932e+06 3.0607252e+06 1.9154636e+06 873301.1 4.654827e+06 4.7381405e+06 0.0
1.625444e+06 17098.857 81450.555 1.6492024e+06 4.7935065e+06 384909.66 2.3913822e+06 571987.75
841312.5 3.7143672e+06 0.0 54341.766 219826.39 5.026004e+06 1.4970333e+07 3.48598e+06
24.934673 1.077225e+06 33462.047 5.7124225e+06
00000000: 8857 e342 8959 2549 082c 8b4a 3733 234a
00000010: a807 4049 b805 604a 3e2c 1d4a 3c3a 2d46
00000020: 096f 224b 2acc 9b49 d5cf 3a4a 3dd2 e949
00000030: 5235 5549 d60d 8e4a b998 904a 0000 0000
00000040: 206b c649 b795 8546 4715 9f47 9351 c949
00000050: 4549 924a b5f1 bb48 59f5 114a 3ca5 0b49
00000060: 0866 4d49 fdb4 624a 0000 0000 c445 5447
00000070: 99ac 5648 a861 994a dd6d 644b 70c4 544a
00000080: 367a c741 487f 8349 0cb6 0247 4d54 ae4a
