data/policies/Pendulum-v0#default_team_-916.9391546403327#squashedGaussian#200#-916.9391546403327.pt (torch, 21703 bytes, 18 tensors)

weight f4 [24, 3]
-1.0129789 -0.07371673 0.9177565 -1.1967106 -1.0311408 0.79364216 -0.84486276 0.0040049516
-1.3604146 -1.1129287 -0.29740277 1.2210767 -0.19105972 -0.4197334 -1.0182968 -0.77118236
-0.99433655 -0.9216357 -0.34887153 -0.14835112 1.0238622 -1.0770973 0.032555833 -1.1821262
-0.25412202 -1.0929469 -0.81133807 -0.56899667 -0.9753893 1.0726916 -0.5312561 -1.4039145
-1.3710217 -1.0913241 -0.088422075 1.0409002 -1.3970641 -0.3175555 0.7984376 -0.7337019
-0.61892116 0.7980499 -0.31418604 -1.1638808 1.2425561 -0.6472492 -1.4742801 0.77817184
-1.1392701 0.3021715 0.8040451 -0.57993156 -0.96733326 1.3185607 -0.43974876 -1.053655
1.1243824 -1.3837157 -1.4518015 1.2361808 -0.7770645 -1.3496346 -1.3270959 -0.85828173
-0.36820638 0.8018259 -0.9569326 -0.5236101 -1.3806083 -1.2037281 -1.3395303 -1.1031694
00000000: 4ba9 81bf ccf8 96bd 17f2 6a3f d02d 99bf
00000010: 6cfc 83bf 222c 4b3f ed48 58bf f83b 833b
00000020: 1122 aebf 7374 8ebf 2d45 98be 3e4c 9c3f
00000030: 29a5 43be 4ce7 d6be 8d57 82bf 356c 45bf
00000040: d78c 7ebf 51f0 6bbf 4a9f b2be 5be9 17be
00000050: eb0d 833f 53de 89bf 4459 053d e94f 97bf
00000060: 481c 82be afe5 8bbf dab3 4fbf c4a9 11bf
00000070: 1db3 79bf f54d 893f 6600 08bf 78b3 b3bf
00000080: a47d afbf 82b0 8bbf a216 b5bd 383c 853f
00000090: ffd2 b2bf a296 a2be 6866 4c3f e3d3 3bbf
000000a0: 9e71 1ebf 004d 4c3f fedc a0be 0cfa 94bf
000000b0: 140c 9f3f 20b2 25bf 36b5 bcbf 4536 473f
000000c0: 9ad3 91bf 39b6 9a3e e6d5 4d3f 6576 14bf
000000d0: 27a3 77bf 99c6 a83f c026 e1be 2bde 86bf
000000e0: c3eb 8f3f 991d b1bf a2d4 b9bf 2c3b 9e3f
000000f0: b3ed 46bf d4c0 acbf 47de a9bf 5ab8 5bbf
00000100: 8c85 bcbe 7644 4d3f 89f9 74bf 500b 06bf
00000110: c6b7 b0bf c313 9abf bb75 abbf a834 8dbf

bias f4 [24]
0.8479426 1.2230134 1.4526602 0.69601256 0.54223937 0.7650709 1.090355 0.72294885
1.2312242 0.72723716 0.76640224 0.51368123 0.34352687 0.40029106 0.86081564 0.3979753
0.889429 1.3813342 0.816878 1.2298902 1.0899259 1.0181241 1.0198767 1.0241177
00000000: c412 593f b48b 9c3f c5f0 b93f e12d 323f
00000010: 33d0 0a3f b0db 433f c190 8b3f 2d13 393f
00000020: c198 9d3f 372c 3a3f f032 443f 9d80 033f
00000030: c1e2 af3e f3f2 cc3e 6a5e 5c3f 6bc3 cb3e
00000040: 9eb1 633f 8fcf b03f eb1e 513f 0b6d 9d3f
00000050: b182 8b3f e451 823f 528b 823f 4a16 833f

weight f4 [36, 24]
0.5932647 0.72748953 0.9840093 0.84790474 0.6002109 0.70019317 0.84859586 0.94323194
0.8613621 0.51132226 1.0144447 0.49531528 0.55976623 0.6616229 0.7683543 0.7768434
0.66440076 0.6702933 0.8696925 0.83508575 0.8470038 0.6640803 0.9808244 0.7889016
0.65102947 0.831703 1.0074838 0.805521 0.68501604 0.88668275 0.63876516 0.79746187
0.86833197 0.8710224 0.79224396 0.7465815 0.9210161 0.8686931 0.8879407 0.89098436
0.88295704 0.93762094 0.70321554 0.8828693 0.70263034 0.7716645 0.8031199 0.66956913
-0.21070682 -0.20691192 -0.039469376 0.037377056 0.03990934 -0.06688519 0.11941111 0.04016233
-0.1956642 -0.21958512 -0.19463922 0.06839384 0.042384006 -0.20307581 -0.16329785 -0.08671859
-0.1884769 -0.07295725 0.015394496 -0.028541654 -0.13133225 -0.26348144 -0.034403868 -0.0097819595
0.7301228 0.74065876 0.817216 0.91807187 0.98982847 0.86289257 0.7944829 1.1286228
0.88487905 0.7301619 0.87289655 0.80498594 1.0107244 0.737464 0.78325266 0.9599362
1.06029 0.72426593 0.95802927 0.7741039 0.90865535 0.92518497 1.0433701 1.0623461
0.95013237 0.9044621 0.8476016 0.9577372 0.8554512 1.0358697 0.73045254 1.057178
0.96182895 0.884604 0.96046346 0.74568796 0.76207453 0.8162688 0.8616838 0.8219932
1.0757529 0.74722236 0.6895517 1.0098755 1.1202993 0.9948457 0.98849577 0.9869633
-0.03317664 -0.25718924 0.028395373 -0.11591961 0.040380735 -0.018233323 -0.14621127 -0.26426244
-0.10625779 0.16873449 -0.16976264 0.11508387 -0.19884424 -0.055383984 0.16878982 0.091354996
0.009818554 -0.07538664 0.13591683 -0.24201734 -0.106479935 -0.22282799 0.123407245 -0.14719997
0.4547027 0.6514533 0.5925749 0.5566737 0.7887247 0.6745447 0.71347094 0.5719996
0.86836416 0.7934323 0.8056504 0.5072027 0.6642965 0.7318444 0.48055223 0.6651326
0.47221467 0.58592135 0.83794206 0.7777308 0.91281825 0.5308725 0.57032907 0.67848086
0.96365535 0.81434876 0.92242473 0.74580276 0.7108135 0.9284876 0.79584104 0.8444377
0.9235937 0.9150695 0.90178615 0.95476073 0.6460069 0.8379171 0.6375089 0.73497355
0.9857606 0.9623257 0.7385733 1.0046422 0.79845023 0.9963853 0.6427264 0.7995078
-0.22735834 0.09432014 -0.0962522 -0.19752882 -0.21306936 -0.17840886 -0.27270404 0.076322965
0.030109083 -0.01774066 0.07597312 0.0976524 -0.20831463 0.11662482 0.11794608 0.072321534
-0.19460092 -0.24708612 -0.0028408498 0.07467114 -0.17055462 -0.07507237 0.011369616 -0.2710642
-0.16102831 0.08862865 -0.22872186 0.09704938 -0.1632085 0.059599284 -0.13950916 0.108160295
-0.21397568 -0.07464007 -0.103401445 0.112384975 -0.17160137 0.08529141 0.1205467 0.15212804
0.1683782 -0.22896276 0.1339135 -0.09491222 0.040306292 -0.079127006 -0.17642586 0.017847748
0.9887859 0.9712561 0.6824703 0.7864792 0.80034834 0.8358838 0.5850246 0.92995334
0.6776285 0.7109538 0.6222061 0.8136165 0.6105237 0.5675987 0.94527906 0.63937163
00000000: 32e0 173f c13c 3a3f 09e8 7b3f 4910 593f
00000010: 6ca7 193f dc3f 333f 943d 593f a677 713f
00000020: 3a82 5c3f 04e6 023f 53d9 813f f799 fd3e
00000030: d74c 0f3f 1e60 293f deb2 443f 36df 463f
00000040: 2b16 2a3f 5798 2b3f 2ba4 5e3f 2ec8 553f
00000050: 3ed5 583f 2b01 2a3f 4f17 7b3f 75f5 493f
00000060: dea9 263f 7dea 543f 3bf5 803f a036 4e3f
00000070: 365d 2f3f a4fd 623f 1d86 233f 7626 4c3f
00000080: 014b 5e3f 53fb 5e3f 80d0 4a3f f71f 3f3f
00000090: b6c7 6b3f ac62 5e3f 1550 633f 8d17 643f
000000a0: 7909 623f ed07 703f ef05 343f b903 623f
000000b0: 95df 333f ce8b 453f 4499 4d3f e268 2b3f
000000c0: 87c3 57be b8e0 53be a4aa 21bd af18 193d
000000d0: fa77 233d 1afb 88bd d08d f43d 4181 243d
000000e0: 325c 48be ecda 60be 814f 47be 1212 8c3d
000000f0: da9a 2d3d 1bf3 4fbe 8d37 27be 8499 b1bd
00000100: 1700 41be 9c6a 95bd 3239 7c3c 30d0 e9bc
00000110: f67b 06be 0ae7 86be 12eb 0cbd 8344 20bc
00000120: 54e9 3a3f d09b 3d3f 1135 513f c206 6b3f
00000130: 6665 7d3f 87e6 5c3f 3b63 4b3f b676 903f
00000140: 6f87 623f e4eb 3a3f 2676 5f3f 8f13 4e3f
00000150: 6b5f 813f 71ca 3c3f 3f83 483f 61be 753f
00000160: 95b7 873f 7e69 393f 6841 753f ac2b 463f
00000170: a39d 683f ecd8 6c3f 278d 853f f5fa 873f
00000180: e03b 733f d48a 673f 6bfc 583f 442e 753f
00000190: dafe 5a3f 6197 843f f0fe 3a3f 9c51 873f
000001a0: 6c3a 763f 6875 623f efe0 753f 68e5 3e3f
000001b0: 5117 433f fef6 503f 4f97 5c3f 256e 523f
000001c0: 45b2 893f f749 3f3f 7686 303f 9a43 813f
000001d0: f865 8f3f 35ae 7e3f 0f0e 7d3f a0a9 7c3f
000001e0: 3ae4 07bd 4fae 83be 6a9d e83c 4367 edbd
000001f0: 4566 253d 0d5e 95bc 68b8 15be 684d 87be
00000200: af9d d9bd bcc8 2c3e 42d6 2dbe 18b1 eb3d
00000210: d39d 4bbe 51da 62bd 3dd7 2c3e 5418 bb3d
00000220: 00de 203c 5064 9abd c82d 0b3e 65d3 77be
00000230: 2712 dabd 052d 64be f0bc fc3d 97bb 16be
00000240: cbce e83e a5c5 263f fdb2 173f 2b82 0e3f
00000250: dde9 493f f6ae 2c3f 08a6 363f 916e 123f
00000260: 1d4d 5e3f 611e 4b3f 1b3f 4e3f 09d8 013f
00000270: 560f 2a3f 285a 3b3f f10a f63e 2146 2a3f
00000280: 1fc6 f13e f1fe 153f 5f83 563f 5e19 473f
00000290: 75ae 693f 43e7 073f 1601 123f ecb0 2d3f
000002a0: 1eb2 763f 2979 503f 0724 6c3f eeec 3e3f
000002b0: e0f7 353f 5db1 6d3f 3dbc 4b3f 122d 583f
000002c0: a370 6c3f ff41 6a3f 75db 663f 336b 743f
000002d0: b560 253f bc81 563f c933 233f 3a27 3c3f
000002e0: cf5a 7c3f fa5a 763f 2413 3d3f 1e98 803f
000002f0: 3c67 4c3f 1b13 7f3f b889 243f 8bac 4c3f
00000300: a0d0 68be eb2a c13d e01f c5bd ff44 4abe
00000310: db2e 5abe d0b0 36be dd9f 8bbe 374f 9c3d
00000320: 53a7 f63c dc54 91bc cc97 9b3d fbfd c73d
00000330: 6e50 55be fed8 ee3d b78d f13d 501d 943d
00000340: 7745 47be 2504 7dbe 8d2d 3abb 2fed 983d
00000350: dfa5 2ebe 8bbf 99bd a047 3a3c edc8 8abe
00000360: 9be4 24be f082 b53d 1036 6abe d3c1 c63d
00000370: 2120 27be 611e 743d 7ddb 0ebe 2583 dd3d
00000380: 711c 5bbe e5dc 98bd 23c4 d3bd 182a e63d
00000390: 45b8 2fbe 43ad ae3d 30e1 f63d 74c7 1b3e
000003a0: 566b 2c3e 3775 6abe 9f20 093e 5761 c2bd
000003b0: 3618 253d 570d a2bd fba8 34be 7135 923c
000003c0: 1321 7d3f 3da4 783f 60b6 2e3f b356 493f
000003d0: a1e3 4c3f 7bfc 553f 2cc4 153f 6c11 6e3f
000003e0: 1079 2d3f 1101 363f e648 1f3f 2c49 503f
000003f0: 484b 1c3f 264e 113f cffd 713f dcad 233f

bias f4 [36]
0.9492079 0.8152189 -0.050489154 1.142973 1.1480407 -0.184116 0.71723974 0.99272907
-0.22989708 -0.15255798 0.88671553 0.83088446 -0.28969696 1.1704099 -0.13159524 -0.2383697
0.93817633 0.05376427 1.1892933 0.945616 1.0994123 1.0619539 1.0326912 1.1042086
0.74767447 0.8881455 0.9021217 0.8581249 1.194411 1.0345805 0.76743555 -0.006978668
-0.008053466 1.1174816 -0.24376746 0.8484888
00000000: 4aff 723f 30b2 503f b7cd 4ebd f04c 923f
00000010: fff2 923f e888 3cbe 069d 373f 7e23 7e3f
00000020: 246a 6bbe 2938 1cbe caff 623f d8b4 543f
00000030: 2953 94be fecf 953f e7c0 06be 3017 74be
00000040: 532c 703f ec37 5c3d c33a 983f e413 723f
00000050: 8bb9 8c3f 1bee 873f 3a2f 843f b556 8d3f
00000060: 9867 3f3f 815d 633f 73f1 663f 13ae 5b3f
00000070: 76e2 983f 226d 843f a876 443f 4fad e4bb
00000080: aff2 03bc a309 8f3f 2d9e 79be 9036 593f

weight f4 [1, 36]
0.96637917 0.7978689 0.015468447 0.9914195 1.0889347 0.061474238 0.7953981 0.7904843
-0.025870588 0.069907025 0.7861606 0.84911615 -0.1942025 1.0094988 -0.23633608 0.12448105
1.1068335 -0.17822698 1.0800744 0.9336541 0.9920677 1.0334367 0.8380162 1.0310156
0.85596454 0.8525793 1.0049336 0.7401976 1.0827799 0.90840304 0.96901584 0.08432619
-0.14163922 1.0087508 -0.001339717 1.1132339
00000000: a064 773f 2341 4c3f 5e6f 7d3c abcd 7d3f
00000010: 3662 8b3f 69cc 7b3d 369f 4b3f 2e5d 4a3f
00000020: 8eee d3bc 6a2b 8f3d d241 493f ad5f 593f
00000030: 05dd 46be 4237 813f 1602 72be ecef fe3d
00000040: b8ac 8d3f 2281 36be e13f 8a3f f503 6f3f
00000050: 26f8 7d3f a747 843f 3b88 563f 52f8 833f
00000060: 7e20 5b3f a342 5a3f aaa1 803f 977d 3d3f
00000070: 8898 8a3f 1a8d 683f 6c11 783f 36b3 ac3d
00000080: df09 11be bf1e 813f 7199 afba 737e 8e3f

weight f4 [1, 36]
0.12618414 0.2592642 -0.025999153 0.19616006 0.3055158 -0.025245981 -0.14817852 0.25013086
-0.0054443926 -0.07391021 0.25009027 0.25091657 0.009700778 0.28021604 0.009536479 0.081480674
0.23460144 0.0030440658 0.26514554 0.1459745 0.23199037 0.18214256 0.23621972 0.21454108
0.17760308 0.21275781 0.24286532 0.343126 0.23696439 0.20515658 0.056968637 -0.016607631
-0.045337375 0.20682885 0.084802836 0.24474485
00000000: 6a36 013e 47be 843e 2dfc d4bc 2fde 483e
00000010: 916c 9c3e a9d0 cebc 1cbc 17be 2711 803e
00000020: e066 b2bb 3c5e 97bd d50b 803e 2378 803e
00000030: 03f0 1e3c 7a78 8f3e e43e 1c3c 57df a63d
00000040: 5c3b 703e f37e 473b 28c1 873e 577a 153e
00000050: e28e 6d3e 9483 3a3e 95e3 713e a8b0 5b3e
00000060: 95dd 353e 2fdd 593e b0b1 783e 36ae af3e
00000070: cba6 723e 9114 523e f257 693d ba0c 88bc
00000080: afb3 39bd f1ca 533e 1cad ad3d 659e 7a3e

exp_avg f4 [24, 3]
6.3751975e+06 2.0813508e+06 -6.5750384e+07 6.797868e+06 2.6073285e+06 -6.6665388e+07 6.123216e+06 1.7617768e+06
1.0431163e+07 5.999454e+06 1.9675538e+06 -6.2427052e+07 4.421889e+06 1.4192095e+06 1.0492151e+07 5.8513925e+06
1.9288145e+06 9.871575e+06 5.8502665e+06 1.9886556e+06 -6.1002868e+07 6.4442095e+06 1.781747e+06 1.1122645e+07
6.437732e+06 2.362768e+06 1.0272613e+07 5.6566125e+06 2.0236115e+06 -5.9151884e+07 5.8978935e+06 1.9209764e+06
1.0334543e+07 5.9335085e+06 1.8901365e+06 -6.150273e+07 6.5947405e+06 2.1109395e+06 -6.734014e+07 5.4363985e+06
1.8684266e+06 -5.6410304e+07 5.9187865e+06 2.159995e+06 -6.2841084e+07 5.977363e+06 2.36871e+06 -6.216831e+07
6.549113e+06 1.9883488e+06 -6.6304612e+07 6.064199e+06 2.187409e+06 -6.3239984e+07 5.871234e+06 2.1173575e+06
-6.1554836e+07 6.595847e+06 2.4316378e+06 -6.760683e+07 5.974736e+06 1.959652e+06 1.0199625e+07 6.55497e+06
2.2592348e+06 -6.705976e+07 6.2075115e+06 1.8620716e+06 1.0755854e+07 6.1411935e+06 2.0441455e+06 1.0051826e+07
00000000: 3b8e c24a 3612 fe49 5cd1 7acc 5874 cf4a
00000010: 8223 1f4a eb4e 7ecc a0dd ba4a 860f d749
00000020: bb2a 1f4b bc16 b74a 0e2e f049 eb23 6ecc
00000030: 02f2 864a 4c3e ad49 f718 204b 0192 b24a
00000040: 7473 eb49 d7a0 164b 3589 b24a 7dc1 f249
00000050: 1db5 68cc 63a9 c44a 987f d949 d5b7 294b
00000060: c876 c44a 4036 104a 65bf 1c4b 49a0 ac4a
00000070: dc05 f749 83a5 61cc 4bfd b34a 837e ea49
00000080: 4fb1 1d4b 8913 b54a c4ba e649 429d 6acc
00000090: 6941 c94a 6ed7 004a ee70 80cc dde7 a54a
000000a0: 5514 e449 3030 57cc 85a0 b44a ecd5 034a
000000b0: 3fb8 6fcc 266a b64a 1893 104a 3e27 6dcc
000000c0: f2dc c74a e6b7 f249 99ee 7ccc 8e10 b94a
000000d0: 4482 054a cc3d 71cc 042d b34a b63b 014a
000000e0: 25d0 6acc 0e4a c94a 576a 144a 26f3 80cc
000000f0: a055 b64a 2037 ef49 49a2 1b4b b40a c84a
00000100: 8be4 094a 0cd0 7fcc 2f70 bd4a bd4d e349
00000110: 0e1f 244b 136a bb4a 8c87 f949 f260 194b

exp_avg_sq f4 [24, 3]
1.3147283e+12 9.784189e+10 1.9805613e+14 1.4996777e+12 1.549775e+11 2.1114962e+14 1.4693443e+12 9.157651e+10
5.159898e+12 1.1691e+12 8.712826e+10 1.77821e+14 6.99283e+11 5.5068733e+10 4.3206792e+12 1.354387e+12
1.0399158e+11 4.6581636e+12 1.1206175e+12 8.836473e+10 1.7021561e+14 1.6180457e+12 9.57198e+10 5.834088e+12
1.6653872e+12 1.5205356e+11 5.1409574e+12 1.05238384e+12 9.153918e+10 1.600633e+14 1.3835258e+12 1.03260045e+11
5.0086947e+12 1.1379764e+12 8.0932364e+10 1.7255942e+14 1.3900522e+12 1.012966e+11 2.0777837e+14 9.638837e+11
7.853629e+10 1.4528457e+14 1.150578e+12 1.0384624e+11 1.8055165e+14 1.1777195e+12 1.2619876e+11 1.7871082e+14
1.3724489e+12 9.094685e+10 2.0261156e+14 1.209167e+12 1.0671303e+11 1.8356742e+14 1.135499e+12 9.998219e+10
1.7347963e+14 1.4198876e+12 1.3381963e+11 2.1143438e+14 1.4168908e+12 1.07341775e+11 4.9434193e+12 1.396097e+12
1.1497397e+11 2.0740261e+14 1.5176217e+12 1.0005447e+11 5.4602136e+12 1.4839269e+12 1.16927455e+11 4.93407e+12
00000000: f50d 9953 a63e b651 8921 3457 e195 ae53
00000010: 8455 1052 1a0a 4057 df0d ab53 1593 aa51
00000020: 3c2c 9654 e519 8853 fe49 a251 2eba 2157
00000030: 84d0 2253 a325 4d51 237f 7b54 e1ab 9d53
00000040: 0db3 c151 0692 8754 0175 8253 9697 a451
00000050: 69cf 1a57 855d bc53 c24a b251 58cb a954
00000060: 68e0 c153 659c 0d52 1e9f 9554 f706 7553
00000070: 4881 aa51 a493 1157 4810 a153 3a56 c051
00000080: afc5 9154 577a 8453 8fbf 9651 1ff1 1c57
00000090: c9d2 a153 fcad bc51 2cf9 3c57 f26b 6053
000000a0: 0549 9251 b322 0457 e6f1 8553 bf6d c151
000000b0: f535 2457 c71a 8953 4210 eb51 5b89 2257
000000c0: 2ac6 9f53 d666 a951 2e46 3857 fcc3 8c53
000000d0: bdc4 c651 1ff4 2657 8230 8453 393b ba51
000000e0: 60c7 1d57 f34b a553 2c42 f951 674c 4057
000000f0: a3f2 a453 8cf0 c751 58df 8f54 ef86 a253
00000100: dc27 d651 afa1 3c57 a7ac b053 b05d ba51
00000110: c3e9 9e54 78c0 ac53 5bcb d951 b099 8f54

exp_avg f4 [24]
-1.5764762e+07 -1.6946096e+07 -7.932659e+06 -1.4829066e+07 -5.9372215e+06 -7.6712595e+06 -1.4642619e+07 -8.1649705e+06
-8.812624e+06 -1.418919e+07 -7.6940405e+06 -1.4577774e+07 -1.6044212e+07 -1.3466803e+07 -1.5006258e+07 -1.5099795e+07
-1.600955e+07 -1.5284264e+07 -1.4779892e+07 -1.6518423e+07 -7.827929e+06 -1.6321663e+07 -7.9915545e+06 -8.0627515e+06
00000000: 1a8d 70cb d849 81cb e615 f2ca 0a46 62cb
00000010: 8b30 b5ca b71b eaca bb6d 5fcb d52c f9ca
00000020: 5078 06cb 8682 58cb b1cd eaca 6e70 5ecb
00000030: b4d0 74cb b37c 4dcb 32fa 64cb 9367 66cb
00000040: 4e49 74cb 2838 69cb f485 61cb 170d 7ccb
00000050: b2e3 eeca 7f0c 79cb 05e2 f3ca 3f0e f6ca

exp_avg_sq f4 [24]
6.0520053e+12 6.7325447e+12 1.9238841e+12 5.3961687e+12 1.0058215e+12 1.7960099e+12 5.2071576e+12 2.0735932e+12
2.2965642e+12 4.89392e+12 1.819279e+12 5.225053e+12 6.301828e+12 4.428317e+12 5.4871793e+12 5.4952057e+12
6.219929e+12 5.6421316e+12 5.304851e+12 6.547827e+12 1.8737377e+12 6.411124e+12 1.9719158e+12 1.9771991e+12
00000000: f422 b054 5ef1 c354 37f8 df53 970c 9d54
00000010: a22f 6a53 4415 d153 598c 9754 e565 f153
00000020: 79ad 0554 8c6e 8e54 bdca d353 ae11 9854
00000030: 4768 b754 88e1 8054 acb2 9f54 79ee 9f54
00000040: 1506 b554 2835 a454 3864 9a54 1d91 be54
00000050: bc21 da53 9996 ba54 ac8f e553 202d e653

exp_avg f4 [36, 24]
-4.0373585e+06 -4.1033558e+06 -1.4650724e+06 -5.087391e+06 -767094.7 -1.0281054e+06 -4.421223e+06 -1.1504432e+06
-1.0153831e+06 -4.4584765e+06 -1.2354426e+06 -4.23065e+06 -3.3180362e+06 -3.1696608e+06 -5.140159e+06 -3.1744582e+06
-3.6577355e+06 -5.9445965e+06 -4.693793e+06 -5.846696e+06 -1.4097559e+06 -3.740606e+06 -1.3862715e+06 -1.3963122e+06
-3.2579672e+06 -3.3124435e+06 -1.18646e+06 -4.1026775e+06 -621697.8 -833154.75 -3.5660468e+06 -931933.6
-822876.5 -3.5962455e+06 -1.0005078e+06 -3.4130238e+06 -2.6792488e+06 -2.5590198e+06 -4.1444812e+06 -2.5632105e+06
-2.9526218e+06 -4.7928685e+06 -3.7855072e+06 -4.7155055e+06 -1.1417228e+06 -3.0194175e+06 -1.1226659e+06 -1.131046e+06
0.020413121 0.042073723 0.005008743 0.07788119 0.0 0.0 0.04649556 0.00086331356
0.0 0.017178707 0.0 0.03790645 0.009059852 0.01641707 0.035730418 0.0
0.02173692 0.082716465 0.028714271 0.09916251 0.0 0.011330759 0.00062992616 0.00044696816
-4.159533e+06 -4.227292e+06 -1.5087258e+06 -5.241938e+06 -789845.4 -1.0585935e+06 -4.5553805e+06 -1.1846561e+06
-1.0454849e+06 -4.593738e+06 -1.2722641e+06 -4.3588745e+06 -3.4180452e+06 -3.265275e+06 -5.29647e+06 -3.270156e+06
-3.7681992e+06 -6.1254495e+06 -4.836318e+06 -6.024248e+06 -1.4517476e+06 -3.8535968e+06 -1.4275751e+06 -1.4378369e+06
-4.6173095e+06 -4.691786e+06 -1.6723242e+06 -5.820519e+06 -875183.7 -1.1730034e+06 -5.0577855e+06 -1.3129361e+06
-1.1584561e+06 -5.1002825e+06 -1.4102251e+06 -4.839171e+06 -3.793102e+06 -3.6238175e+06 -5.881537e+06 -3.6290422e+06
-4.182276e+06 -6.802261e+06 -5.369961e+06 -6.688906e+06 -1.6091286e+06 -4.277122e+06 -1.5823624e+06 -1.5935595e+06
0.0029783875 0.015225304 0.14066675 0.000534628 0.0010440418 0.020112934 0.0016418134 0.0721206
0.00040103687 0.0 0.046879493 0.00018523305 0.0 0.0 0.0 0.0
0.015573145 0.00027730069 0.0 1.4179619e-05 0.07360016 0.0036089967 0.11496669 0.062320065
-3.2387922e+06 -3.2930308e+06 -1.1795702e+06 -4.0782455e+06 -618125.44 -828399.1 -3.5448918e+06 -926554.2
-818185.6 -3.5749205e+06 -994678.0 -3.392847e+06 -2.6636692e+06 -2.544114e+06 -4.1197288e+06 -2.5483e+06
-2.9353475e+06 -4.76419e+06 -3.763e+06 -4.6874215e+06 -1.1350994e+06 -3.0017392e+06 -1.1161439e+06 -1.124536e+06
-3.2232392e+06 -3.2772102e+06 -1.1740806e+06 -4.0587752e+06 -615247.5 -824499.5 -3.5279278e+06 -922228.94
-814330.06 -3.5578148e+06 -990072.6 -3.3765858e+06 -2.6508038e+06 -2.531827e+06 -4.1000862e+06 -2.5359935e+06
-2.9212122e+06 -4.7415095e+06 -3.7450182e+06 -4.6650715e+06 -1.129815e+06 -2.9872912e+06 -1.1109545e+06 -1.1192605e+06
0.005959287 0.048543613 0.23268956 0.038413696 0.006303882 0.040458325 0.018942581 0.12285689
0.0034852275 0.013711353 0.10794223 0.013021445 0.0021792892 0.0066630393 0.027792238 0.0
0.013500851 0.054759633 0.022069326 0.07390004 0.14962694 0.0057039866 0.2000921 0.12732571
0.0 0.0041932226 0.0014944155 0.0 0.0 0.0010025261 0.0 0.0
0.0011474305 0.0 0.001271796 0.0 0.0 0.0 0.0 0.0
0.0 0.0016080149 0.0 0.0065142214 0.0055467715 0.0 0.0009181067 0.006447092
-3.2011378e+06 -3.2547972e+06 -1.1661946e+06 -4.0307905e+06 -611141.25 -818999.44 -3.5036412e+06 -916051.3
-808900.1 -3.53333e+06 -983418.75 -3.3533802e+06 -2.6327292e+06 -2.5145448e+06 -4.071774e+06 -2.5186982e+06
00000000: ba6b 76ca ef72 7aca 83d7 b2c9 3e41 9bca
00000010: 6b47 3bc9 9600 7bc9 ceec 86ca 5a6f 8cc9
00000020: 72e5 77c9 d90f 88ca 95cf 96c9 f41b 81ca
00000030: 5184 4aca f375 41ca 7edd 9cca e9c0 41ca
00000040: 1e40 5fca 296a b5ca 423e 8fca 506d b2ca
00000050: df16 acc9 f84e 64ca fc38 a9c9 c272 aac9
00000060: bdd9 46ca ee2c 4aca e0d4 90c9 5668 7aca
00000070: 1dc8 17c9 2c68 4bc9 7ba7 59ca da85 63c9
00000080: c8e5 48c9 567f 5bca bd43 74c9 7f50 50ca
00000090: 4387 23ca af30 1cca 85f5 7cca 2a72 1cca
000000a0: b736 34ca 4944 92ca 8d0c 67ca e3e7 8fca
000000b0: d65e 8bc9 664a 38ca 4f0b 89c9 3011 8ac9
000000c0: 6b39 a73c 7f55 2c3d 6220 a43b 2c80 9f3d
000000d0: 0000 0000 0000 0000 2172 3e3d fe4f 623a
000000e0: 0000 0000 5cba 8c3c 0000 0000 cb43 1b3d
000000f0: c66f 143c 177d 863c 0f5a 123d 0000 0000
00000100: a011 b23c 4067 a93d 313a eb3c b715 cb3d
00000110: 0000 0000 a6a4 393c a121 253a 0d57 ea39
00000120: b4e0 7dca b801 81ca ae2b b8c9 a4f8 9fca
00000130: 56d5 40c9 0c39 81c9 e904 8bca 819c 90c9
00000140: ce3e 7fc9 9430 8cca 414e 9bc9 b505 85ca
00000150: f59e 50ca ec4b 47ca aca2 a1ca 3098 47ca
00000160: 1dfe 65ca 13ef baca bc97 93ca 70d8 b7ca
00000170: 1d37 b1c9 7334 6bca b943 aec9 6784 afc9
00000180: bbe8 8cca 942e 8fca 2224 ccc9 cea0 b1ca
00000190: fbaa 55c9 5b30 8fc9 f359 9aca 4145 a0c9
000001a0: c169 8dc9 f5a5 9bca 8925 acc9 06ae 93ca
000001b0: 3883 67ca 262e 5dca 827d b3ca c97f 5dca
000001c0: 1044 7fca aa96 cfca d2e0 a3ca 1421 ccca
000001d0: 456d c4c9 0487 82ca d328 c1c9 bc86 c2c9
000001e0: 0d31 433b 8e73 793c f20a 103e 4726 0c3a
000001f0: 3bd8 883a e1c3 a43c 1e32 d73a f7b3 933d
00000200: 4242 d239 0000 0000 b604 403d 1e3b 4239
00000210: 0000 0000 0000 0000 0000 0000 0000 0000
00000220: 8126 7f3c ab62 9139 0000 0000 00e5 6d37
00000230: aebb 963d eb84 6c3b a873 eb3d 5343 7f3d
00000240: 21ae 45ca 9bfd 48ca 92fd 8fc9 96ea 78ca
00000250: d7e8 16c9 f23e 4ac9 ef5c 58ca a335 62c9
00000260: 9ac0 47c9 2232 5aca 60d7 72c9 3c15 4fca
00000270: d593 22ca c847 1bca c372 7bca 3089 1bca
00000280: ce28 33ca 3c64 91ca e0ac 65ca 7b0c 8fca
00000290: db8f 8ac9 2d36 37ca 7f3f 88c9 c045 89c9
000002a0: 1dbb 44ca 6906 48ca 0552 8fc9 5dba 77ca
000002b0: f834 16c9 384b 49c9 df53 57ca 4f27 61c9
000002c0: a1cf 46c9 db26 59ca 8ab7 71c9 2717 4eca
000002d0: cfca 21ca cc87 1aca d93f 7aca e6c8 1aca
000002e0: f14b 32ca 0bb3 90ca e993 64ca df5d 8eca
000002f0: b8ea 89c9 6d54 36ca 549d 87c9 e4a0 88c9
00000300: 1f46 c33b abd5 463d 2c46 6e3e ae57 1d3d
00000310: cc90 ce3b a1b7 253d 792d 9b3c 659c fb3d
00000320: 6a68 643b 95a5 603c d110 dd3d e657 553c
00000330: 68d2 0e3b a055 da3b 8cac e33c 0000 0000
00000340: ac32 5d3c a34b 603d bbca b43c e758 973d
00000350: ce37 193e 82e8 ba3b f2e4 4c3e ac61 023e
00000360: 0000 0000 4d67 893b 43e0 c33a 0000 0000
00000370: 0000 0000 3267 833a 0000 0000 0000 0000
00000380: 6165 963a 0000 0000 64b2 a63a 0000 0000
00000390: 0000 0000 0000 0000 0000 0000 0000 0000
000003a0: 0000 0000 07c4 d23a 0000 0000 4075 d53b
000003b0: b1c1 b53b 0000 0000 19ad 703a 2142 d33b
000003c0: c761 43ca 35a8 46ca 955b 8ec9 1a05 76ca
000003d0: 5434 15c9 77f3 47c9 65d8 55ca 35a5 5fc9
000003e0: 427c 45c9 48a8 57ca ac17 70c9 91ac 4cca
000003f0: 65b0 20ca c379 19ca 7885 78ca a9ba 19ca

exp_avg_sq f4 [36, 24]
5.804421e+11 5.299746e+11 5.9000246e+10 9.7143004e+11 1.8433642e+10 2.8683469e+10 7.507749e+11 3.6649066e+10
2.786996e+10 7.539159e+11 4.4546916e+10 6.681015e+11 3.743282e+11 3.7054107e+11 1.03613157e+12 3.5847907e+11
4.5910363e+11 1.3178182e+12 8.453805e+11 1.170568e+12 5.4986945e+10 4.7970288e+11 5.3466276e+10 5.2407583e+10
3.766417e+11 3.4420752e+11 3.861106e+10 6.289528e+11 1.2095535e+10 1.882027e+10 4.8649336e+11 2.4011747e+10
1.8290905e+10 4.88586e+11 2.9158201e+10 4.3319843e+11 2.4348176e+11 2.4096093e+11 6.706155e+11 2.331999e+11
2.9825978e+11 8.523543e+11 5.4759214e+11 7.576781e+11 3.5993244e+10 3.1159062e+11 3.499343e+10 3.4327495e+10
653.3984 2775.7551 39.338425 9510.961 0.0 0.0 3389.8638 1.1686813
0.0 462.7434 0.0 2253.1262 128.70677 422.62018 2001.869 0.0
740.8928 10728.613 1292.8694 15418.943 0.0 201.31563 0.62221277 0.31326547
6.165021e+11 5.628139e+11 6.2602506e+10 1.0322023e+12 1.9549245e+10 3.0418008e+10 7.976169e+11 3.8877553e+10
2.955383e+10 8.009384e+11 4.726602e+10 7.097035e+11 3.9740765e+11 3.934012e+11 1.1010176e+12 3.8057165e+11
4.8752e+11 1.4005273e+12 8.981889e+11 1.2438755e+12 5.8341413e+10 5.094098e+11 5.6729702e+10 5.559542e+10
7.611567e+11 6.945896e+11 7.702805e+10 1.275717e+12 2.402107e+10 3.73772e+10 9.854002e+11 4.78076e+10
3.6311e+10 9.894513e+11 5.8151027e+10 8.765304e+11 4.901042e+11 4.8521232e+11 1.3609767e+12 4.6931237e+11
6.015795e+11 1.7317622e+12 1.1098451e+12 1.5375451e+12 7.177568e+10 6.286387e+11 6.9797536e+10 6.837459e+10
4.6877584 192.5577 14873.181 0.44819054 1.1804767 451.26306 2.1335425 3937.2156
0.11239879 0.0 2328.3718 0.053801727 0.0 0.0 0.0 0.0
130.51797 0.12057613 0.0 0.00031527446 5061.461 6.364288 10806.191 3653.2017
3.7216433e+11 3.4014272e+11 3.8155457e+10 6.213244e+11 1.195509e+10 1.8604714e+10 4.8063896e+11 2.3731456e+10
1.8082044e+10 4.8271154e+11 2.88126e+10 4.2801506e+11 2.4065045e+11 2.3815468e+11 6.624586e+11 2.3049164e+11
2.947519e+11 8.419188e+11 5.40979e+11 7.484556e+11 3.556926e+10 3.0791995e+11 3.4580312e+10 3.392876e+10
3.6858538e+11 3.3686454e+11 3.780593e+10 6.1541076e+11 1.1845518e+10 1.8430937e+10 4.7604446e+11 2.3512859e+10
1.7912793e+10 4.7809597e+11 2.8550758e+10 4.2391182e+11 2.3831074e+11 2.3583991e+11 6.561622e+11 2.282491e+11
2.9190232e+11 8.339468e+11 5.3581808e+11 7.413508e+11 3.5243295e+10 3.0494586e+11 3.426406e+10 3.3613437e+10
41.392723 1986.3684 23080.807 1455.6608 22.226694 810.2339 363.02585 6181.6426
5.967764 171.96126 4822.544 185.92235 7.2045436 51.20665 709.9348 0.0
130.42218 2795.6252 467.43588 5075.1924 10008.868 29.899843 17501.299 7835.2393
0.0 27.571152 3.5018854 0.0 0.0 1.5759804 0.0 0.0
2.0644853 0.0 2.5362625 0.0 0.0 0.0 0.0 0.0
0.0 4.054519 0.0 66.54029 48.243607 0.0 1.3217387 65.17593
3.634997e+11 3.3223285e+11 3.729599e+10 6.0683944e+11 1.1687341e+10 1.81854e+10 4.694378e+11 2.31973e+10
1.767444e+10 4.714638e+11 2.8165497e+10 4.180444e+11 2.3505578e+11 2.326159e+11 6.470104e+11 2.2513335e+11
00000000: 0c25 0753 e5c9 f652 05cb 5b51 be2d 6253
00000010: 6257 8950 60b5 d550 accd 2e53 4687 0851
00000020: bba5 cf50 e488 2f53 40f3 2551 f48d 1b53
00000030: 664f ae52 f08b ac52 413e 7153 09ee a652
00000040: 6bc9 d552 0b6a 9953 9bd4 4453 a545 8853
00000050: a3d7 4c51 0a61 df52 6a2d 4751 c43b 4351
00000060: 3163 af52 bc48 a052 60d6 0f51 8270 1253
00000070: ce3c 3450 d138 8c50 878a e252 c6e6 b250
00000080: 2247 8850 fd83 e352 db3e d950 47b9 c952
00000090: 93c2 6252 9069 6052 cc23 1c53 302f 5952
000000a0: 56e3 8a52 4674 4653 12fe fe52 2269 3053
000000b0: d515 0651 7f18 9152 565c 0251 80c2 ff50
000000c0: 7f59 2344 157c 2d45 8c5a 1d42 d89b 1446
000000d0: 0000 0000 0000 0000 d2dd 5345 5997 953f
000000e0: 0000 0000 285f e743 0000 0000 05d2 0c45
000000f0: efb4 0043 624f d343 cf3b fa44 0000 0000
00000100: 2439 3944 74a2 2746 d29b a144 c6eb 7046
00000110: 0000 0000 cd50 4943 5649 1f3f 5564 a03e
00000120: 648a 0f53 530a 0353 6736 6951 0d54 7053
00000130: 3aa7 9150 bfa1 e250 acb5 3953 86d4 1051
00000140: 7531 dc50 a67b 3a53 6414 3051 a03d 2553
00000150: af0e b952 1431 b752 e22c 8053 ad37 b152
00000160: ea04 e352 f70a a353 3b20 5153 61ce 9053
00000170: b556 5951 6136 ed52 a955 5351 ed1b 4f51
00000180: 7a38 3153 c4b8 2153 d679 8f51 5483 9453
00000190: 8ef8 b250 ad3d 0b51 6e6e 6553 e118 3251
000001a0: de44 0751 e55f 6653 24a1 5851 4815 4c53
000001b0: f938 e452 d1f1 e152 4470 9e53 658a da52
000001c0: ef10 0c53 899a c953 f633 8153 6afe b253
000001d0: 50b1 8551 c95d 1253 0f02 8251 17b7 7e51
000001e0: 1e02 9640 c58e 4043 b964 6846 3b79 e53e
000001f0: dc19 973f aca1 e143 f68b 0840 7313 7645
00000200: 5631 e63d 0000 0000 f385 1145 335f 5c3d
00000210: 0000 0000 0000 0000 0000 0000 0000 0000
00000220: 9a84 0243 9ef0 f63d 0000 0000 6c4b a539
00000230: b02b 9e45 3fa8 cb40 c4d8 2846 3a53 6445
00000240: 724d ad52 2c64 9e52 e123 0e51 d2a9 1053
00000250: 0d25 3250 ad9d 8a50 a1d0 df52 29d0 b050
00000260: c3b8 8650 b3c7 e052 acab d650 5f4f c752
00000270: 8a1f 6052 80cc 5d52 9c3d 1a53 7da9 5652
00000280: 2a41 8952 4506 4453 b9e9 fb52 6e43 2e53
00000290: 7d81 0451 eb62 8f52 5bd2 0051 f9c9 fc50
000002a0: cda2 ab52 62dd 9c52 8bd6 0c51 5749 0f53
000002b0: 1183 3050 3952 8950 ecac dd52 382f af50
000002c0: f175 8550 7ba1 de52 40b8 d450 3a66 c552
000002d0: b5f1 5d52 9ea4 5b52 51c6 1853 d392 5452
000002e0: 78ed 8752 1a2b 4253 7e82 f952 f39b 2c53
000002f0: a04a 0351 6100 8e52 8249 ff50 8b70 fa50
00000300: 2692 2542 ca4b f844 9d51 b446 25f5 b544
00000310: 45d0 b141 f88e 4a44 4f83 b543 242d c145
00000320: ecf7 be40 15f6 2b43 5ab4 9645 1fec 3943
00000330: 9f8b e640 9cd3 4c42 d47b 3144 0000 0000
00000340: 146c 0243 01ba 2e45 cbb7 e943 8a99 9e45
00000350: 7963 1c46 e132 ef41 99ba 8846 ead9 f445
00000360: 0000 0000 b891 dc41 e41e 6040 0000 0000
00000370: 0000 0000 bab9 c93f 0000 0000 0000 0000
00000380: 8720 0440 0000 0000 2052 2240 0000 0000
00000390: 0000 0000 0000 0000 0000 0000 0000 0000
000003a0: 0000 0000 9fbe 8140 0000 0000 a114 8542
000003b0: 74f9 4042 0000 0000 bc2e a93f 135a 8242
000003c0: 8a44 a952 3eb5 9a52 3af0 0a51 734a 0d53
000003d0: ab27 2e50 e67d 8750 5999 da52 57d5 ac50
000003e0: 52af 8350 dd8a db52 6cd9 d150 c7aa c252
000003f0: aae9 5a52 f4a3 5852 d3a4 1653 f9ab 5152

exp_avg f4 [36]
-1.0173499e+06 -820500.56 0.048456594 -1.0483209e+06 -1.1640624e+06 0.06401269 -815521.9 -811718.9
0.12397492 0.007291927 -806102.8 -880642.44 0.052206267 -1.0702254e+06 0.05549269 0.15090668
-1.1840615e+06 0.3249142 -1.153909e+06 -980589.3 -1.0495974e+06 -1.0980351e+06 -867866.94 -1.0960541e+06
-888667.1 -883406.2 -1.062745e+06 -752147.7 -1.156669e+06 -950652.0 -1.0186384e+06 0.39837986
0.010616866 -1.0697842e+06 14.840289 -1.1912829e+06
00000000: 5e60 78c9 4951 48c9 6c7a 463d 0ef0 7fc9
00000010: f318 8ec9 1619 833d 1e1a 47c9 6e2c 46c9
00000020: 90e6 fd3d 1ef1 ee3b 6dcd 44c9 2700 57c9
00000030: 3dd6 553d 8ba4 82c9 4e4c 633d 4887 1a3e
00000040: ec89 90c9 275b a63e a8db 8cc9 d566 6fc9
00000050: eb1f 80c9 9909 86c9 afe1 53c9 b1cb 85c9
00000060: b2f5 58c9 e3ac 57c9 c8ba 81c9 3ba1 37c9
00000070: e831 8dc9 c017 68c9 e6b0 78c9 72f8 cb3e
00000080: 5df2 2d3c c296 82c9 d371 6d41 976b 91c9

exp_avg_sq f4 [36]
2.2478395e+10 1.4507494e+10 3681.8406 2.3904066e+10 2.9596125e+10 2927.545 1.4322349e+10 1.419207e+10
8768.225 83.37651 1.3990907e+10 1.6756238e+10 1413.9982 2.493768e+10 2290.3374 6034.0537
3.0631326e+10 35864.984 2.9075024e+10 2.0864082e+10 2.3967093e+10 2.6272262e+10 1.626629e+10 2.6182822e+10
1.7068862e+10 1.685749e+10 2.456856e+10 1.215034e+10 2.9213198e+10 1.9584807e+10 2.2529341e+10 55790.81
126.95337 2.4919216e+10 4167.6455 3.1010542e+10
00000000: 237a a750 b32d 5850 731d 6645 6319 b250
00000010: 2182 dc50 b8f8 3645 6d6b 5550 737a 5350
00000020: e600 0946 c6c0 a642 137b 5050 faaf 7950
00000030: f1bf b044 dacc b950 6625 0f45 6e90 bc45
00000040: 9e38 e450 fc18 0c47 35a0 d850 1473 9b50
00000050: 9a91 b250 5dbe c350 f962 7250 c513 c350
00000060: 8b58 7e50 3932 7b50 cf0c b750 de0d 3550
00000070: c1a7 d950 0eeb 9150 4fdb a750 cfee 5947
00000080: 20e8 fd42 a2a9 b950 2a3d 8245 ea0b e750

exp_avg f4 [1, 36]
-5.7153572e+07 -6.4613668e+07 0.0029188602 -6.788988e+07 -7.048345e+07 -0.0060035908 -4.890824e+07 -6.759727e+07
-0.008416887 -0.000121512734 -6.4071544e+07 -6.8371304e+07 0.0003284654 -6.699975e+07 0.0061214208 -0.39810243
-6.4258344e+07 0.028268527 -6.906939e+07 -6.4338052e+07 -6.6929252e+07 -6.761193e+07 -6.387265e+07 -6.5937936e+07
-6.6900496e+07 -6.4833388e+07 -6.443591e+07 -6.179955e+07 -6.8945416e+07 -6.942856e+07 -4.1409308e+07 -0.03796816
0.00027551694 -7.054337e+07 -2.1098444 -6.2123124e+07
00000000: 0906 5acc 497b 76cc 594a 3f3b 5b7d 81cc
00000010: bf6f 86cc c5b9 c4bb f491 3acc 7bee 80cc
00000020: fce6 09bc a7d4 feb8 de69 74cc 6d68 82cc
00000030: e135 ac39 7295 7fcc 3396 c83b 15d4 cbbe
00000040: 4a20 75cc 6693 e73c 4abd 83cc 216e 75cc
00000050: 9950 7fcc a3f5 80cc a2a7 73cc 8488 7bcc
00000060: 8434 7fcc db51 77cc b2cd 75cc 20bf 6bcc
00000070: c180 83cc aa6c 84cc c7f6 1dcc 8084 1bbd
00000080: 4273 9039 018d 86cc b107 07c0 1dfb 6ccc

exp_avg_sq f4 [1, 36]
8.99265e+13 1.2100057e+14 13.359367 1.29367796e+14 1.39277845e+14 28.293911 6.700167e+13 1.3246419e+14
43.68889 0.023152761 1.1805652e+14 1.340065e+14 0.14343502 1.26833396e+14 34.725334 35323.867
1.1347174e+14 459.4993 1.3452887e+14 1.1776316e+14 1.2671675e+14 1.2791068e+14 1.17638684e+14 1.23366745e+14
1.2803242e+14 1.1789495e+14 1.1363254e+14 1.108803e+14 1.3308373e+14 1.3728203e+14 4.602052e+13 1130.5322
0.10306036 1.4165086e+14 84.23778 1.0542801e+14
00000000: 4a93 a356 4819 dc56 f8bf 5541 9351 eb56
00000010: 4d58 fd56 ee59 e241 2bc0 7356 72f3 f056
00000020: 6cc1 2e42 dcaa bd3c 5abe d656 a4c1 f356
00000030: a1e0 123e 67b5 e656 bee6 0a42 defb 0947
00000040: 6667 ce56 e9bf e543 e3b4 f456 bf35 d656
00000050: 167f e656 0dab e856 c8fb d556 1e67 e056
00000060: bee3 e856 1d73 d656 46b2 ce56 aab0 c956
00000070: f113 f256 edb6 f956 f36b 2756 0851 8d44
00000080: 4f11 d33d a9d4 0057 be79 a842 bec5 bf56

exp_avg f4 [1, 36]
-4.3628864 -6.381614 -0.03817755 -8.448041 -22.773605 -0.050301418 0.0 -16.706581
-0.12510918 -0.00029055253 -13.762447 -13.419132 -0.07191533 -11.286525 -0.10315607 -2.365411
-7.9111047 -1.0420262 -16.973715 -0.89036816 -9.378773 -6.513413 -4.441956 -4.396271
-3.8184416 -9.21051 -12.147631 -11.990781 -21.283268 -10.406043 -0.33571675 -0.5014211
-0.002534372 -12.544947 -0.000451322 -6.3691506
00000000: c49c 8bc0 2f36 ccc0 1060 1cbd 2d2b 07c1
00000010: 5830 b6c1 dc08 4ebd 0000 0000 14a7 85c1
00000020: 9f1c 00be 4d55 98b9 fc32 5cc1 c4b4 56c1
00000030: 5848 93bd 9b95 34c1 7d43 d3bd e562 17c0
00000040: c527 fdc0 1d61 85bf 2bca 87c1 2bef 63bf
00000050: 740f 16c1 e16d d0c0 8124 8ec0 41ae 8cc0
00000060: 5961 74c0 405e 13c1 b25c 42c1 3dda 3fc1
00000070: 2244 aac1 277f 26c1 11e3 abbe 225d 00bf
00000080: b517 26bb 1ab8 48c1 6a9f ecb9 15d0 cbc0

exp_avg_sq f4 [1, 36]
2.306719e+06 2.4612328e+06 2285.4685 3.9558485e+06 2.8867718e+07 2797.3499 0.0 1.6149943e+07
15349.861 0.1323758 1.1871008e+07 1.0287579e+07 3884.244 6.9110975e+06 11636.337 927410.2
3.2857148e+06 438839.66 1.5943968e+07 67251.04 5.255284e+06 2.3588968e+06 1.1009449e+06 1.252487e+06
934244.3 4.7149875e+06 8.172796e+06 8.609894e+06 2.5054684e+07 6.17349e+06 28998.096 121025.9
7.4832315 8.639072e+06 0.17025143 2.2163538e+06
00000000: 7cca 0c4a c338 164a 7fd7 0e45 2272 714a
00000010: 433e dc4b 99d5 2e45 0000 0000 b76d 764b
00000020: 72d7 6f46 868d 073e 2023 354b dbf9 1c4b
00000030: e7c3 7245 f3e8 d24a 59d1 3546 236b 6249
00000040: 4b8b 484a f546 d648 2049 734b 8559 8347
00000050: e860 a04a c3f9 0f4a 8764 8649 38e4 9849
00000060: 4516 6449 d7e3 8f4a f869 f94a 6660 034b
00000070: ee26 bf4b 6466 bc4a 318c e246 f360 ec47
00000080: a276 ef40 60d2 034b 6456 2e3e 8746 074a
