data/policies/Pendulum-v0#default_team_-1506.1181468432865#squashedGaussian#200#-1506.1181468432865.pt (torch, 21703 bytes, 18 tensors)

weight f4 [24, 3]
00000000: 3d22 babe 5e56 bebe 0fe9 453b 9190 f4be
00000010: ed64 cb3e c89d c8be d234 d33e ae13 2abf
00000020: 1994 90be d60c 913e 4ea4 c03e 1a8e 063f
00000030: b1b5 ad3e 9507 153f 7232 97be a022 0c3e
00000040: 0752 2c3e 6521 803e 233d 8abe 12e7 3b3f
00000050: 83cf 7c3e e4af 2f3e f517 a5be 982f 2c3f
00000060: 1f09 713e 2671 08be e338 13bf e9fc 8abe
00000070: 58bf 0cbf 36f4 1b3f 2542 a13e 11ea 303f
00000080: 06fc f53e 5e3c 8abe 8882 b23e d9d1 ddbe
00000090: 7f9b bfbe ed45 cbbe 2f71 15bf 9b86 1ebd
000000a0: 46a9 73bd 8a81 e3be b260 0ebf 44c8 23bf
000000b0: 7fd1 70bc 9dbd f5be c0d5 8f3e 8111 a7be
000000c0: 0e8f b63e d82b 00bf daf7 d5be 7314 e3be
000000d0: 5a33 a8be b2fe ac3e 959e 443e ba08 b43d
000000e0: 9bb1 79bd 450b 043d b29d c43d b47a 003f
000000f0: 74dc 2b3d 8975 d6bd a4fc b63b 56fc 2abe
00000100: affc 0cbf 2e40 28be 19c1 c4be 3aa1 803d
00000110: bccb b63e 3879 0cbe c7aa 823e 037a dd3e
-0.36354247 -0.37175268 0.0030198728 -0.47766545 0.39725438 -0.39182878 0.41251236 -0.6643628
-0.2823799 0.28330106 0.37625355 0.5256058 0.33927682 0.58214694 -0.29530674 0.13685083
0.16828166 0.25025478 -0.2699977 0.7339946 0.24688534 0.1715694 -0.3224484 0.6726012
0.23538636 -0.13324413 -0.5750868 -0.2714608 -0.5497947 0.6091951 0.31495777 0.69107157
0.4804384 -0.26999182 0.34865212 -0.43324164 -0.37423322 -0.39701787 -0.5837583 -0.03870259
-0.059487604 -0.44434768 -0.55616295 -0.63977456 -0.014698385 -0.47996226 0.28092766 -0.32630542
0.35656017 -0.500669 -0.41790658 -0.4435154 -0.32851678 0.33788067 0.19201119 0.08790727
-0.060960393 0.03223731 0.096003905 0.5018723 0.041958287 -0.10471637 0.0055843163 -0.16697821
-0.55073065 -0.16430733 -0.38428572 0.062807515 0.35702312 -0.13718116 0.25520918 0.4325715

bias f4 [24]
00000000: 1446 f8be d630 4fbd c998 653e c2a8 fb3e
00000010: 6577 03be 4206 083f c98f a3be f4ec 123e
00000020: 10b4 a8bd 2fa8 203f 3a9b 0d3f a682 29bb
00000030: 0aea 0bbe 1ebd febd 3ed7 943e 1180 e5be
00000040: 4af8 adbe c308 8b3d a285 ecbd ccfa 013f
00000050: 4a7d f8be c3ad 1f3f 179a 183f 3f90 a0bc
-0.48490965 -0.050583683 0.22421564 0.4915219 -0.12838514 0.5313455 -0.31945637 0.14348203
-0.08237469 0.6275663 0.5531498 -0.0025865226 -0.13663498 -0.12438415 0.29070467 -0.4482427
-0.33978492 0.067887805 -0.11548926 0.5077331 -0.48533088 0.62374514 0.5961012 -0.019600032

weight f4 [36, 24]
00000000: 21d5 dabd eae4 26be 23c3 77be f7fe 6cbd
00000010: 3587 3ebe e7e1 7f3d cece eebd 8ce5 4dbc
00000020: 1b5a 583c bfb2 92bd 66e3 b63d 6cc2 c4bd
00000030: 9ceb 80be a41d f1bd 0964 033e 5b28 c33d
00000040: 7dcf 6abe 490b 5bbd c958 d53c 0e73 8fbe
00000050: 70e8 b03d 2f4d aa3d e4e6 f2bd ec3f 8bbe
00000060: 0161 51bd ba25 f73c e140 f6bd 9449 61be
00000070: 93c9 1abe e47c 0d3e dacd e73d 2be5 b43d
00000080: 815c 5d3e 26fe 06be 69e3 d53d cecf 643d
00000090: 7faf 173e 77e1 1d3e d351 f73d b72a 013c
000000a0: e066 14bb 0737 8ebd bf5b b1bd 4a7f a63b
000000b0: 0f04 46be 6bee 29be c184 d23d e8e5 ef3d
000000c0: ad25 8a3d a945 0bbe 3f6a 1abe 5862 84bd
000000d0: 10e1 98bd 0552 153d 8fd7 debc 8632 c9bc
000000e0: 4d32 34bd 723a 433d 950c 95bd fb2d c53d
000000f0: 2b18 3cbd ec51 aabd 7fe9 92be 5a29 c03c
00000100: 8ac4 8cbd bb28 4ebe fe0b edbd 4b6f 3c3d
00000110: a262 bdbc 811a 26be 38a5 6bbe 82a4 93be
00000120: 9740 29be ac5d 1a3b 5c6d 5cbe 51e2 d5bd
00000130: c52c c83d b0a8 a53b 18f3 53be c679 1abe
00000140: fdab b0bd 7f49 2dbe f823 003d 4042 6bbe
00000150: abf5 963d de4d c7bd ae58 c4bd 2921 12be
00000160: af5b 9fbd 0e4f f1bd 7a6c 40be e2dc 3cbe
00000170: 996c 053e 6890 0bbc 6bea 3ebe acdf 3bbe
00000180: 1a77 ad3a 167d 0c3e e218 ec3d 4818 69bd
00000190: 62d1 883e 5759 4a3e c40e dcbd b093 2e3e
000001a0: 6575 af3d 7e02 60bd 6ed9 f63b cb5d 7f3e
000001b0: ec90 6f3e fce8 063d d531 543d ee42 9ebd
000001c0: 974e d7bc 4232 f7bd 14b9 8d3d 7742 863d
000001d0: 555f 9d3d d7eb b93b b6c0 3d3d 2a8d bbbd
000001e0: e884 60bc 8864 3dbd f7f9 163e bb14 4e3e
000001f0: c7c1 2e3e 0a0c a13d 6945 cd3d e789 a63e
00000200: 12eb 31bd 7898 793e 8107 bf3d bb76 9b3d
00000210: 12dc f83c 0f1f d53d 10f6 823d 7ee1 a23b
00000220: 55aa 943e 04b5 013e eae0 b23d 7c59 6e3c
00000230: b321 023e b745 9e3d c1b3 073e f52a fc3c
00000240: 6395 4c3e 4777 293e 3576 3d3e a775 1c3e
00000250: e10a 263e 6081 a63e ead9 cbbd bcdd 7fbc
00000260: 399e a33e 7f0c 893d 0bc0 8f3e 00f5 c83c
00000270: c759 1b3e 68a3 f73d 2251 68bd 97b4 3a3e
00000280: aef5 46bd a303 2abd 014c 8c3d 994b 703e
00000290: c6b7 b0bd 78d1 023e f5ba dd3d 1783 f73d
000002a0: c8c9 a9bd 3f30 32be 6767 353d 2235 1ebe
000002b0: cd0e 46be 857f 26be 008a 46be 4043 84be
000002c0: 5d7d 20be 6e87 be3d 8cc9 58be 1629 a9bd
000002d0: e929 313d b585 c13d 075d e83c 3a75 45be
000002e0: 34af 56be 482f 903d be95 033e 5f0d b4bc
000002f0: 883e 053e 5b25 cdbd 0903 7fbe 3cfe 8bbe
00000300: 21be 91bd 27e9 b03d 7e11 863e 4f25 343e
00000310: 99dd 723e 9f41 bd3d 9e99 923e 645b 9e3e
00000320: 8a59 c6bc 9a3c 3f3e 3241 b03e 0a73 1f3d
00000330: f0da 0b3e 3ce1 5bbd ee9a 813e 248f 1f3e
00000340: 0da3 303e 1b6c 3f3e 71e7 8b3d 4ff2 9d3e
00000350: ab8d 453e 8482 2b3e aaa2 5f3c 3f05 843e
00000360: 1dcc 8dbc 89a7 50be 27e0 3bbe 91f1 9e3d
00000370: 6d97 13be b28e a6bd 40b4 bc3c 89cd b33d
00000380: 12c9 fcbd fb56 d9bd 1213 82be a6a7 a93d
00000390: 78fb 0b3e 9a88 acbd 1452 103e 0c78 1cbe
000003a0: 74e8 e1bd 85a3 e5bd 1848 293e ff18 4dbe
000003b0: 6449 343d c9c5 3abe ed45 a13d 7187 a13c
000003c0: 52c7 233d de19 9dbc 663d 10be 97cf 2c3d
000003d0: a10f 8d3d f841 8dbe bab9 3abc d826 d93c
000003e0: 5de7 143e b997 09be 011d b1bd 0e61 5cbe
000003f0: 5a80 edba 3d25 5bbe d030 a539 2c37 62be
-0.10685182 -0.16298261 -0.24195533 -0.05786034 -0.18606265 0.062471297 -0.116605386 -0.012566935
0.013205077 -0.07162999 0.089300916 -0.096073955 -0.25179756 -0.117732316 0.12831129 0.095291816
-0.22930713 -0.05347756 0.026043313 -0.28017467 0.08638084 0.08315503 -0.11860445 -0.27197206
-0.0511179 0.030169357 -0.120240934 -0.22000724 -0.15115957 0.13817173 0.1131856 0.08832773
0.21617319 -0.13182887 0.10443766 0.05586224 0.1481304 0.1541804 0.120761536 0.007883719
-0.0022644326 -0.069440894 -0.08660077 0.005081092 -0.19337486 -0.16594855 0.10279227 0.11713773
0.06745467 -0.13600792 -0.15079592 -0.0646407 -0.07464802 0.036455173 -0.027202396 -0.024560224
-0.043993283 0.04766316 -0.072777905 0.09627911 -0.045921486 -0.083164066 -0.28693768 0.023457218
-0.06873424 -0.20132725 -0.11574553 0.046004575 -0.02311832 -0.16221048 -0.23012245 -0.28836447
-0.16528545 0.0023554368 -0.21526092 -0.10443557 0.09774164 0.0050555095 -0.20698202 -0.15085515
-0.08626554 -0.16922568 0.031284302 -0.22974491 0.07371076 -0.09731649 -0.09587227 -0.14270462
-0.07781159 -0.117826566 -0.1879138 -0.18443635 0.13029708 -0.008518316 -0.18644111 -0.18347043
0.0013234348 0.13719591 0.115281835 -0.056907922 0.26722246 0.19760643 -0.10745004 0.17048526
0.08567313 -0.054689877 0.007533244 0.24938123 0.23395127 0.032937035 0.051805336 -0.077276096
-0.026282592 -0.12070133 0.069200665 0.06555646 0.07684199 0.0056738663 0.04632636 -0.09157784
-0.013703562 -0.046238452 0.14743792 0.20125096 0.17066108 0.078636244 0.100230046 0.32527086
-0.04343707 0.24374568 0.09327603 0.075910054 0.030378375 0.104063146 0.06394589 0.0049707284
0.29036203 0.12666708 0.08734305 0.014547702 0.12708168 0.07728141 0.13252164 0.030782202
0.19978862 0.16549407 0.18502124 0.15279256 0.16215087 0.3252058 -0.09953673 -0.01561683
0.31956652 0.066918366 0.28076205 0.024530888 0.15170966 0.12091714 -0.056718 0.18232952
-0.048574142 -0.041507374 0.06850434 0.23466338 -0.08628802 0.12775218 0.10826675 0.1208555
-0.0829044 -0.17401217 0.044288065 -0.15449956 -0.19341584 -0.16259582 -0.1938858 -0.25832558
-0.15672822 0.09303175 -0.21170634 -0.0825979 0.04325286 0.09449331 0.028364671 -0.19283
-0.20965272 0.07040268 0.12850091 -0.021979032 0.13012135 -0.100168906 -0.24903502 -0.27342403
-0.07116342 0.0863822 0.2618522 0.17592357 0.23717345 0.09241032 0.28632826 0.309291
-0.024212617 0.18675461 0.3442474 0.03892807 0.13657737 -0.053681597 0.25313514 0.15581948
0.17249699 0.18693583 0.06831253 0.3084893 0.19292323 0.16749007 0.013649622 0.25785252
-0.017309243 -0.2037641 -0.18347226 0.07760919 -0.14413233 -0.08132686 0.023035169 0.08779437
-0.123430386 -0.10612293 -0.25405174 0.082839295 0.13670146 -0.08424492 0.1409381 -0.15280169
-0.11030665 -0.112128295 0.16531408 -0.20029067 0.044015303 -0.18239512 0.078746654 0.019717904
0.03998501 -0.019177373 -0.14085922 0.04219016 0.068877466 -0.27589393 -0.01139682 0.02650778
0.14541383 -0.13436784 -0.0864811 -0.21521398 -0.0018119917 -0.21400924 0.0003150762 -0.22091359

bias f4 [36]
00000000: b63f d9bd c4e8 7d3d 4aaa 913d 733c dc3c
00000010: 3ffb 3c3e efb8 96bc dac6 a73e 842a 0bbd
00000020: b4c8 523e 14cb 59be 5ff4 3ebe 010b 523e
00000030: 2264 a9bd 4416 5e3e 09b6 1abe b231 3ebe
00000040: 8999 3e3e 1a63 d7bd f827 00bd f8c7 933e
00000050: 0cd6 1cbd 86b0 803e d7ca 763e 9433 0ebd
00000060: 9c09 d33d 5d1a d63c e8ff 8d3e 88da b63d
00000070: 8693 47bc 69a2 883e 7bd1 e2bd 43d2 1abe
00000080: 59c4 a53e 1eee 913e 7ec2 32be cea3 4e3e
-0.10607855 0.06198956 0.07112558 0.026884293 0.18455218 -0.01839873 0.327689 -0.033976093
0.20584375 -0.21268874 -0.18647908 0.2051201 -0.08271052 0.21688181 -0.15108503 -0.18573645
0.18613257 -0.10516949 -0.031288117 0.28863502 -0.03829007 0.25134677 0.24100815 -0.034717157
0.10304567 0.026135618 0.27734303 0.089284 -0.012181168 0.2668641 -0.110751115 -0.15119271
0.32376364 0.28501981 -0.17457005 0.20179674

weight f4 [1, 36]
00000000: fd78 adbd 8a09 993d 9749 83bc df50 1d3d
00000010: 7771 3e3d e5b1 133e b62b 063d 1f98 47be
00000020: d225 aa3e 7e31 783c 09b1 9c3d b46d 9c3d
00000030: 556c 0d3d 1849 203e ae47 06be e76a 1ebe
00000040: cbcd 983e d991 b73d 51a0 673e fe22 b73e
00000050: b425 e7bd 5226 be3c ac49 ad3e 94cb f4bb
00000060: bf25 333e c83d fabd 7016 893e 4913 663e
00000070: dbc0 01bc 4cad 543e 4111 26bd 78be 82bd
00000080: 1c0d 3e3e eeaa b7bc ca42 cfbd 936d b53e
-0.08470342 0.074725226 -0.016026301 0.038407203 0.046494927 0.1442333 0.03275653 -0.19491623
0.3323198 0.015148519 0.07650954 0.07638112 0.03452714 0.15652883 -0.13113281 -0.15470468
0.29844508 0.08963365 0.2261975 0.35768884 -0.11286488 0.023211632 0.3384527 -0.0074705575
0.17494868 -0.12218815 0.2677493 0.22468294 -0.0079195155 0.20769233 -0.0405438 -0.06383985
0.18559688 -0.022420373 -0.10120161 0.3543516

weight f4 [1, 36]
00000000: bdba 81bd e6f6 953d 523f 43bc 5223 0dbd
00000010: f926 8d3e 2100 0b3e a117 643e e04a 9cbd
00000020: 2dd3 793e ff5e 113c fa9b 503c 162a 3a3e
00000030: 455c 203d e975 513e 0b57 3ebd a82f c7bd
00000040: 10b0 c13d 1676 f7ba 4e4e 403e 123f 3d3e
00000050: d405 91bd aa33 7c3e 5e4e ed3d 7f7c 933e
00000060: 1829 983e 01d9 75bd 3bcb 953e 98a3 623e
00000070: 6d8d 513e 151f 5f3e a2a3 7a3c a659 8fbd
00000080: b447 2e3e c08b 8c3e 5884 3b3c 5ed6 773e
-0.063344456 0.07322483 -0.011916952 -0.034457512 0.27568796 0.13574268 0.22274639 -0.07631469
0.24396963 0.0088727465 0.0127325 0.18180117 0.039150495 0.20455135 -0.04646973 -0.097258866
0.094574094 -0.0018879797 0.18779871 0.1848109 -0.0708119 0.24629083 0.11587213 0.2880592
0.29718852 -0.060021404 0.29256615 0.22132719 0.20464106 0.217892 0.015297802 -0.06999521
0.1701954 0.2745037 0.011445127 0.24202868

exp_avg f4 [24, 3]
00000000: 868d ccc2 28e8 36c2 b784 79c3 9502 5a44
00000010: 4497 1ec3 bcc8 4c45 30fb 38c2 953f 7e43
00000020: e15e 2d45 56ad 0544 8802 fbc2 4311 d1c5
00000030: 1d1a bc40 b7a1 27c3 29f0 1845 4a3d 6f44
00000040: d78a 01c3 8007 dfc5 1c7a f343 a7b5 a8c3
00000050: b7ac a0c5 cdb6 2344 5a38 2942 ebce 09c6
00000060: 7e9b 5843 f16c 4841 580e 3945 dd24 6744
00000070: 1cd3 a942 2b52 c9c5 21e3 2c44 086a 87c3
00000080: 37b8 e0c5 1e23 c243 89b1 abc2 92f6 1045
00000090: fbf0 2044 c56f 7742 d669 7345 f541 8f42
000000a0: c333 92c0 af56 1c44 58ce 3044 84c8 9a43
000000b0: 488e 79c4 fb5e 9043 d980 1cc2 9bec ae44
000000c0: c268 9041 c91a ec42 d005 fa44 9e03 6e44
000000d0: c348 6c42 1d99 a4c5 0aa6 3cc1 7c4d a5c1
000000e0: 62cd fb43 8f20 4544 1ce3 a1c2 0d9a b8c5
000000f0: db64 0ac0 b519 7ec0 bbb2 1542 0b8b 0844
00000100: 82b0 7943 cbbe 4644 fed2 2c44 3f68 7bc1
00000110: 070e 97c5 ae2e fe43 135f a0c2 2c6a 96c5
-102.27641 -45.726715 -249.51842 872.04034 -158.59088 3276.546 -46.2453 254.24837
2773.93 534.7084 -125.504944 -6690.1577 5.8781877 -167.6317 2447.01 956.95764
-129.54234 -7136.9375 486.95398 -337.41916 -5141.5894 654.85626 42.30503 -8819.7295
216.60739 12.526597 2960.8965 924.576 84.91232 -6442.271 691.5489 -270.82837
-7191.027 388.27435 -85.84675 2319.4106 643.7653 61.85915 3894.6147 71.62882
-4.5688186 625.35443 707.2241 309.56653 -998.22314 288.74203 -39.125828 1399.3939
18.051151 118.052315 2000.1816 952.0565 59.071056 -5267.139 -11.790537 -20.662834
503.60455 788.5087 -80.94357 -5907.2563 -2.1624057 -3.970319 37.42454 546.17255
249.68948 794.98114 691.29675 -15.712951 -4833.7534 508.3647 -80.18569 -4813.2715

exp_avg_sq f4 [24, 3]
00000000: 6222 ea45 169b 3444 9dfa f446 b2f8 e248
00000010: f190 b045 c8e5 0b49 0149 9246 1271 8845
00000020: cdbd 9148 264c 1448 f6b7 1645 906c 9149
00000030: be18 2a46 6463 9f45 bfa6 8448 5b10 2a49
00000040: 8176 1d45 80a0 bd49 454c 0546 4d07 a145
00000050: 9a11 2449 7edd 0e48 ef6e e144 2737 034a
00000060: 3042 4b47 5d97 0b44 0315 0d49 f606 aa48
00000070: 3e22 1345 e433 7349 0d3c a048 6cae 2446
00000080: df38 c449 46ab e747 8d85 0545 7419 5b48
00000090: 9810 9648 677d 6944 325e 4f49 f87a 1c46
000000a0: 4012 1343 b9d9 e146 0463 1c48 40f9 6445
000000b0: 25f6 ae47 befe 0147 b7d0 cc43 6bcf dd47
000000c0: eac7 4b46 2b55 0945 050f 8d48 7396 cb48
000000d0: 37c7 1445 e030 5c49 5f17 bd42 e94d 6242
000000e0: 0081 7246 1f58 b948 bac4 aa44 78b4 6749
000000f0: af15 a341 f871 8942 96d0 be45 fbf9 9448
00000100: 16b9 3f45 d9f5 0348 1840 2648 6ce5 1944
00000110: ce5a 1349 57cf a947 c8a6 5c44 2d01 1449
7492.298 722.4232 31357.307 464837.56 5650.1177 573020.5 18724.502 4366.134
298478.4 151856.6 2411.4976 1.191314e+06 10886.186 5100.424 271669.97 696581.7
2519.4065 1.553424e+06 8531.067 5152.9126 672025.6 146293.97 1803.4667 2.1498338e+06
52034.188 558.36505 577872.2 348215.7 2354.1401 996158.25 328160.4 10539.605
1.6074519e+06 118614.55 2136.347 224357.81 307332.75 933.9594 849379.1 10014.742
147.07129 28908.861 160140.06 3663.5781 89580.29 33278.742 409.63058 113566.836
13041.979 2197.323 288888.16 416947.6 2380.451 901902.0 94.54565 56.576084
15520.25 379584.97 1366.1477 949063.5 20.385588 68.722595 6106.073 305103.84
3067.5679 135127.39 170240.38 615.5847 603564.9 86942.68 882.60596 606226.8

exp_avg f4 [24]
00000000: 9701 0543 b6df c2c4 a9e1 8bc4 bdff 07c5
00000010: 046e 34c4 6401 4ac5 1c08 90c4 afd0 19c5
00000020: 904b 76c4 d046 0dc5 de04 24c5 80ab 6ec4
00000030: 6fb4 c0c4 f9d2 81c3 03d1 98c4 b479 e1c3
00000040: 4b62 0dc4 cee6 f1c4 53a2 e3c2 461e 0ec5
00000050: 8144 a940 fb55 c0c4 8d37 d9c4 78d4 aec4
133.00621 -1558.991 -1119.0519 -2175.9836 -721.719 -3232.087 -1152.2534 -2461.0427
-985.18066 -2260.4258 -2624.3042 -954.6797 -1541.6385 -259.64822 -1222.5316 -450.9508
-565.5358 -1935.2126 -113.81704 -2273.892 5.2896123 -1538.6869 -1737.736 -1398.6396

exp_avg_sq f4 [24]
00000000: c1d9 1c46 329a 0049 a98f 4347 172e 5f48
00000010: 5b48 e246 57e6 5049 dd09 fe46 b5c7 7648
00000020: e582 b147 8195 cb48 f81c d948 d8d7 0748
00000030: 65ef b448 6f86 3446 cb4c 3148 8a69 1547
00000040: 11fe e246 f699 e848 e07c 2e44 2259 e048
00000050: eaf6 f342 c478 ac48 1aa3 5248 9cf9 e447
10038.438 526755.1 50063.66 228536.36 28964.178 855653.44 32516.932 252702.83
90885.79 416940.03 444647.75 139103.38 370555.16 11553.608 181555.17 38249.54
29055.033 476367.7 697.9512 459465.06 121.982254 353222.12 215692.4 117235.22

exp_avg f4 [36, 24]
00000000: 8618 2841 fb1c 6041 7fd1 6e41 2d08 fc42
00000010: 0b36 6640 35e8 ad42 44af 9c40 99b1 f942
00000020: 609f bf40 3662 3043 1446 0343 d29a 5241
00000030: 9f63 8d41 e019 8740 0f1c 7042 a680 9d3e
00000040: 45a5 bf3f 99a9 5c42 4edb 0b3d eabe fe42
00000050: 0000 0000 f00a 8042 23de 1043 c3f9 3e42
00000060: 0b47 fabf 4e32 1dc3 46a2 bcc2 7af6 4cc3
00000070: 73c4 a4c2 1084 fac2 445a bac2 5ea9 44c3
00000080: 9d09 33c3 1046 65c3 5087 54c3 7066 22c3
00000090: 826f 4cc3 affd 0cc3 cc12 b6c2 685e b0c2
000000a0: c4da d2c2 cd19 f5c2 32a5 b3c0 8f07 45c3
000000b0: 61f4 4c3e c26b f9c2 ae15 35c3 fc36 17c3
000000c0: 1404 9741 9995 0643 2ce8 7e42 4d67 db43
000000d0: 7b08 6f42 182c 8243 fdfa 0f42 428c de43
000000e0: 6509 0543 7c71 0044 f515 e443 f60f 1243
000000f0: f1e2 1843 8627 c342 ae95 e342 a90d 5d42
00000100: ede0 2742 4b9d 2343 a096 8e3f 3b0d d043
00000110: 1d7b 683f 8efa 2543 d35e ca43 8062 4943
00000120: d447 b841 a1f1 aa42 d5d5 0b42 863f c541
00000130: eea0 b641 708d c941 c9e2 a13f 2ebe d840
00000140: f72b 8a42 b639 8841 6877 1a42 6fc8 ba42
00000150: 7041 d142 81b9 5c42 4ae6 8b42 71c5 ea41
00000160: b02c 7141 1a5b 3b40 dbc6 523f 5a20 8741
00000170: 0000 0000 e459 cb42 a0c2 0b42 9e74 c93f
00000180: a82d 44c2 6cbb 01c4 10df 98c3 70a7 16c3
00000190: d1d1 45c3 ae05 44c3 ebfc 17c2 0012 eec2
000001a0: a587 fac3 5c25 98c3 19a1 43c3 ec13 04c4
000001b0: 2ac7 1fc4 f865 b9c3 0c53 e5c3 95d8 37c3
000001c0: 165d 61c3 68de 09c3 356e a6c0 eed7 2ac3
000001d0: 0000 0000 831c 26c4 1dd7 b2c3 9ed4 91c2
000001e0: eb07 69c0 1d20 8bc3 9131 6fc3 14d2 68c4
000001f0: 2b8c 23c3 0e8a 0bc4 3c7b 75c3 d1aa 7ec4
00000200: 8fff b6c3 2cd9 98c4 f502 60c4 fa84 92c3
00000210: a0fb c1c3 9ad5 8ac3 6f8d 99c3 ab5e 28c3
00000220: 61e7 5ec3 e926 0ec4 7716 44c1 01a0 6cc4
00000230: ffd8 b8bd b65f aec3 bba6 4fc4 a46a 18c4
00000240: 10d2 51c2 c4e5 bbc3 7157 71c3 e180 c3c3
00000250: 2328 f9c2 7a4b b2c3 a9a3 84c1 32ae 98c3
00000260: 7660 a4c3 ef67 26c4 2fe2 dcc3 c9f3 b3c3
00000270: 762d ddc3 60e1 71c3 ecbe 00c4 a54a e0c2
00000280: 3a0b 10c3 3f0c 6ec3 301a 3ec0 509b dac3
00000290: b5ac 20bf 1458 26c4 9b2c 21c4 3446 0ac3
000002a0: 9a9f 3b42 9954 0143 13ff de42 156f 0241
000002b0: cf71 7441 09a4 b541 0000 0000 451c 7141
000002c0: 7ce5 1743 f71a 9242 2ccb 6f40 430b 0b43
000002d0: 29bb 6643 1dae f142 52d0 3743 ae27 5d42
000002e0: 40ef 8342 0766 dd41 63d7 483f d44c bb41
000002f0: 0000 0000 2ac3 6a43 5013 6042 c9d5 fe3f
00000300: a0a5 55c2 0eca 8bc4 dbb5 52c4 2e4e 41c5
00000310: 8fbd 0cc4 3640 f0c4 9e14 35c4 0454 4fc5
00000320: e0a9 a1c4 0f6b 80c5 ec86 3ec5 8cc9 8fc4
00000330: 8265 b8c4 b3bc 74c4 a6e3 9cc4 eac8 0bc4
00000340: 2a6f 36c4 6e0f e5c4 41a9 fbc1 9f11 44c5
00000350: 85ed 89bf 411c bbc4 975e 3ac5 32fa efc4
00000360: 0000 0000 0000 0000 0000 0000 bdb8 7e40
00000370: 0000 0000 6a49 1140 4b21 653c dc0f b840
00000380: 0000 0000 9c24 df40 80b7 5940 0000 0000
00000390: 0000 0000 0000 0000 d81c 8d3f 0000 0000
000003a0: 0000 0000 02a1 4b40 0000 0000 78a4 9240
000003b0: 0000 0000 b5f3 8c3e 7b5d a440 edc7 2440
000003c0: 030d 843f 2816 a73f cbad 0240 50e9 4643
000003d0: 66a5 5c3e ad7c d842 f598 8641 06d1 5643
000003e0: 4215 8e3f 9edd 7243 dcf4 4543 51c9 9d3f
000003f0: 1013 c53f 8c66 533f a90a b841 6c31 923e
10.505987 14.007075 14.9261465 126.01597 3.5970485 86.95353 4.8963947 124.84687
5.988205 176.38364 131.27374 13.162798 17.673643 4.2219086 60.0274 0.30762213
1.4972311 55.165623 0.034144692 127.37288 0.0 64.02136 144.86772 47.743908
-1.955293 -157.1965 -94.31694 -204.9628 -82.38369 -125.257935 -93.1763 -196.66159
-179.03755 -229.27368 -212.52856 -162.40015 -204.43558 -140.99095 -91.03671 -88.18439
-105.42728 -122.55039 -5.6139154 -197.02953 0.20015098 -124.710464 -181.08469 -151.21478
18.876991 134.58437 63.72673 438.80704 59.75828 260.34448 35.995106 445.09576
133.0367 513.7732 456.17154 146.06235 152.88649 97.577194 113.79234 55.26334
41.969654 163.61443 1.1139717 416.10336 0.90812856 165.97873 404.7408 201.38477
23.035072 85.47193 34.95882 24.656017 22.828579 25.194061 1.2647334 6.7732153
69.08587 17.02818 38.616608 93.39147 104.62781 55.181156 69.94978 29.346407
15.07341 2.9274354 0.8233468 16.890797 0.0 101.67557 34.940063 1.5738714
-49.044586 -518.92847 -305.74268 -150.65405 -197.8196 -196.02219 -37.99699 -119.03516
-501.05972 -304.29187 -195.62929 -528.3113 -639.11194 -370.79663 -458.6488 -183.84602
-225.36362 -137.86877 -5.200953 -170.84348 0.0 -664.4455 -357.68057 -72.91527
-3.6411083 -278.2509 -239.19362 -931.2825 -163.54753 -558.1571 -245.48138 -1018.669
-365.99655 -1222.7866 -896.0462 -293.03888 -387.96582 -277.66876 -307.10495 -168.3698
-222.90382 -568.608 -12.255485 -946.50006 -0.09025764 -348.74774 -830.60516 -609.66626
-52.45514 -375.79504 -241.34157 -391.00687 -124.57839 -356.58966 -16.579912 -305.3609
-328.7536 -665.62396 -441.76706 -359.90457 -442.35516 -241.88037 -514.98315 -112.14579
-144.04385 -238.04784 -2.9703484 -437.21338 -0.6276353 -665.3762 -644.69696 -138.27423
46.90586 129.33046 111.49819 8.15212 15.277785 22.705095 0.0 15.069402
151.89642 73.052666 3.7467756 139.04399 230.7311 120.840065 183.81375 55.28875
65.967285 27.674818 0.78453654 23.412514 0.0 234.76236 56.01886 1.9908992
-53.411743 -1118.3142 -842.8415 -3092.8862 -562.96185 -1922.0066 -724.32214 -3317.251
-1293.3086 -4109.3823 -3048.4326 -1150.2983 -1475.1721 -978.9484 -1255.114 -559.1393
-729.73694 -1832.4822 -31.457644 -3137.1013 -1.077561 -1496.8829 -2981.9119 -1919.8186
0.0 0.0 0.0 3.9800255 0.0 2.2701058 0.013984988 5.751936
0.0 6.973219 3.401825 0.0 0.0 0.0 1.1024427 0.0
0.0 3.1817021 0.0 4.5825768 0.0 0.27529684 5.136411 2.5747025
1.0316471 1.3053637 2.0418575 198.91138 0.2154747 108.24351 16.824686 214.8165
1.1100237 242.86569 197.95648 1.2327062 1.5396442 0.8257835 23.005205 0.2855333

exp_avg_sq f4 [36, 24]
00000000: 23ea 6c43 442d dd43 8121 d043 2f6f f446
00000010: f05f b541 fe49 4346 6c3f ba42 1f91 f946
00000020: f6dc e142 cb96 5247 36cf 0147 950d af43
00000030: ca4d 2944 1800 4f42 af2d f045 39f3 d63e
00000040: a0f7 3f41 19c0 d545 7569 cd3b 1113 e446
00000050: 0000 0000 e73c e545 b5c3 0c47 a55c a645
00000060: 2cca 3c41 6b89 ca44 2b57 b243 3acb 2646
00000070: 04b0 8b43 dfc2 4745 1593 a443 e384 5046
00000080: ea98 a144 6163 8246 1e81 2446 e3da b644
00000090: 7a53 f144 d7d1 4544 6d3e e044 602c a843
000000a0: aa62 d343 a1b2 1845 c0c4 1440 4951 1d46
000000b0: 00d7 323e 5049 0345 c57b 2946 cf2d 5045
000000c0: aaa3 c443 b324 3a46 76a1 1945 a970 3448
000000d0: 74ad c644 4060 4f47 17c5 bb44 aba4 5a48
000000e0: def7 2146 5a52 7f48 3c96 3348 bfec 5046
000000f0: 1938 7c46 6c6a b645 b780 7f46 cba7 0745
00000100: 34cf bc44 24ed ed46 1e3c 0b40 3f5f 2248
00000110: 851a 6640 7cbf a346 095c 1548 4dfd 3347
00000120: 0c55 ab44 ff17 3d46 0448 2a45 1a61 0344
00000130: 86f9 ed43 ed1c d143 afea 6f40 6e1e c942
00000140: ef75 1346 99da aa43 6d20 7644 9e87 6b46
00000150: 2e2d b146 62df be45 e82d 2646 aa71 d844
00000160: 5e2d 4444 3f71 9541 26ae 1140 6858 8a43
00000170: 0000 0000 0288 8f46 5493 b844 bd52 d540
00000180: d3f3 c444 55bc 9c47 2ff5 a546 100a 6444
00000190: 2eb8 0146 8835 9645 281d 8242 e12f 0b44
000001a0: ffa8 8647 4f29 9c46 6015 0845 35fe 8e47
000001b0: 44d7 de47 db5c 1547 c920 8f47 00dc 3946
000001c0: 6210 5846 2199 9a45 4635 6d40 f967 1745
000001d0: 0000 0000 4cae cf47 0646 3a47 99a4 4e43
000001e0: 3361 623f 70ab 2045 84ae d944 9289 a746
000001f0: 2be0 6b44 f2f2 ff45 1cfc b244 0e4b c546
00000200: c4ab 8e45 6098 2047 de48 9d46 477c 3245
00000210: 98cb 9a45 c109 2545 9f00 ce45 a38e 7344
00000220: 8d91 db44 ad9d 0e46 a0ca 1241 795b b246
00000230: 9c78 113d aff8 c145 0f52 b546 f829 0846
00000240: cb37 0045 b3b0 3d47 7078 6f46 ac15 c847
00000250: 28ab 7445 f3b1 3047 3519 4244 2e14 d247
00000260: d981 0a47 32ed 5448 e84b d147 8379 1a47
00000270: 5ea1 7b47 ad9c 9946 dabd e847 26c8 ae45
00000280: 4f60 d845 d846 1147 6a6d d13f 1aec cc47
00000290: c2d2 db3f 7320 0248 9a12 3f48 79df ab46
000002a0: 2ffc e344 fc55 7446 b2cc c445 857c f042
000002b0: 3436 df43 3432 e743 0000 0000 d3c0 bb43
000002c0: 948d 6446 2972 b345 295e eb41 2b7b 8746
000002d0: 6e2f 0c47 0434 1546 8227 d646 fb0a 3245
000002e0: 1ad8 3245 3ce7 9044 0ace 5340 1c64 3b44
000002f0: 0000 0000 8be2 1747 c0a3 a845 8660 0741
00000300: 830e b144 3828 9f47 2a29 f246 5816 e148
00000310: e5b5 2b46 65f5 2148 3f39 4c46 5cb0 0249
00000320: dac4 8247 f7ba 4449 19b8 df48 7fff 7a47
00000330: c24d c647 77d3 1047 c224 4b48 a989 4046
00000340: b6f7 9346 6a24 0548 6378 5742 fa5e db48
00000350: e9fc a140 8ba9 5948 d1ef 0749 a6dc 0448
00000360: 0000 0000 0000 0000 0000 0000 8258 aa42
00000370: 0000 0000 24ac dd41 1cd6 893a 7be4 3143
00000380: 0000 0000 2aba 8243 bbe4 7842 0000 0000
00000390: 0000 0000 0000 0000 371e d140 0000 0000
000003a0: 0000 0000 9db9 5942 0000 0000 1fd4 e142
000003b0: 0000 0000 62a4 d03e 3edb 0d43 3693 0e42
000003c0: 4fcb 2840 d983 9640 6846 1441 32a6 3f47
000003d0: 398b cf3d dd63 4a46 b83b dc43 540c 7547
000003e0: 7783 ce40 0f2a 8a47 6ddb 3947 92e1 df40
000003f0: df19 4841 0460 6540 9f4c 5444 4e2c e03e
236.9146 442.35364 416.26175 31287.592 22.671844 12498.498 93.12387 31944.56
112.931564 53910.793 33231.21 350.1061 677.21545 51.75009 7685.7104 0.4198244
11.997955 6840.012 0.006268675 29193.533 0.0 7335.613 36035.707 5323.5806
11.799358 1620.2943 356.681 10674.807 279.37512 3196.1794 329.14908 13345.222
1292.7786 16689.69 10528.279 1462.8402 1930.6086 791.27875 1793.9508 336.34668
422.7708 2443.1643 2.3245087 10068.321 0.17464828 2100.582 10846.942 3330.863
393.27863 11913.175 2458.0913 184770.64 1589.4204 53088.25 1502.159 223890.67
10365.967 261449.4 183896.94 13371.187 16142.024 5837.3027 16352.179 2170.487
1510.4751 30454.57 2.1755443 166268.98 3.5953686 20959.742 152944.14 46077.3
1370.6577 12101.999 2724.501 525.5172 475.9494 418.22598 3.748699 100.55943
9437.483 341.7078 984.50665 15073.904 22678.59 6107.923 10635.477 1731.552
784.70886 18.680296 2.2762542 276.69067 0.0 18372.004 1476.604 6.66635
1575.6195 80248.664 21242.592 912.1572 8302.045 4806.6914 65.056946 556.7481
68945.99 19988.654 2177.336 73212.414 114094.53 38236.855 73281.57 11895.0
13828.096 4947.141 3.7063766 2422.4983 0.0 106332.59 47686.023 206.64296
0.88429564 2570.7148 1741.4536 21444.785 943.5026 8190.368 1431.8784 25253.527
4565.4707 41112.375 20132.434 2855.7673 4953.449 2640.6096 6592.0776 974.2287
1756.5485 9127.419 9.174469 22829.736 0.035515413 6207.0854 23209.03 8714.492
2051.487 48560.7 15326.109 102443.34 3914.6973 45233.95 776.39386 107560.36
35457.848 218036.78 107159.81 39545.51 64417.367 19662.338 119163.7 5593.0186
6924.0386 37190.844 1.6361516 104920.2 1.7173693 133249.8 195658.4 21999.736
1823.8807 15637.496 6297.587 120.2432 446.42346 462.3922 0.0 375.50644
14627.395 5742.27 29.420977 17341.584 35887.43 9549.004 27411.754 2848.6863
2861.5063 1159.2261 3.3094506 749.5642 0.0 38882.543 5396.4688 8.461065
1416.4535 81488.44 30996.582 460978.75 10989.474 165845.58 13070.312 535301.75
66953.7 805807.44 458176.78 64255.496 101531.516 37075.465 208019.03 12322.415
18939.855 136337.66 53.867565 449271.8 5.062123 222886.17 556797.06 136050.6
0.0 0.0 0.0 85.17287 0.0 27.709053 0.001051608 177.8925
0.0 261.4544 62.22337 0.0 0.0 0.0 6.5349383 0.0
0.0 54.431263 0.0 112.9143 0.0 0.40750414 141.85641 35.64376
2.637409 4.7035947 9.267189 49062.195 0.101339765 12952.966 440.46655 62732.33
6.453548 70740.12 47579.426 6.9962854 12.506316 3.5839853 849.1972 0.43783802

exp_avg f4 [36]
00000000: 6716 1a43 d151 2ec3 0a0a da43 d998 0b43
00000010: 21b2 59c4 9f18 1dc4 cbeb 81c4 b30a 5e43
00000020: f5fe 28c5 8fd3 1240 60b4 ef42 9e96 61c4
00000030: aa2b a741 1a2f c0c4 4946 1b43 78c6 b73d
00000040: 2c89 a1c4 d926 8f43 5f5e 80c4 d695 0fc5
00000050: 0db3 0b42 2ab3 9dc4 185a a5c4 ae1a 84c4
00000060: 04b6 18c5 0bf2 9743 9212 2fc5 37bd f1c4
00000070: 7877 1ec4 4752 e0c4 4838 0a43 0000 0000
00000080: 1f48 a2c4 492a 71c4 4fa7 b641 ba6d 30c5
154.08751 -174.3196 436.07843 139.59706 -870.78326 -628.3847 -1039.3685 222.0418
-2703.9348 2.2941625 119.852295 -902.3534 20.89632 -1537.4719 155.27455 0.08973402
-1292.2866 286.3035 -1026.9491 -2297.3647 34.924854 -1261.5989 -1322.8154 -1056.8337
-2443.376 303.89096 -2801.1606 -1933.913 -633.8667 -1794.5712 138.21985 0.0
-1298.2538 -964.6607 22.831694 -2822.858

exp_avg_sq f4 [36]
00000000: 139c 0147 15a3 eb45 72e0 d247 208c af46
00000010: ae39 2448 d351 8346 f77d 8f48 8a76 2147
00000020: bafb 0d49 4265 e241 5893 5246 d050 1148
00000030: a940 7f44 9d3a 8b48 27bb 1847 c3c9 0f3d
00000040: 14f3 4247 d41c 6e47 5a96 0247 ca46 8648
00000050: 44ba 9745 2077 dd48 e1bc 6d47 37e1 0449
00000060: daf6 5c49 c2bf b247 c967 5749 7704 ac48
00000070: 1b7d 3648 67be 9748 9c3b 9746 0000 0000
00000080: fb43 0248 5f6e d448 7fe2 ab44 d535 1449
33180.074 7540.3853 107968.89 22470.062 168166.72 16808.912 293871.72 41334.54
581563.6 28.299442 13476.836 148803.25 1021.0103 285140.9 39099.152 0.035104524
49907.08 60956.83 33430.35 274998.3 4855.283 453561.0 60860.88 544275.44
905069.6 91519.516 882300.56 352291.72 186868.42 310771.22 19357.805 0.0
133391.92 435058.97 1375.078 607069.3

exp_avg f4 [1, 36]
00000000: 44c9 9ec0 94f5 a0c4 0536 7cc2 8615 d740
00000010: 37aa 41c5 376c 02c6 aaa1 3ac6 aee7 4842
00000020: 5606 7bc6 ad59 0cbe 1a64 0fc3 209e 2fc6
00000030: 48d7 60c1 fd3d 5bc6 26de cb41 69ed 333c
00000040: 1fb0 29c6 ba12 11c3 6388 f6c5 1fe7 6cc6
00000050: 1a2a 26be 32d8 82c6 f8a8 52c6 eb2f cac5
00000060: 5437 37c6 e40f 1841 60a7 74c6 d3d3 65c6
00000070: f079 fbc5 3329 56c6 41e5 d9c1 0000 0000
00000080: 477d 5ec6 4b49 ecc5 6277 7fc0 2c2b 92c6
-4.9620686 -1287.6743 -63.052753 6.7213774 -3098.6384 -8347.054 -11944.416 50.22625
-16065.584 -0.13706084 -143.39102 -11239.531 -14.052559 -14031.497 25.48347 0.010981896
-10860.03 -145.07315 -7889.0483 -15161.78 -0.16226998 -16748.098 -13482.242 -6469.9897
-11725.832 9.50388 -15657.844 -14708.956 -8047.242 -13706.3 -27.23694 0.0
-14239.319 -7561.1616 -3.9916615 -18709.586

exp_avg_sq f4 [1, 36]
00000000: 6086 8842 58cb 5647 62c1 9345 e1e1 9a43
00000010: 976a 8448 5f2a c749 d0e9 394a 2164 4d46
00000020: 400e ac4a 59dd ce3d 1e2a bd46 587c 264a
00000030: be74 f143 be28 814a c434 5945 79d4 093a
00000040: eb18 1f4a f590 9946 7e5d b449 872d 994a
00000050: 3dde 333e b4bb b54a 0e3b 7e4a 5cb5 6549
00000060: 6569 344a 6afd ba44 acac a04a 8f5f 8f4a
00000070: 634d ad49 d965 7b4a b98d ed44 0000 0000
00000080: faef 854a 4c82 9c49 1c8a 8542 1e56 e54a
68.26245 54987.344 4728.173 309.76468 271188.72 1.6315639e+06 3.046004e+06 13145.032
5.63792e+06 0.101008125 24213.059 2.727702e+06 482.91205 4.232287e+06 3475.2979 0.0005257796
2.6066508e+06 19656.479 1.4775518e+06 5.0193315e+06 0.17565246 5.955034e+06 4.1653155e+06 940885.75
2.9558652e+06 1495.9192 5.264982e+06 4.6980555e+06 1.4196924e+06 4.1189022e+06 1900.4288 0.0
4.388861e+06 1.2821215e+06 66.769745 7.514895e+06

exp_avg f4 [1, 36]
00000000: c5b9 8ec2 061f f7c4 adf6 a2c4 85a2 d8c2
00000010: 007c 72c4 02c0 e3c3 251b afc5 b8a6 a3c3
00000020: 5c0a b8c5 8457 f2be f250 86c4 03bf 81c5
00000030: b7ab f2c2 94ff c5c5 453a 58c3 0e79 18bd
00000040: 8e9d a9c5 8f2e bec4 2ee8 97c3 8f2e bec5
00000050: 4d09 12c1 3f19 07c6 3411 89c5 948a 08c5
00000060: a28a 80c5 fec9 8ac3 cd12 d3c5 01b2 a0c5
00000070: 239f ecc4 f5fe 8cc5 c620 02c4 0000 0000
00000080: 4c60 bbc5 40d1 12c5 02fe cdc1 bc49 f3c5
-71.36283 -1976.9695 -1303.7086 -108.31742 -969.9375 -455.50006 -5603.393 -327.3025
-5889.295 -0.47332394 -1074.5295 -4151.8765 -121.33538 -6335.9473 -216.22762 -0.03722482
-5427.6943 -1521.455 -303.8139 -6085.82 -9.127271 -8646.312 -4386.1504 -2184.6611
-4113.329 -277.57806 -6754.35 -5142.2505 -1892.973 -4511.8696 -520.5121 0.0
-5996.037 -2349.0781 -25.749027 -7785.217

exp_avg_sq f4 [1, 36]
00000000: 8544 0b46 47a3 444a 220c b249 a116 8146
00000010: cd14 6648 25bd 7147 8f42 db4a ff3e f347
00000020: 50ab 284b a930 9a3f 664e dc49 6ea3 864a
00000030: b612 1347 89b6 344b f9a0 c247 3cf4 c53b
00000040: 7ce6 2b4b d931 154a aa05 2647 b335 294b
00000050: eae8 a543 3899 964b 45b6 bf4a 0fe6 bb49
00000060: 9f0c 994a 2fbc c747 6172 2b4b 9c32 c14a
00000070: 5e9e 4b49 8972 8a4a 2a25 ee48 0000 0000
00000080: fa0d 084b 8146 ac49 2396 2645 cb17 8b4b
8913.13 3.2217138e+06 1.4585642e+06 16523.314 235603.2 61885.145 7.1847115e+06 124541.99
1.1053904e+07 1.20461 1.8047488e+06 4.411831e+06 37650.71 1.1843209e+07 99649.945 0.006041078
1.126566e+07 2.4444062e+06 42501.664 1.1089331e+07 331.81964 1.9739248e+07 6.2820185e+06 1.5392659e+06
5.0151195e+06 102264.37 1.1235937e+07 6.330702e+06 834021.9 4.5366445e+06 487721.3 0.0
8.916474e+06 1.4112801e+06 2665.3835 1.823119e+07
