Basic-Policy-Gradient-Labs_/data/policies/Pendulum-v0#default_team_-862.7036662199861#squashedGaussian#200#-862.7036662199861.pt (torch, 21703 bytes, 18 tensors)

weight f4 [24, 3]
-0.76446074 -0.85827947 0.8364312 -0.69034463 -0.28065643 0.6641185 -0.46035525 -1.1497898
0.8987497 -0.32731014 -0.8081312 0.29572713 -0.8459678 0.09274945 -0.71502 0.09746231
-0.38060495 -0.6016021 -0.8684636 -0.34434786 -0.58317816 -0.19696778 0.4562327 0.5560896
-0.91752464 -0.8161638 0.65999913 -0.021911945 0.053923387 -0.9541105 -0.5885717 -0.07403962
0.7711259 -0.13952535 -0.9940987 -0.95803934 -0.65874916 -0.35477018 -1.1663481 0.089824654
0.05337053 -0.75594276 -1.1219621 0.5518612 -0.14042543 -0.29901165 -0.37523574 1.0342966
-0.6813617 0.20057966 -0.7643596 -0.34650597 0.008217671 -0.9352662 -0.49307805 0.4567661
0.60484517 -0.5114667 -1.0196563 0.9461146 -0.8886477 -0.6195533 -1.0206231 -0.931208
-0.6539488 0.9439876 -0.401348 -0.5061533 -0.87738734 -1.0892029 0.3406709 -0.72244084
00000000: b3b3 43bf 34b8 5bbf 5b20 563f 6dba 30bf
00000010: 33b2 8fbe ac03 2a3f afb3 ebbe 502c 93bf
00000020: 7614 663f 3295 a7be b0e1 4ebf 8c69 973e
00000030: 5991 58bf 6cf3 bd3d 8d0b 37bf 529a c73d
00000040: a7de c2be 9802 1abf a153 5ebf 5d4e b0be
00000050: 2a4b 15bf ecb1 49be 5597 e93e e35b 0e3f
00000060: e5e2 6abf 1cf0 50bf b4f5 283f ae80 b3bc
00000070: c5de 5c3d 9640 74bf a3ac 16bf 16a2 97bd
00000080: 8268 453f bcdf 0ebe 417d 7ebf 1142 75bf
00000090: c9a3 28bf 70a4 b5be e54a 95bf fdf5 b73d
000000a0: 0f9b 5a3d 7785 41bf 749c 8fbf c746 0d3f
000000b0: afcb 0fbe 0e18 99be e61e c0be d563 843f
000000c0: b86d 2ebf c164 4d3e 12ad 43bf 3b69 b1be
000000d0: 69a3 063c 9b6d 6fbf ba74 fcbe 3fdd e93e
000000e0: 22d7 1a3f 7bef 02bf 1984 82bf 9134 723f
000000f0: 6a7e 63bf 0c9b 1ebf c7a3 82bf a663 6ebf
00000100: 3069 27bf 2ca9 713f 7c7d cdbe 4393 01bf
00000110: 759c 60bf 006b 8bbf 6b6c ae3e e2f1 38bf

bias f4 [24]
1.0400558 0.8121282 0.5647554 0.838681 -0.15195662 0.82449514 0.44718966 0.9374134
0.67595637 0.8135607 0.77425027 0.5207507 0.31186303 0.59986115 1.050283 0.62451035
0.5985753 1.0972537 0.48398075 0.08228946 0.3634226 0.6104717 0.9163548 0.2014778
00000000: 8c20 853f a2e7 4f3f cf93 103f ccb3 563f
00000010: 849a 1bbe 1d12 533f 0bf6 e43e 53fa 6f3f
00000020: 7a0b 2d3f 8445 503f 4435 463f eb4f 053f
00000030: 83ac 9f3e 8090 193f ac6f 863f e9df 1f3f
00000040: 3b3c 193f cf72 8c3f 53cc f73e 6087 a83d
00000050: 8712 ba3e e047 1c3f 3a96 6a3f 3250 4e3e

weight f4 [36, 24]
0.07159867 -0.18526591 -0.2304763 0.084578566 -0.17305611 0.027431939 0.13158646 0.07369897
-0.14060748 0.12640145 -0.102107055 0.05358758 -0.2247551 0.06179737 0.09056082 -0.10950181
0.07726964 -0.25527853 -0.25045648 -0.050229006 -0.041853555 -0.1427491 -0.073181406 -0.1151587
0.6225455 0.41884208 0.60026693 0.5471941 0.39477146 0.5353961 0.5353963 0.45898253
0.67620647 0.6172727 0.5116325 0.44829816 0.35210454 0.4130651 0.35913336 0.40782106
0.2670252 0.36548835 0.3568866 0.34918573 0.3652955 0.4417239 0.65061694 0.6628482
0.5611826 0.47926423 0.7443072 0.8056705 0.6209507 0.82597476 0.7332626 0.63009465
0.38929477 0.76263005 0.6324378 0.7247471 0.6936289 0.5569006 0.41702265 0.3655338
0.4931662 0.85684115 0.6549447 0.69111574 0.56233203 0.7347434 0.71992326 0.55355096
0.40546817 0.50139576 0.6267245 0.48813197 0.62684584 0.70184374 0.55673647 0.5662614
0.6196281 0.7800471 0.69842863 0.63669884 0.6138235 0.7609749 0.7255961 0.48670954
0.5409224 0.69352496 0.7251203 0.37714154 0.55627054 0.6776375 0.58659965 0.5493486
0.35505298 0.49918422 0.6785456 0.5699382 0.41707858 0.48411074 0.66132617 0.36794412
0.46887648 0.48408276 0.6382549 0.50158143 0.8107424 0.4575393 0.7699778 0.30170876
0.82810974 0.74514514 0.41553584 0.47176138 0.8386191 0.47361735 0.46215656 0.46958768
0.46390435 0.45674586 0.69452745 0.656496 0.714331 0.61579764 0.6600022 0.50811666
0.6422228 0.7326474 0.71215725 0.42893237 0.45976892 0.45072302 0.71809363 0.49135303
0.7073162 0.5435327 0.6727141 0.5068245 0.6349153 0.6487317 0.45891443 0.5008668
0.6891801 0.58206034 0.6285128 0.46520945 0.69347143 0.48875734 0.635917 0.5767328
0.57750696 0.63680017 0.37587112 0.7844735 0.76382196 0.4782817 0.6411834 0.45936957
0.73307234 0.47929955 0.5929878 0.2879967 0.58251995 0.44597554 0.49413562 0.612055
0.1113992 -0.25029585 0.051311117 -0.06500526 0.09173507 -0.28089142 -0.28472304 -0.2671993
-0.22376235 -0.3001569 0.07271949 -0.099391244 0.0748897 -0.1049727 -0.005368805 0.017338078
-0.10449997 0.026727004 -0.18931717 0.0044214204 -0.28506932 -0.15092434 0.07426964 -0.05072772
0.78280145 0.5508732 0.37820044 0.6256121 0.48846334 0.4434578 0.4969247 0.6441637
0.39139435 0.7944793 0.7296592 0.7376722 0.8457472 0.457047 0.69375306 0.7262776
0.54525805 0.52269757 0.5161853 0.6208805 0.7838044 0.7539443 0.6791899 0.63560146
0.5753891 0.37485313 0.4621102 0.5572768 0.47866938 0.5378542 0.7401854 0.59588176
0.34937805 0.4958776 0.34986284 0.6245777 0.8081197 0.7659068 0.68568885 0.35906732
0.70923346 0.7836589 0.7049108 0.5872721 0.608381 0.37282974 0.69853276 0.6321704
0.3409827 0.5363877 0.40529186 0.63161314 0.52803355 0.551106 0.75605273 0.6006375
0.6587236 0.7385702 0.5096511 0.6211117 0.603077 0.4824287 0.6822157 0.36439452
00000000: 53a2 923d 59b6 3dbe fb01 6cbe 8737 ad3d
00000010: 9f35 31be f2b8 e03c 9abe 063e 7cef 963d
00000020: 68fb 0fbe 626f 013e 811d d1bd a67e 5b3d
00000030: 3326 66be 3d1f 7d3d f477 b93d 7c42 e0bd
00000040: 8c3f 9e3d deb3 82be d53b 80be eebc 4dbd
00000050: a26e 2bbd d22c 12be 22e0 95bd 53d8 ebbd
00000060: 245f 1f3f 7872 d63e 18ab 193f ea14 0c3f
00000070: 7c1f ca3e b80f 093f bb0f 093f c2ff ea3e
00000080: de1b 2d3f 9505 1e3f 59fa 023f 5687 e53e
00000090: 0c47 b43e 457d d33e 54e0 b73e eccd d03e
000000a0: 87b7 883e 4a21 bb3e d7b9 b63e 79c8 b23e
000000b0: 0308 bb3e a329 e23e d58e 263f 6bb0 293f
000000c0: aaa9 0f3f 1f62 f53e eb8a 3e3f 6c40 4e3f
000000d0: a0f6 1e3f 1573 533f 19b7 3b3f e24d 213f
000000e0: a551 c73e b93b 433f 72e7 213f 0789 393f
000000f0: aa91 313f 0a91 0e3f fe83 d53e 3f27 bb3e
00000100: 4880 fc3e f159 5b3f 75aa 273f f6ec 303f
00000110: fef4 0f3f 2518 3c3f e44c 383f 84b5 0d3f
00000120: 8699 cf3e 795b 003f 0471 203f 6fec f93e
00000130: f878 203f 08ac 333f 4886 0e3f 82f6 103f
00000140: f29f 1e3f 2bb1 473f 38cc 323f b2fe 223f
00000150: 8923 1d3f 40cf 423f aac0 393f fe31 f93e
00000160: e479 0a3f da8a 313f 7ca1 393f b218 c13e
00000170: bf67 0e3f a779 2d3f 652b 163f 1ca2 0c3f
00000180: 81c9 b53e 1395 ff3e 2ab5 2d3f 78e7 113f
00000190: 538b d53e 5ddd f73e ac4c 293f 2c63 bc3e
000001a0: 9410 f03e b2d9 f73e ac64 233f a467 003f
000001b0: d08c 4f3f 9742 ea3e 441d 453f 9279 9a3e
000001c0: 00ff 533f d5c1 3e3f 1dc1 d43e b58a f13e
000001d0: beaf 563f f97d f23e c99f ec3e cc6d f03e
000001e0: df84 ed3e 98da e93e 8dcc 313f 1f10 283f
000001f0: 65de 363f eaa4 1d3f e7f5 283f ef13 023f
00000200: b768 243f c88e 3b3f f04f 363f 069d db3e
00000210: d566 eb3e 2bc5 e63e fcd4 373f a092 fb3e
00000220: ad12 353f f624 0b3f fe36 2c3f 40bf 013f
00000230: cf89 223f 4813 263f d5f6 ea3e ce38 003f
00000240: 1b6e 303f e801 153f 37e6 203f ef2f ee3e
00000250: 5887 313f 673e fa3e 75cb 223f c3a4 133f
00000260: 7fd7 133f 5605 233f 2e72 c03e 41d3 483f
00000270: d689 433f 57e1 f43e 9824 243f 7d32 eb3e
00000280: a1aa 3b3f c066 f53e 0cce 173f 4e74 933e
00000290: 0720 153f e856 e43e 58ff fc3e a3af 1c3f
000002a0: 4425 e43d c726 80be 9b2b 523d 7a21 85bd
000002b0: 99df bb3d 00d1 8fbe 38c7 91be 59ce 88be
000002c0: f521 65be 2aae 99be f5ed 943d a38d cbbd
000002d0: c55f 993d edfb d6bd cdec afbb 9608 8e3c
000002e0: 1504 d6bd 97f2 da3c 5cdc 41be 90e1 903b
000002f0: 9bf4 91be e98b 1abe ae1a 983d dfc7 4fbd
00000300: ad65 483f 0706 0d3f 7da3 c13e 1d28 203f
00000310: de17 fa3e e70c e33e ea6c fe3e eae7 243f
00000320: d764 c83e ff62 4b3f f2ca 3a3f 16d8 3c3f
00000330: e382 583f 1002 ea3e cd99 313f 54ed 393f
00000340: 0896 0b3f 82cf 053f b824 043f 06f2 1e3f
00000350: 68a7 483f 7e02 413f 64df 2d3f c7b6 223f
00000360: b34c 133f c0ec bf3e b599 ec3e b1a9 0e3f
00000370: 2714 f53e d0b0 093f ca7c 3d3f b58b 183f
00000380: aee1 b23e abe3 fd3e 3921 b33e 53e4 1f3f
00000390: efe0 4e3f 7812 443f 4e89 2f3f acd7 b73e
000003a0: 5390 353f df9d 483f 0975 343f 7757 163f
000003b0: dbbe 1b3f 8ae3 be3e 0bd3 323f ebd5 213f
000003c0: 4995 ae3e b450 093f 6a82 cf3e 66b1 213f
000003d0: 352d 073f 4815 0d3f ac8c 413f 61c3 193f
000003e0: 1ca2 283f f012 3d3f 7f78 023f 2d01 1f3f
000003f0: 4163 1a3f e500 f73e b0a5 2e3f eb91 ba3e

bias f4 [36]
-0.18768328 0.60248816 0.78128064 0.65749115 0.5530193 0.82161945 0.6165274 -0.28162274
0.8903112 0.80217546 0.55227566 0.49333316 0.44180906 0.7820001 0.71181023 0.08540512
0.025600709 -0.28098395 -0.24940754 0.83011866 0.49421346 0.7338452 0.61532223 0.72313905
0.5636939 0.7274814 -0.17399493 -0.18987636 -0.013920544 0.71772665 0.83551115 0.49879432
-0.04151508 -0.016923811 0.3675604 0.7047286
00000000: 0c30 40be aa3c 1a3f 0202 483f 5751 283f
00000010: ac92 0d3f a755 523f bdd4 1d3f db30 90be
00000020: 6feb 633f 5f5b 4d3f f061 0d3f 2a96 fc3e
00000030: cc34 e23e 2931 483f 3239 363f e1e8 ae3d
00000040: 94b8 d13c 21dd 8fbe b164 7fbe a882 543f
00000050: 8c09 fd3e 47dd 3b3f c285 1d3f a41f 393f
00000060: 3e4e 103f 393c 3a3f ba2b 32be f36e 42be
00000070: fe12 64bc efbc 373f 0fe4 553f f861 ff3e
00000080: b70b 2abd cea3 8abc e030 bc3e 1869 343f

weight f4 [1, 36]
0.051480204 0.5184411 0.70056003 0.76603734 0.77008754 0.8036655 0.6465772 -0.06635761
0.828354 0.81665725 0.7270032 0.4935178 0.5937623 0.7172308 0.74602956 -0.1627497
0.23623613 -0.080536 0.21942279 0.7896441 0.6208446 0.6981267 0.6611999 0.74623555
0.62255144 0.8549386 -0.09125054 0.08906754 -0.0607823 0.8211895 0.73892426 0.67042017
0.075726576 0.0007149326 0.37904337 0.64352816
00000000: e8dc 523d 8eb8 043f e757 333f 061b 443f
00000010: 7524 453f 06bd 4d3f 1586 253f 80e6 87bd
00000020: 020f 543f 7310 513f e21c 3a3f 5dae fc3e
00000030: ce00 183f 709c 373f cbfb 3e3f dba7 26be
00000040: e2e7 713e 0ff0 a4bd 5eb0 603e 1e26 4a3f
00000050: acef 1e3f 6eb8 323f 6644 293f 4b09 3f3f
00000060: 885f 1f3f 42dd 5a3f 90e1 babd 0b69 b63d
00000070: dcf6 78bd 7a39 523f 242a 3d3f a8a0 2b3f
00000080: 8916 9b3d 516a 3b3a f911 c23e 43be 243f

weight f4 [1, 36]
-0.044410992 0.23445176 0.2340286 0.29392332 0.24618103 0.25196472 0.24782671 -0.05134215
0.205047 0.22335538 0.31176746 0.15185629 0.22231893 0.30122626 0.19671689 0.029996932
-0.011689607 0.0909639 -0.048591323 0.14868143 0.25780374 0.11892563 0.21173131 0.15440366
0.21463513 0.21775015 -0.047683917 0.071604304 -0.011631019 0.22332805 0.3101719 0.25589606
-0.095826656 0.022606356 0.1406484 0.27308634
00000000: 4de8 35bd 1f14 703e 31a5 6f3e 1e7d 963e
00000010: e116 7c3e 8501 813e 49c6 7d3e 254c 52bd
00000020: d7f7 513e 46b7 643e fc9f 9f3e 3780 1b3e
00000030: 93a7 633e 543a 9a3e 2770 493e 20bc f53c
00000040: c485 3fbc 484b ba3d b207 47bd f23f 183e
00000050: dafe 833e 488f f33d 18d0 583e fe1b 1e3e
00000060: 50c9 5b3e e5f9 5e3e 3650 43bd 47a5 923d
00000070: 0890 3ebc 1cb0 643e dace 9e3e cf04 833e
00000080: c440 c4bd f730 b93c 2206 103e f9d1 8b3e

exp_avg f4 [24, 3]
368513.7 206665.02 -1.3483652e+07 344958.34 162244.77 -1.263946e+07 372197.12 212636.22
-1.4216329e+07 511539.6 323892.78 -1.3380108e+07 323439.7 66949.97 1.4790478e+06 380751.8
126456.75 1.7203412e+06 415333.5 113628.18 1.7291961e+06 389868.03 131137.22 -1.3975236e+07
339556.0 187325.77 -1.2188432e+07 391851.34 103919.61 1.8349201e+06 379414.25 167086.23
-1.4045133e+07 366296.34 129267.68 1.7305386e+06 427522.62 117341.55 1.94861e+06 340332.03
90290.23 1.68784e+06 1.2345749e+06 -211047.86 -7.0106975e+06 303954.2 149144.1 -1.2085385e+07
439550.88 97143.0 1.8827919e+06 419441.34 111344.45 1.8487772e+06 367948.38 123318.28
-1.3435149e+07 293282.2 158013.3 -1.1813954e+07 435522.7 125216.32 1.9124639e+06 365905.0
178905.75 -1.3589605e+07 399257.28 123743.445 1.7725896e+06 399872.75 72236.04 1.6817069e+06
00000000: 36f0 b348 41d2 4948 84be 4dcb cb6f a848
00000010: 3171 1e48 e4dc 40cb a4bc b548 0ea7 4f48
00000020: 89ec 58cb 73c6 f948 9926 9e48 0c2a 4ccb
00000030: f6ed 9d48 fcc2 8247 3e8c b449 fae9 b948
00000040: 60fc f647 aa00 d249 b0cc ca48 17ee dd47
00000050: 6115 d349 815d be48 4e10 0048 c43e 55cb
00000060: 80cc a548 71ef 3648 10fb 39cb 6b55 bf48
00000070: cef7 ca47 41fd df49 c842 b948 8f2b 2348
00000080: cd4f 56cb 0bdb b248 d779 fc47 553f d349
00000090: 54c0 d048 c62e e547 10de ed49 812d a648
000000a0: 1d59 b047 0009 ce49 77b4 9649 f719 4ec8
000000b0: 13f3 d5ca 466a 9448 06a6 1148 8968 38cb
000000c0: dc9f d648 80bb bd47 3fd5 e549 2bce cc48
000000d0: 3a78 d947 4aae e149 8ca9 b348 24db f047
000000e0: 0d01 4dcb 4634 8f48 534f 1a48 4244 34cb
000000f0: 56a8 d448 2990 f447 7f74 e949 20aa b248
00000100: 70b6 2e48 655c 4fcb 29f3 c248 b9af f147
00000110: 6d61 d849 1840 c348 0516 8d47 5749 cd49

exp_avg_sq f4 [24, 3]
5.491248e+09 1.0879167e+09 5.1945454e+12 4.6975974e+09 6.275121e+08 4.549701e+12 5.617235e+09 1.1244476e+09
5.716199e+12 1.1072522e+10 3.1303665e+09 5.667218e+12 5.390599e+09 2.3059838e+08 1.1027754e+11 8.656005e+09
8.1225626e+08 1.5101053e+11 9.319349e+09 6.408405e+08 1.5415201e+11 6.10484e+09 4.0426797e+08 5.5603526e+12
4.461843e+09 9.2811283e+08 4.2692085e+12 8.708257e+09 5.6325274e+08 1.6906276e+11 5.740022e+09 6.436498e+08
5.5703555e+12 7.5371e+09 7.843326e+08 1.5047788e+11 9.824173e+09 6.756274e+08 1.8989485e+11 6.3711555e+09
4.2340467e+08 1.4231387e+11 3.1745747e+10 4.9711816e+09 2.0395424e+12 3.4623939e+09 5.0640506e+08 4.1194805e+12
1.0605282e+10 5.1670214e+08 1.7978571e+11 1.0175286e+10 6.508176e+08 1.7388511e+11 5.210208e+09 3.6153667e+08
5.1066647e+12 2.998471e+09 5.855239e+08 3.9396246e+12 1.0353311e+10 7.633829e+08 1.850014e+11 5.1585705e+09
7.652954e+08 5.220442e+12 9.161071e+09 7.551154e+08 1.5976166e+11 8.444138e+09 2.997355e+08 1.441377e+11
00000000: e6a6 a34f 95b0 814e 612e 9754 d3ff 8b4f
00000010: 4d9c 154e ea69 8454 1a68 a74f 6b0b 864e
00000020: 005d a654 52fe 2450 9a95 3a4f 11f0 a454
00000030: 02a7 a04f 6fea 5b4d 6e68 cd51 0afc 0050
00000040: 30a8 414e b7a3 0c52 7fde 0a50 cdc9 184e
00000050: b490 0f52 3cf0 b54f 1ec5 c04d dbd3 a154
00000060: 29f9 844f 8347 5d4e 2a80 7854 5dc3 0150
00000070: 384a 064e b473 1d52 e410 ab4f 4475 194e
00000080: 621e a254 829f e04f ddff 3a4e b924 0c52
00000090: 3f64 1250 0615 214e 76da 3052 0fe0 bd4f
000000a0: 24e5 c94d 458a 0452 3586 ec50 1b27 944f
000000b0: 1a6f ed53 f05f 4e4f 0679 f14d 0bc9 6f54
000000c0: f107 1e50 fe61 f64d 4170 2752 a39f 1750
000000d0: c12a 1b4e 71f1 2152 bc46 9b4f e564 ac4d
000000e0: 9e9f 9454 09b9 324f 8b99 0b4e fb50 6554
000000f0: bf46 1a50 3201 364e c54b 2c52 c5bc 994f
00000100: ed75 364e 53ef 9754 b682 0850 9608 344e
00000110: 26ca 1452 a9a7 fb4f ceec 8e4d 1b3d 0652

exp_avg f4 [24]
-2.3795132e+06 -2.2114722e+06 -2.4606698e+06 -2.7092548e+06 -474818.56 -659140.2 -642569.1 -2.4608802e+06
-2.146299e+06 -651070.94 -2.432972e+06 -607751.6 -664103.3 -576129.4 -1.9524928e+06 -2.0601239e+06
-682246.8 -693652.2 -2.3109675e+06 -1.990857e+06 -673016.4 -2.3382738e+06 -662196.3 -585479.7
00000000: e53b 11ca 41fa 06ca f72f 16ca 1b5c 25ca
00000010: 52d8 e7c8 43ec 20c9 92e0 1cc9 4133 16ca
00000020: ecff 02ca eff3 1ec9 307f 14ca 7a60 14c9
00000030: 7522 22c9 16a8 0cc9 6657 eec9 df7a fbc9
00000040: 6d90 26c9 4359 29c9 de0c 0dca 4806 f3c9
00000050: 864f 24c9 87b7 0eca 45ab 21c9 7bf0 0ec9

exp_avg_sq f4 [24]
1.3019938e+11 1.13562845e+11 1.4156569e+11 1.5576693e+11 1.0219751e+10 1.8679493e+10 1.855748e+10 1.3980493e+11
1.0656843e+11 1.825912e+10 1.3836408e+11 1.6254161e+10 1.9640613e+10 1.4195708e+10 7.543661e+10 1.0102113e+11
2.0598708e+10 2.0826407e+10 1.26306e+11 9.545029e+10 2.040485e+10 1.2866984e+11 1.9186794e+10 1.548363e+10
00000000: e783 f251 fc86 d351 e4d7 0352 bb11 1152
00000010: 4249 1850 4e2c 8b50 9643 8a50 1834 0252
00000020: ca7f c651 820a 8850 91dc 0052 b434 7250
00000030: 7f55 9250 5488 5350 fb82 8c51 a12a bc51
00000040: eb78 9950 382b 9b50 6543 eb51 3fca b151
00000050: 2a07 9850 90aa ef51 e8f3 8e50 5cb9 6650

exp_avg f4 [36, 24]
0.02558425 0.01703745 0.015233557 0.035074987 0.027038937 0.08008349 0.0 0.070593506
0.004879206 0.10831559 0.014501988 0.04878792 0.05687057 0.07955594 0.032374103 0.027517881
0.034951586 0.11783553 0.005953955 0.0 0.030699132 0.0022778069 0.08671671 0.011771655
-772183.2 -599517.94 -752092.1 -325289.6 -68029.98 -72709.445 -78952.57 -515477.4
-589346.94 -106196.24 -672612.56 -105732.27 -125969.484 -76904.52 -113671.15 -853076.4
-94238.81 -122271.375 -498137.94 -723692.1 -120494.086 -797909.56 -114561.734 -85260.75
-1.0768666e+06 -835448.3 -1.0475947e+06 -453700.66 -98165.695 -104932.31 -114550.266 -717456.25
-821752.8 -153413.62 -936912.4 -152772.33 -182230.06 -110800.97 -163587.98 -1.1877526e+06
-136509.72 -177185.97 -692997.94 -1.00726256e+06 -174584.36 -1.1120406e+06 -166013.58 -123546.4
-1.1869952e+06 -920715.2 -1.1543834e+06 -500111.2 -109095.54 -116619.96 -127471.195 -790438.4
-905753.0 -170542.33 -1.0324263e+06 -169836.64 -202642.53 -123092.59 -181698.19 -1.3086922e+06
-151849.62 -197117.0 -763401.8 -1.1097274e+06 -194213.95 -1.225573e+06 -184687.23 -137440.58
-1.1920676e+06 -924685.6 -1.1593896e+06 -502258.5 -109441.46 -116985.6 -127832.336 -793897.8
-909633.8 -171068.4 -1.0369001e+06 -170360.08 -203253.8 -123492.055 -182241.1 -1.3143898e+06
-152294.42 -197686.94 -766762.9 -1.1145832e+06 -194781.06 -1.2308489e+06 -185222.34 -137840.94
-1.2518229e+06 -970873.94 -1.2171816e+06 -527426.3 -115672.664 -123655.445 -135281.67 -833324.06
-955190.56 -180859.7 -1.0885946e+06 -180117.03 -214950.4 -130481.625 -192595.86 -1.3797882e+06
-161109.9 -209149.39 -804756.4 -1.1699429e+06 -206064.64 -1.2923698e+06 -195960.9 -145830.39
-984923.06 -764291.5 -958497.25 -414958.16 -88920.19 -95043.875 -103586.4 -656593.44
-751631.4 -138913.61 -857221.2 -138325.34 -164937.25 -100411.414 -148257.11 -1.0868702e+06
-123504.7 -160286.36 -634299.94 -921809.25 -157940.58 -1.0172866e+06 -150179.95 -111765.05
0.0104761785 0.013268344 0.0 0.052464094 1.1729828 0.22039904 0.3416355 0.060310345
0.0038712989 1.1239096 0.001419801 0.85493094 2.0206506 0.31887287 1.4009931 0.0
0.9561767 1.9133389 0.0011101363 0.0 1.7932972 0.0 1.8146861 0.85791785
-1.2929445e+06 -1.00271956e+06 -1.2570712e+06 -544759.9 -119731.016 -127994.33 -140072.38 -860591.9
-986558.44 -187217.19 -1.1242718e+06 -186451.1 -222525.11 -135046.36 -199314.31 -1.4249668e+06
-166799.5 -216540.44 -831065.3 -1.2082252e+06 -213345.84 -1.3347699e+06 -202886.52 -150983.45
-1.2699132e+06 -984965.75 -1.2348922e+06 -535068.2 -117140.36 -125218.945 -136925.53 -845505.5
-969012.7 -183132.94 -1.1044298e+06 -182379.06 -217627.42 -132153.34 -194990.03 -1.3999021e+06
-163092.97 -211715.89 -816551.75 -1.1870381e+06 -208599.17 -1.3111096e+06 -198366.47 -147621.2
-1.119417e+06 -868439.56 -1.0889451e+06 -471642.56 -102214.13 -109258.03 -119284.73 -745760.1
-854220.9 -159742.58 -973895.1 -159075.55 -189753.64 -115365.83 -170272.42 -1.2346136e+06
00000000: 1096 d13c 1f92 8b3c 2b96 793c caaa 0f3d
00000010: c380 dd3c d002 a43d 0000 0000 5493 903d
00000020: bfe1 9f3b 90d4 dd3d bf99 6d3c d8d5 473d
00000030: 1df1 683d 3aee a23d b59a 043d 2e6d e13c
00000040: 6529 0f3d c153 f13d 6519 c33b 0000 0000
00000050: bf7c fb3c 4247 153b 8898 b13d e6dd 403c
00000060: 7385 3cc9 df5d 12c9 c29d 37c9 33d5 9ec8
00000070: fdde 84c7 b902 8ec7 4934 9ac7 adb2 fbc8
00000080: 2fe2 0fc9 1f6a cfc7 4936 24c9 2382 cec7
00000090: be08 f6c7 4334 96c7 9303 dec7 4645 50c9
000000a0: 680f b8c7 b0cf eec7 3e3b f3c8 c2ae 30c9
000000b0: 0b57 ebc7 59cd 42c9 dec0 dfc7 6086 a6c7
000000c0: 1574 83c9 85f7 4bc9 abc2 7fc9 9588 ddc8
000000d0: d9ba bfc7 28f2 ccc7 22bb dfc7 0429 2fc9
000000e0: 8d9f 48c9 68d1 15c8 06bd 64c9 1531 15c8
000000f0: 84f5 31c8 7c68 d8c7 ffc0 1fc8 45fd 90c9
00000100: 6e4f 05c8 7e08 2dc8 5f30 29c9 e9e9 75c9
00000110: 177e 2ac8 45bf 87c9 651f 22c8 334d f1c7
00000120: 9ae5 90c9 b3c8 60c9 7bea 8cc9 e631 f4c8
00000130: c513 d5c7 fbc5 e3c7 99f7 f8c7 66fa 40c9
00000140: 9021 5dc9 958b 26c8 a50e 7cc9 29db 25c8
00000150: a2e4 45c8 4c6a f0c7 8c70 31c8 a2c0 9fc9
00000160: 684a 14c8 407f 40c8 9d60 3ac9 fb76 87c9
00000170: 7da9 3dc8 289b 95c9 cf5b 34c8 2538 06c8
00000180: 1d84 91c9 dac0 61c9 ed86 8dc9 503e f5c8
00000190: bbc0 d5c7 cd7c e4c7 2bac f9c7 9dd2 41c9
000001a0: 1d14 5ec9 1a0f 27c8 4226 7dc9 055e 26c8
000001b0: 737d 46c8 0732 f1c7 46f8 31c8 ae72 a0c9
000001c0: 9bb9 14c8 bc0d 41c8 ae32 3bc9 ba0e 88c9
000001d0: 4437 3ec8 0740 96c9 96e1 34c8 3c9c 06c8
000001e0: 77cf 98c9 9f07 6dc9 ed94 94c9 25c4 00c9
000001f0: 55ec e1c7 b983 f1c7 6b1c 04c8 c172 4bc9
00000200: 6933 69c9 ed9e 30c8 95e2 84c9 42e5 2fc8
00000210: 9ae9 51c8 d0d8 fec7 f714 3cc8 626e a8c9
00000220: 7a55 1dc8 593f 4cc8 4679 44c9 b7d0 8ec9
00000230: 293c 49c8 8ec2 9dc9 3a5e 3fc8 9969 0ec8
00000240: b175 70c9 3898 3ac9 1402 6ac9 c59d cac8
00000250: 18ac adc7 f0a1 b9c7 3351 cac7 174d 20c9
00000260: f680 37c9 67a8 07c8 5348 51c9 5615 07c8
00000270: 5012 21c8 b51d c4c7 47c8 10c8 b2ac 84c9
00000280: 5a38 f1c7 9787 1cc8 bfdb 1ac9 140d 61c9
00000290: 253d 1ac8 6a5c 78c9 fda8 12c8 864a dac7
000002a0: 47a4 2b3c 7863 593c 0000 0000 97e4 563d
000002b0: 4d24 963f 49b0 613e d9ea ae3e fb07 773d
000002c0: 9eb5 7d3b 45dc 8f3f 9e18 ba3a c1dc 5a3f
000002d0: 5752 0140 4e43 a33e be53 b33f 0000 0000
000002e0: ffc7 743f 4ae8 f43f fe81 913a 0000 0000
000002f0: c38a e53f 0000 0000 a247 e83f 81a0 5b3f
00000300: 84d4 9dc9 f9cd 74c9 7a73 99c9 7eff 04c9
00000310: 82d9 e9c7 2afd f9c7 18ca 08c8 fe1a 52c9
00000320: e7db 70c9 4cd4 36c8 7e3d 89c9 c614 36c8
00000330: 474f 59c8 97e1 03c8 94a4 42c8 36f2 adc9
00000340: e0e3 22c8 1c77 53c8 95e5 4ac9 0a7d 93c9
00000350: 7658 50c8 8fef a2c9 a121 46c8 dd71 13c8
00000360: ca04 9bc9 5c78 70c9 62be 96c9 c3a1 02c9
00000370: 2eca e4c7 7991 f4c7 62b7 05c8 186c 4ec9
00000380: 4b93 6cc9 3cd7 32c8 6ed1 86c9 c41a 32c8
00000390: db86 54c8 560e 01c8 826b 3ec8 f1e2 aac9
000003a0: 3e45 1fc8 f9c0 4ec8 7c5a 47c9 f1e6 90c9
000003b0: cbb5 4bc8 2d0c a0c9 9eb7 41c8 4d29 10c8
000003c0: c8a5 88c9 7905 54c9 89ed 84c9 524b e6c8
000003d0: 11a3 c7c7 0465 d5c7 5dfa e8c7 0212 36c9
000003e0: ce8c 50c9 a5ff 1bc8 72c4 6dc9 e358 1bc8
000003f0: 694e 39c8 ea52 e1c7 1b48 26c8 adb5 96c9

exp_avg_sq f4 [36, 24]
15.477287 6.8637033 5.487219 24.575466 17.287363 118.337975 0.0 88.09492
0.5629209 214.48943 4.8428926 48.218277 74.94569 116.06592 21.450584 17.905224
25.374207 255.77867 0.7008672 0.0 22.284433 0.122682706 144.95146 3.2766082
1.5710143e+10 9.562296e+09 1.5278913e+10 2.6515745e+09 2.2647179e+08 2.5011518e+08 2.8539645e+08 7.231292e+09
9.103466e+09 5.403798e+08 1.2206665e+10 5.385136e+08 7.605377e+08 2.912905e+08 3.453259e+08 1.9989238e+10
4.1221507e+08 6.888372e+08 6.8207283e+09 1.43998e+10 6.800674e+08 1.704581e+10 6.064255e+08 3.3783475e+08
3.0194997e+10 1.8346566e+10 2.934111e+10 5.0762214e+09 4.66006e+08 5.1490938e+08 5.934945e+08 1.3854421e+10
1.747136e+10 1.1148488e+09 2.3429083e+10 1.1111269e+09 1.5724581e+09 5.9850445e+08 7.2625875e+08 3.8404784e+10
8.5410323e+08 1.4288397e+09 1.3061266e+10 2.763843e+10 1.4097468e+09 3.2752159e+10 1.2577011e+09 7.00363e+08
3.6592038e+10 2.2222805e+10 3.5548905e+10 6.144892e+09 5.7407456e+08 6.343921e+08 7.33096e+08 1.6775039e+10
2.116437e+10 1.3743939e+09 2.8382091e+10 1.3698144e+09 1.9396406e+09 7.3703616e+08 9.002055e+08 4.6536393e+10
1.05406944e+09 1.7639844e+09 1.5812542e+10 3.3481329e+10 1.7400545e+09 3.968765e+10 1.5525893e+09 8.644411e+08
3.6920226e+10 2.242439e+10 3.5869536e+10 6.2016476e+09 5.781095e+08 6.3881805e+08 7.3774144e+08 1.6928622e+10
2.1356034e+10 1.383783e+09 2.8638896e+10 1.3791809e+09 1.9526441e+09 7.422686e+08 9.0472346e+08 4.6954537e+10
1.06099654e+09 1.7753865e+09 1.5957751e+10 3.3784195e+10 1.7514385e+09 4.0044245e+10 1.5626676e+09 8.700984e+08
4.0631063e+10 2.4667392e+10 3.946654e+10 6.8177055e+09 6.44236e+08 7.120094e+08 8.2428115e+08 1.8615278e+10
2.3493734e+10 1.5432165e+09 3.1506715e+10 1.5381006e+09 2.1787564e+09 8.26939e+08 1.0142741e+09 5.1669975e+10
1.184431e+09 1.9825294e+09 1.7545542e+10 3.7167514e+10 1.9554537e+09 4.4066038e+10 1.7448901e+09 9.7143334e+08
2.5341299e+10 1.540606e+10 2.463121e+10 4.2657892e+09 3.837103e+08 4.238998e+08 4.870435e+08 1.1639151e+10
1.4669831e+10 9.171413e+08 1.967147e+10 9.14055e+08 1.2927091e+09 4.930152e+08 5.937702e+08 3.2234875e+10
7.017012e+08 1.1734633e+09 1.0974544e+10 2.320561e+10 1.1580087e+09 2.7489913e+10 1.0329703e+09 5.75303e+08
2.1041389 3.3752236 0.0 31.95701 9193.094 309.56232 935.5666 32.12965
0.2873307 8240.487 0.038647722 4727.0664 27114.213 671.853 15578.1455 0.0
6344.8975 25298.697 0.0131847225 0.0 21886.387 0.0 22528.148 5238.433
4.3317187e+10 2.6294899e+10 4.207325e+10 7.2663977e+09 6.8981645e+08 7.624054e+08 8.831914e+08 1.984152e+10
2.5044308e+10 1.6527192e+09 3.3586444e+10 1.6472449e+09 2.3337027e+09 8.853633e+08 1.0874406e+09 5.5084536e+10
1.2688087e+09 2.1239361e+09 1.8700667e+10 3.9620923e+10 2.0948529e+09 4.6978314e+10 1.8693263e+09 1.0406671e+09
4.1839034e+10 2.5405018e+10 4.0643047e+10 7.0235085e+09 6.6135994e+08 7.30872e+08 8.4526374e+08 1.9174515e+10
2.4195736e+10 1.5837582e+09 3.2447527e+10 1.5785023e+09 2.235538e+09 8.49006e+08 1.0382454e+09 5.3207245e+10
1.2150383e+09 2.0335037e+09 1.8073434e+10 3.827711e+10 2.0058991e+09 4.53772e+10 1.7898001e+09 9.9649e+08
3.2613417e+10 1.9814857e+10 3.1690007e+10 5.482258e+09 5.0517245e+08 5.581653e+08 6.435005e+08 1.4962461e+10
1.8869883e+10 1.2085976e+09 2.5304308e+10 1.2045524e+09 1.7047988e+09 6.487603e+08 7.877994e+08 4.1479668e+10
00000000: f8a2 7741 75a3 db40 4c97 af40 8e9a c441
00000010: 854c 8a41 0bad ec42 0000 0000 9930 b042
00000020: 961b 103f 4b7d 5643 faf8 9a40 84df 4042
00000030: 31e4 9542 c021 e842 cc9a ab41 e63d 8f41
00000040: 60fe ca41 57c7 7f43 086c 333f 0000 0000
00000050: 8546 b241 1241 fb3d 93f3 1043 f3b3 5140
00000060: 7119 6a50 447d 0e50 6dac 6350 d10b 1e4f
00000070: f7fa 574d 4787 6e4d 6f16 884d 6182 d74f
00000080: f8a6 0750 2ad6 004e bbe4 3550 4364 004e
00000090: 8a53 354e ece5 8a4d 0aaa a44d 72ee 9450
000000a0: 398f c44d 493b 244e 0746 cb4f e192 5650
000000b0: 0524 224e 9b00 7e50 4695 104e 9817 a14d
000000c0: 63f8 e050 4cb1 8850 ba9b da50 7f48 974f
000000d0: 8035 de4d 2687 f54d 0880 0d4e 6c72 4e50
000000e0: fa2b 8250 7ce6 844e 6e8f ae50 e774 844e
000000f0: 9d73 bb4e d0b1 0e4e 5127 2d4e a811 0f51
00000100: 53a2 4b4e ba54 aa4e c7a0 4250 1fec cd50
00000110: 0f0e a84e c905 f450 feed 954e c4fa 264e
00000120: e350 0851 a392 a550 146e 0451 ce21 b74f
00000130: bbde 084e 3940 174e a1c8 2e4e b2f7 7950
00000140: d5af 9d50 2cd7 a34e 8b76 d350 6b4b a34e
00000150: 2239 e74e 1eb9 2f4e 2fa0 564e 905c 2d51
00000160: 4b4f 7b4e 8848 d24e 10a0 6b50 9174 f950
00000170: 406e cf4e 18d9 1351 4415 b94e 4c19 4e4e
00000180: df89 0951 2113 a750 db9f 0551 d1d2 b84f
00000190: 01d5 094e 5c4e 184e 2ae4 2f4e 9141 7c50
000001a0: 671d 9f50 b5f5 a44e 5c60 d550 4369 a44e
000001b0: f8c5 e84e 7bf8 304e f0b3 574e 56eb 2e51
000001c0: 17f6 7c4e 7fa4 d34e fdc9 6d50 3db6 fb50
000001d0: a9c9 d04e 2b2d 1551 d548 ba4e 9872 4f4e
000001e0: cd5c 1751 51c9 b750 3a06 1351 f72e cb4f
000001f0: 0c99 194e 9bc1 294e 2186 444e d3b1 8a50
00000200: be0a af50 3bf7 b74e 4abe ea50 1b5b b74e
00000210: 2fdd 014f 5a28 454e 61d2 714e 547c 4051
00000220: f731 8d4e ff55 ec4e 77b9 8250 b475 0a51
00000230: b61b e94e a628 2451 d201 d04e 969b 674e
00000240: b1ce bc50 7491 6550 4e84 b750 c742 7e4f
00000250: a3f7 b64d 9521 ca4d 8d3d e84d d66f 2d50
00000260: f798 5a50 dda9 5a4e 5a90 9250 7ded 594e
00000270: 5a1a 9a4e 8516 eb4d db90 0d4e 252b f050
00000280: 714c 274e 42e3 8b4e 9088 2350 30e5 ac50
00000290: 9f0b 8a4e d9d0 cc50 8147 764e b529 094e
000002a0: 36aa 0640 aa03 5840 0000 0000 f5a7 ff41
000002b0: 60a4 0f46 fac7 9a43 43e4 6944 c384 0042
000002c0: 021d 933e f3c1 0046 134d 1e3d 88b8 9345
000002d0: 6dd4 d346 98f6 2744 9568 7346 0000 0000
000002e0: 2e47 c645 65a5 c546 bc04 583c 0000 0000
000002f0: c6fc aa46 0000 0000 4c00 b046 77b3 a345
00000300: 7d5e 2151 8ae9 c350 2ebc 1c51 378e d84f
00000310: 0e77 244e 88c5 354e ba91 524e b2d4 9350
00000320: 3a98 ba50 fd04 c54e 0f3d fa50 ed5d c44e
00000330: 7a19 0b4f 4a16 534e 0ea2 814e b534 4d51
00000340: f840 974e 6331 fd4e b154 8b50 7599 1351
00000350: d6b9 f94e 0302 2f51 50d7 de4e 471d 784e
00000360: d0dc 1b51 3a48 bd50 3b68 1751 1e51 d14f
00000370: 35ae 1d4e e340 2e4e ce86 494e 7cdc 8e50
00000380: b445 b450 77cc bc4e bfc0 f150 112c bc4e
00000390: 9a3f 054f 376b 4a4e 7889 774e 6236 4651
000003a0: 07d8 904e 9c69 f24e 57a8 8650 e697 0e51
000003b0: 2f1f ef4e 120b 2951 5d5c d54e ec94 6d4e
000003c0: 28fd f250 d7a1 9350 e41b ec50 4f62 a34f
000003d0: 8fe2 f04d b513 054e 276c 194e 42f5 5e50
000003e0: 7297 8c50 7913 904e 2388 bc50 0698 8f4e
000003f0: 553a cb4e 30ad 1a4e 76d3 3b4e 1886 1a51

exp_avg f4 [36]
0.12019636 -161499.6 -228328.42 -252531.38 -253452.0 -266924.97 -207989.98 1.3099867
-275930.16 -270523.72 -237478.1 -150941.9 -188882.78 -234003.86 -245136.3 0.0
3.8913817 0.8147392 2.4866085 -261686.25 -199107.77 -226985.44 -214453.39 -244982.4
-199340.19 -285150.9 0.0 0.07400604 5.255913 -272884.1 -242638.4 -217098.19
0.13999647 6.2277536 -111436.016 -207306.97
00000000: 8229 f63d e6b6 1dc8 1bfa 5ec8 d89c 76c8
00000010: 0083 77c8 9f55 82c8 7f1d 4bc8 a5ad a73f
00000020: 45bb 86c8 7717 84c8 86e9 67c8 7a67 13c8
00000030: b274 38c8 f784 64c8 1364 6fc8 0000 0000
00000040: 660c 7940 c092 503f 9824 1f40 908d 7fc8
00000050: f170 42c8 5caa 5dc8 596d 51c8 9a3d 6fc8
00000060: 0cab 42c8 dd3b 8bc8 0000 0000 7b90 973d
00000070: 7030 a840 833e 85c8 9af3 6cc8 8c02 54c8
00000080: 3c5b 0f3e c249 c740 02a6 d9c7 be72 4ac8

exp_avg_sq f4 [36]
270.93777 5.1713955e+08 1.0241928e+09 1.2512954e+09 1.2603901e+09 1.3965463e+09 8.519031e+08 13676.451
1.4917366e+09 1.4346045e+09 1.1079539e+09 4.5441434e+08 7.038931e+08 1.0761202e+09 1.1791094e+09 0.0
46244.67 3237.9648 27001.549 1.3422906e+09 7.810914e+08 1.0124579e+09 9.0405984e+08 1.1777324e+09
7.830003e+08 1.5929023e+09 0.0 258.85858 113133.46 1.4593796e+09 1.1559784e+09 9.2704506e+08
263.82455 130661.86 2.5194107e+08 8.4615085e+08
00000000: 0978 8743 6397 f64d c42f 744e 812a 954e
00000010: 0e40 964e 367b a64e 0a1c 4b4e ceb1 5546
00000020: 30d4 b14e a804 ab4e 1214 844e 80ae d84d
00000030: 3ad2 274e 9548 804e 908f 8c4e 0000 0000
00000040: aca4 3447 705f 4a45 19f3 d246 7503 a04e
00000050: 093a 3a4e 8763 714e 6f8b 574e 8a65 8c4e
00000060: 8cae 3a4e 85e3 bd4e 0000 0000 e66d 8143
00000070: bbf6 dc47 bbf8 ad4e a9cd 894e 5706 5d4e
00000080: 8be9 8343 ee32 ff47 0d45 704d f3bc 494e

exp_avg f4 [1, 36]
0.021907331 -8.093427e+06 -1.0485878e+07 -9.762269e+06 -8.3589985e+06 -9.996674e+06 -9.004406e+06 -0.054897863
-1.0829899e+07 -8.522295e+06 -8.868957e+06 -5.2280025e+06 -9.732625e+06 -8.61519e+06 -1.0474569e+07 0.0
-2.3080177 -0.25677553 -0.37948155 -1.0433462e+07 -1.0186427e+07 -8.318739e+06 -1.0649089e+07 -9.337339e+06
-9.213743e+06 -9.978886e+06 0.0 -0.29017574 -0.55995715 -1.0172046e+07 -1.0057666e+07 -9.756216e+06
0.0099303 -1.5606351 -4.3033595e+06 -9.659938e+06
00000000: 0177 b33c e6fd f6ca 7600 20cb ddf5 14cb
00000010: ad18 ffca 8289 18cb 7665 09cb 95dc 60bd
00000020: 4b40 25cb 370a 02cb 5d54 07cb c58b 9fca
00000030: 1182 14cb 1675 03cb 49d4 1fcb 0000 0000
00000040: 90b6 13c0 1578 83be 684b c2be b633 1fcb
00000050: bb6e 1bcb 26de fdca 017e 22cb fb79 0ecb
00000060: 2f97 0ccb 0644 18cb 0000 0000 ea91 94be
00000070: 5a59 0fbf 8e36 1bcb c277 19cb 38de 14cb
00000080: b2b2 223c e4c2 c7bf ff53 83ca 2266 13cb

exp_avg_sq f4 [1, 36]
11.453486 1.4411714e+12 2.3355515e+12 2.0214343e+12 1.4545157e+12 2.160253e+12 1.7078628e+12 30.985746
2.5135114e+12 1.496128e+12 1.6344427e+12 5.7643054e+11 2.0289269e+12 1.5537267e+12 2.3273642e+12 0.0
22423.463 323.66208 1135.1603 2.3443695e+12 2.2369432e+12 1.4556531e+12 2.4805232e+12 1.8385982e+12
1.803933e+12 2.08134e+12 0.0 876.89813 2225.7874 2.184982e+12 2.1608312e+12 2.0247569e+12
2.061811 9960.899 4.5011436e+11 1.9976562e+12
00000000: 7b41 3741 41c6 a753 6ef2 0754 7053 eb53
00000010: f253 a953 8e7c fb53 47d2 c653 cfe2 f741
00000020: 3d4e 1254 172c ae53 3046 be53 f035 0653
00000030: bc32 ec53 aae0 b453 6e78 0754 0000 0000
00000040: ed2e af46 bfd4 a143 21e5 8d44 d475 0854
00000050: 0d35 0254 d875 a953 ad62 1054 7f0a d653
00000060: 6501 d253 c44c f253 0000 0000 7b39 5b44
00000070: 991c 0b45 8a5d fe53 ca8d fb53 75b6 eb53
00000080: b6f4 0340 99a3 1b46 d099 d152 cb8e e853

exp_avg f4 [1, 36]
-0.07001848 -20.90463 -59.084087 -41.43635 -17.701038 -43.837658 -36.54944 -1.2011026
-80.111084 -29.422508 -41.13259 -34.419277 -23.419985 -48.05367 -55.171898 0.0
-18.383593 -2.0348766 -3.334311 -32.975746 -53.15561 -11.868552 -36.71777 -17.83359
-21.37863 -50.195473 0.0 -2.4338293 -6.1636157 -56.375366 -91.43189 -45.92979
-0.034172226 -16.78744 -4.666144 -60.20097
00000000: d965 8fbd af3c a7c1 1b56 6cc2 d3be 25c2
00000010: ba9b 8dc1 c359 2fc2 a032 12c2 bbbd 99bf
00000020: e038 a0c2 4c61 ebc1 c687 24c2 57ad 09c2
00000030: 215c bbc1 f536 40c2 06b0 5cc2 0000 0000
00000040: 9911 93c1 6b3b 02c0 5a65 55c0 2ae7 03c2
00000050: 589f 54c2 97e5 3dc1 ffde 12c2 31ab 8ec1
00000060: 6f07 abc1 2ac8 48c2 0000 0000 dcc3 1bc0
00000070: 573c c5c0 6080 61c2 21dd b6c2 1bb8 37c2
00000080: 2df8 0bbd ad4c 86c1 0d51 95c0 cbcd 70c2

exp_avg_sq f4 [1, 36]
109.21173 650703.7 4.381487e+06 2.568976e+06 755698.56 3.5263955e+06 2.4740992e+06 10651.641
1.022765e+07 1.2262254e+06 2.9406558e+06 1.8403214e+06 839042.1 4.4722225e+06 4.5522665e+06 0.0
1.561679e+06 16428.082 78255.29 1.5845055e+06 4.605461e+06 369809.88 2.29757e+06 549549.2
808308.25 3.5686552e+06 0.0 52209.977 211202.7 4.8288365e+06 1.4383059e+07 3.3492272e+06
23.956493 1.0349663e+06 32149.357 5.488327e+06
00000000: 686c da42 fbdc 1e49 5eb6 854a 40cc 1c4a
00000010: 297f 3849 ee3b 574a cd01 174a 906e 2646
00000020: c20f 1c4b 8baf 9549 bf7b 334a 0ba6 e049
00000030: 22d8 4c49 3d7b 884a 95ec 8a4a 0000 0000
00000040: 78a2 be49 2a58 8046 a5d7 9847 cc6b c149
00000050: 2a8c 8c4a 3c92 b448 883b 0c4a d32a 0649
00000060: 4457 4549 3dd0 594a 0000 0000 faf1 4b47
00000070: ad40 4e48 495d 934a d377 5b4b ad6b 4c4a
00000080: e6a6 bf41 65ad 7c49 b72a fb46 8e7d a74a
