Basic-Policy-Gradient-Labs_/data/policies/Pendulum-v0#default_team_-696.236263016708#squashedGaussian#200#-696.236263016708.pt (torch, 21703 bytes, 18 tensors)

weight f4 [24, 3]
000000 d7 f7 87 c1 50 ee a2 c1 fc bb b8 40 14 55 87 c1
       -16.996016 -20.366364 5.7729473 -16.916542
000010 aa 63 9e c1 28 7a b4 40 85 17 86 c1 0c bd a5 c1
       -19.798664 5.6399117 -16.761484 -20.717308
000020 e6 5f bb 40 cf c3 83 c1 f5 64 a1 c1 c0 11 a7 40
       5.8554564 -16.47061 -20.174295 5.2209167
000030 bb 07 95 c1 b0 3d 88 c1 d6 46 e3 c0 b8 01 8d c1
       -18.628775 -17.03012 -7.102397 -17.62584
000040 29 ff 8a c1 b3 7b de c0 69 ba 94 c1 de ec 89 c1
       -17.37459 -6.9526 -18.59102 -17.240658
000050 52 57 d8 c0 84 43 83 c1 d7 ec 98 c1 64 04 b2 40
       -6.760659 -16.407967 -19.115644 5.563036
000060 61 23 89 c1 64 35 a2 c1 59 e0 b3 40 d7 55 8e c1
       -17.142275 -20.27607 5.621136 -17.791914
000070 f8 da 88 c1 b4 d6 eb c0 6e bb 86 c1 0c 35 9d c1
       -17.106918 -7.369959 -16.841518 -19.650902
000080 c2 3f b8 40 0f 4b 8f c1 07 e7 90 c1 d7 a8 ec c0
       5.757783 -17.91165 -18.112806 -7.3956103
000090 00 98 93 c1 96 9d 8c c1 39 ef f2 c0 3e 77 8d c1
       -18.449219 -17.576946 -7.591702 -17.683224
0000a0 89 96 88 c1 74 3c e6 c0 8f 81 8b c1 55 af 93 c1
       -17.073503 -7.1948795 -17.438261 -18.460611
0000b0 d4 a7 91 40 91 6a 85 c1 9a bb a0 c1 36 24 c0 40
       4.551737 -16.677034 -20.091602 6.0044203
0000c0 78 60 93 c1 e1 91 86 c1 96 52 e1 c0 9e b0 90 c1
       -18.422104 -16.82123 -7.0413313 -18.086239
0000d0 3d 67 88 c1 e3 4d e7 c0 a1 0b 86 c1 7a 1e 99 c1
       -17.05041 -7.2282577 -16.755678 -19.139881
0000e0 81 62 b4 40 94 34 87 c1 6f 6a a5 c1 5f 8f bd 40
       5.6370244 -16.900673 -20.67697 5.9237514
0000f0 43 29 95 c1 77 c7 8d c1 ff ea ea c0 9c cd 89 c1
       -18.645147 -17.722395 -7.341186 -17.225395
000100 e9 c3 a1 c1 94 c3 bc 40 8f 17 91 c1 e1 42 8c c1
       -20.22066 5.8988743 -18.136503 -17.532656
000110 7f 88 e5 c0 ff ba 96 c1 86 81 85 c1 eb a3 df c0
       -7.172912 -18.841307 -16.688244 -6.9887595

bias f4 [24]
000000 89 3a a2 41 b3 3d a0 41 78 88 9e 41 24 6a a0 41
       20.278582 20.030127 19.816635 20.051826
000010 74 3a 90 41 a5 d4 97 41 6b 35 94 41 02 1f a1 41
       18.028542 18.97883 18.526083 20.14014
000020 e4 28 9f 41 df 4a 98 41 bf e6 9f 41 aa e6 95 41
       19.894966 19.036558 19.987669 18.737629
000030 2b 63 94 41 bc 7e 96 41 a5 67 a1 41 25 3d 9f 41
       18.548422 18.811882 20.175608 19.904856
000040 12 e1 95 41 8f 20 9a 41 94 5e 9d 41 a5 d2 9a 41
       18.734898 19.265898 19.67118 19.352854
000050 a4 4c 94 41 c4 bd 9e 41 ca 95 98 41 e1 a9 92 41
       18.537422 19.842659 19.07314 18.332949

weight f4 [36, 24]
000000 3b 52 92 3d 64 de 3d be 06 2a 6c be 5e e0 ac 3d
       0.071445905 -0.18541867 -0.23062906 0.08441232
000010 aa 5d 31 be 2f 4e df 3c 9a be 06 3e d6 92 96 3d
       -0.17320886 0.02725896 0.13158646 0.073522255
000020 73 23 10 be d9 41 01 3e ad 6e d1 bd 8a d1 5a 3d
       -0.14076023 0.12622775 -0.10226188 0.05342249
000030 a7 4e 66 be 4c 69 7c 3d d9 21 b9 3d 94 92 e0 bd
       -0.22490941 0.061623856 0.09039659 -0.109654576
000040 13 ea 9d 3d 8b ca 82 be ba 51 80 be ee bc 4d bd
       0.07710662 -0.25545153 -0.25062352 -0.050229006
000050 da 0e 2c bd dd 54 12 be dc 38 96 bd 6b 28 ec bd
       -0.04200635 -0.14290185 -0.07335064 -0.115311466
000060 ab 98 66 41 14 26 64 41 5f 92 62 41 11 28 6d 41
       14.412272 14.259296 14.160735 14.822282
000070 60 fc 89 41 90 48 8b 41 24 d4 8b 41 1b 88 63 41
       17.24823 17.41043 17.478584 14.220729
000080 67 c9 69 41 c5 e9 8a 41 63 e3 62 41 77 7c 89 41
       14.6116705 17.364145 14.180514 17.185774
000090 d1 5b 88 41 7c ae 89 41 f3 3b 7c 41 5e e9 5b 41
       17.044832 17.210197 15.764636 13.744474
0000a0 45 0e 89 41 86 55 89 41 84 b5 60 41 54 3a 5c 41
       17.131968 17.16676 14.044315 13.76424
0000b0 93 1d 89 41 84 ea 60 41 0e bc 8b 41 4e 6d 8c 41
       17.13944 14.057255 17.466824 17.553371
0000c0 bd 07 65 41 94 8a 64 41 24 4c 64 41 6d bc 70 41
       14.314389 14.283833 14.268589 15.046002
0000d0 ab 86 8b 41 91 56 8d 41 55 24 8d 41 d2 b3 65 41
       17.440756 17.667269 17.64274 14.356401
0000e0 b0 9e 64 41 5f cc 8b 41 b8 3e 64 41 7f 6b 8b 41
       14.288742 17.47479 14.265312 17.427488
0000f0 43 cf 8a 41 4c 8f 8a 41 e6 9d 7c 41 5c a8 5a 41
       17.351202 17.31997 15.788549 13.666103
000100 3e 97 8a 41 35 fc 8c 41 3d ea 64 41 88 20 61 41
       17.323849 17.623148 14.307187 14.070442
000110 93 69 8a 41 c7 05 65 41 c1 02 8c 41 cf 47 8b 41
       17.30155 14.3139105 17.501345 17.410063
000120 70 57 62 41 cf b3 64 41 e9 38 62 41 7d 77 6b 41
       14.146347 14.293899 14.138894 14.716672
000130 3f 7b 8b 41 ca 40 8c 41 3b a3 8b 41 5c 7d 64 41
       17.435179 17.531635 17.454702 14.280605
000140 ab 1c 68 41 e4 d7 8b 41 aa 1b 65 41 03 9f 8a 41
       14.506999 17.480415 14.319254 17.327642
000150 70 13 8a 41 91 19 8c 41 50 af 80 41 1e 67 5c 41
       17.259491 17.512484 16.085602 13.775175
000160 0f e1 8a 41 68 95 8b 41 07 d9 65 41 25 e9 5b 41
       17.359892 17.447952 14.365485 13.74442
000170 d7 44 8a 41 e8 e9 63 41 75 d9 8a 41 73 27 8b 41
       17.283613 14.244606 17.35618 17.394262
000180 30 7a 61 41 d2 9b 64 41 6f fe 62 41 96 b7 6c 41
       14.092331 14.288042 14.187118 14.794821
000190 48 c6 89 41 6a 7b 8a 41 dd 71 8c 41 60 42 61 41
       17.221817 17.31026 17.555597 14.078705
0001a0 56 a4 65 41 48 72 89 41 77 16 64 41 d9 82 89 41
       14.352621 17.180801 14.255485 17.18889
0001b0 53 9f 8b 41 9c a4 89 41 a2 02 81 41 9a 62 59 41
       17.452795 17.205376 16.126286 13.586573
0001c0 bc 25 8d 41 a8 f7 8b 41 4d d6 60 41 19 5e 5d 41
       17.643425 17.495926 14.05232 13.835473
0001d0 9d 7f 8c 41 72 97 60 41 2e d3 89 41 b5 7c 8a 41
       17.562311 14.036974 17.228115 17.310892
0001e0 45 36 63 41 a6 ec 63 41 3a 3e 63 41 ac 19 6e 41
       14.200749 14.2452755 14.202692 14.881268
0001f0 0a 27 8c 41 0f 89 8b 41 3e 6f 8c 41 85 7f 63 41
       17.519062 17.441923 17.554317 14.218633
000200 1c 69 68 41 f2 6e 8b 41 bc 43 65 41 b1 ed 88 41
       14.525661 17.429173 14.329037 17.11606
000210 fc cf 88 41 92 96 89 41 96 98 80 41 ce 69 5c 41
       17.101555 17.19852 16.074505 13.775831
000220 41 2e 8c 41 5b 5a 8a 41 b7 f2 64 41 49 ec 5d 41
       17.522585 17.294119 14.309257 13.870187
000230 f5 dd 8a 41 e4 62 63 41 26 cc 89 41 8b bc 8a 41
       17.358377 14.211643 17.224682 17.342062
000240 19 35 67 41 1d 50 66 41 c5 92 62 41 f7 68 6b 41
       14.450463 14.394559 14.160832 14.713126
000250 21 2a 8c 41 fa b2 8a 41 f5 6b 8c 41 0d f9 64 41
       17.52057 17.33739 17.552713 14.310803
000260 2c c2 67 41 2b da 8a 41 a1 44 60 41 78 f5 8b 41
       14.484905 17.356527 14.016755 17.494858
000270 f5 6e 8b 41 5a fd 89 41 3b 29 80 41 70 49 5c 41
       17.429178 17.248707 16.020132 13.767929
000280 f4 91 8c 41 c3 06 8a 41 3e 0c 64 41 c0 cd 5a 41
       17.571266 17.253302 14.252989 13.675232
000290 a0 a2 8a 41 fc 87 60 41 05 44 8a 41 d2 ce 8b 41
       17.329407 14.033199 17.283213 17.475986
0002a0 55 cc e3 3d 05 3d 80 be 9b 2b 52 3d d0 93 85 bd
       0.111229576 -0.25046554 0.051311117 -0.065223336
0002b0 e5 48 bb 3d 92 f7 8f be 9d e9 91 be 1b ef 88 be
       0.09144763 -0.2811857 -0.28498545 -0.26744923
0002c0 6c 4e 65 be 48 d4 99 be 06 95 94 3d d4 26 cc bd
       -0.22393197 -0.3004477 0.072549865 -0.099683434
0002d0 9b c8 98 3d 7a 93 d7 bd 70 91 b8 bb 96 08 8e 3c
       0.074601375 -0.10526176 -0.005632572 0.017338078
0002e0 f2 97 d6 bd cb a1 d8 3c e5 17 42 be 90 e1 90 3b
       -0.104782 0.026444336 -0.18954428 0.0044214204
0002f0 ed 19 92 be e9 8b 1a be bc 85 97 3d ef eb 50 bd
       -0.28535405 -0.15092434 0.07398555 -0.051006254
000300 94 3d 68 41 9a 5b 65 41 e6 1b 5e 41 10 89 6d 41
       14.515034 14.334864 13.881811 14.845963
000310 a3 4f 8a 41 2e 1f 8a 41 20 18 8b 41 47 9a 65 41
       17.288885 17.265224 17.38678 14.350165
000320 db 52 64 41 7c e4 8b 41 b0 78 65 41 de 5c 8b 41
       14.270228 17.486565 14.341965 17.420345
000330 46 dd 8b 41 8d 9a 89 41 be 5d 80 41 74 19 60 41
       17.483044 17.200464 16.045773 14.006214
000340 4f d9 8a 41 8f 26 8a 41 52 5f 62 41 0a ad 5f 41
       17.356108 17.268827 14.148272 13.979746
000350 b7 05 8c 41 e7 fe 64 41 2d 86 8b 41 a8 c7 8b 41
       17.50279 14.312232 17.440516 17.472488
000360 9d d8 64 41 44 77 62 41 58 60 5f 41 24 5d 6c 41
       14.302884 14.154118 13.961021 14.772739
000370 a4 31 8a 41 87 d6 8a 41 6f 00 8d 41 ee c0 64 41
       17.274239 17.35475 17.625212 14.297102
000380 27 93 63 41 36 77 89 41 ce 51 5f 41 63 6b 8a 41
       14.223426 17.183208 13.957472 17.302435
000390 5d 86 8b 41 40 09 8c 41 da 42 80 41 3a 26 5a 41
       17.440607 17.504517 16.032642 13.634333
0003a0 3d 1f 8c 41 13 33 8c 41 db 50 65 41 04 10 5f 41
       17.515253 17.524939 14.33224 13.94141
0003b0 a4 94 8a 41 b1 d2 5e 41 d4 a3 8b 41 a2 b6 8b 41
       17.322578 13.926438 17.454994 17.464176
0003c0 a3 5f 61 41 b1 52 65 41 cd bd 5e 41 0b d2 6d 41
       14.085849 14.332688 13.921338 14.86378
0003d0 fa b7 8a 41 2d 13 8b 41 89 42 8d 41 9a 19 65 41
       17.339832 17.384363 17.657488 14.31875
0003e0 97 cc 68 41 7f 8a 8b 41 41 26 62 41 ba 86 8a 41
       14.549949 17.442625 14.134339 17.315784
0003f0 1b 05 8a 41 50 e6 89 41 71 5d 80 41 2d 82 5a 41
       17.252493 17.237457 16.045626 13.656781

bias f4 [36]
000000 04 5d 40 be 53 c8 8c 41 96 cc 8d 41 55 ab 8c 41
       -0.18785483 17.597815 17.724895 17.583658
000010 c2 cb 8b 41 d6 ee 8d 41 4e 93 8c 41 58 53 90 be
       17.474491 17.74162 17.571926 -0.28188586
000020 3e 6e 8e 41 0b ae 8d 41 5c e0 8b 41 a2 e1 8b 41
       17.80383 17.709982 17.48455 17.485172
000030 64 50 8b 41 bc bd 8d 41 7c 26 8d 41 f2 5f 80 bd
       17.414253 17.717644 17.643791 -0.062683
000040 6e 9d 4b 41 35 09 90 be e6 c1 7f be 0d 07 8e 41
       12.725935 -0.28132024 -0.2497631 17.753443
000050 45 b1 8b 41 84 66 8d 41 5a 99 8c 41 53 39 8d 41
       17.461557 17.675056 17.574879 17.65299
000060 97 36 8c 41 f0 07 8d 41 f3 99 ac be 45 8b 42 be
       17.526655 17.628876 -0.33711204 -0.1899844
000070 48 ad 1d be c6 09 8d 41 75 29 8e 41 41 9b 8b 41
       -0.15398133 17.629772 17.770243 17.450808
000080 56 81 4b 41 ab 4e 8c be 26 3d 8b 41 fd 50 8d 41
       12.719076 -0.2740377 17.404858 17.664545

weight f4 [1, 36]
000000 6a 3d 52 3d a6 46 91 41 fe bf 92 41 82 52 93 41
       0.0513281 18.159496 18.343746 18.415287
000010 08 aa 93 41 f5 61 93 41 12 88 92 41 06 6d 87 bd
       18.458023 18.42283 18.31644 -0.066125914
000020 87 93 93 41 45 2c 94 41 6d 4d 93 41 1f d5 91 41
       18.447035 18.521616 18.412806 18.229063
000030 44 e8 91 41 71 31 93 41 c8 16 93 41 c9 36 70 bc
       18.23841 18.399141 18.386124 -0.014661499
000040 96 90 54 41 38 40 a4 bd b8 f5 60 3e e5 46 93 41
       13.285299 -0.08020061 0.21968734 18.409616
000050 59 f2 91 41 43 02 93 41 ed 0b 92 41 8d 49 93 41
       18.243334 18.376104 18.255823 18.410913
000060 9c 47 92 41 54 37 94 41 dc 2e 93 3d be e1 b6 3d
       18.284966 18.527016 0.07186672 0.08929776
000070 a4 9a 23 3c 0f c4 93 41 ab fd 92 41 fb 77 92 41
       0.0099856 18.470732 18.373861 18.308584
000080 61 7b 55 41 04 9b 8f bd 25 4c 90 41 a5 3f 92 41
       13.342622 -0.07011989 18.03718 18.281076

weight f4 [1, 36]
000000 39 43 35 bd be b3 70 3e 0d 53 70 3e ba cc 96 3e
       -0.04425356 0.23506066 0.23469181 0.2945307
000010 50 94 7c 3e 66 49 81 3e 69 55 7e 3e 64 2d 51 bd
       0.24665952 0.2525131 0.24837269 -0.05106868
000020 24 92 52 3e eb 5a 65 3e db e9 9f 3e 80 1c 1c 3e
       0.2056356 0.22397964 0.31233105 0.15245247
000030 10 45 64 3e 4a 80 9a 3e 6d 0f 4a 3e 20 bc f5 3c
       0.2229197 0.30176002 0.19732447 0.029996932
000040 e7 db 39 bc da 0e bb 3d 04 e2 45 bd 4b e1 18 3e
       -0.011343933 0.09133692 -0.04831125 0.14929692
000050 23 4b 84 3e b6 7f f4 3d 4c 65 59 3e 2a b0 1e 3e
       0.25838575 0.119384214 0.21230048 0.15496889
000060 c3 5b 5c 3e 8c 9d 5f 3e 36 50 43 bd 7d 28 93 3d
       0.2151938 0.21837443 -0.047683917 0.07185457
000070 2a 66 39 bc 24 4e 65 3e 1b 19 9f 3e 17 52 83 3e
       -0.011315862 0.2239309 0.3107384 0.25648567
000080 c4 ea c3 bd 26 5e bc 3c 6f a6 10 3e 1a 21 8c 3e
       -0.09566262 0.022994112 0.1412599 0.27369004

exp_avg f4 [24, 3]
000000 f3 14 d7 53 9c cd 18 d4 af 8a 6d d5 d3 5f d0 53
       1.8475389e+12 -2.6251383e+12 -1.6323744e+13 1.7899217e+12
000010 e4 3a 18 d4 91 b5 72 d5 9b 87 d7 53 dd f7 16 d4
       -2.6152922e+12 -1.6678852e+13 1.8513861e+12 -2.5936142e+12
000020 4d 46 67 d5 2b b0 ce 53 79 61 1c d4 26 e2 80 d5
       -1.589307e+13 1.7754377e+12 -2.686601e+12 -1.7713599e+13
000030 b6 93 5d 53 03 d9 17 d4 41 3d 8d d5 4f 79 57 53
       9.5166595e+11 -2.6087237e+12 -1.9411778e+13 9.254532e+11
000040 41 77 18 d4 62 53 8d d5 8e a7 4f 53 a7 99 19 d4
       -2.619343e+12 -1.9423658e+13 8.918693e+11 -2.6388314e+12
000050 34 62 8c d5 61 38 cf 53 c9 db 17 d4 11 7d 73 d5
       -1.9294176e+13 1.7800082e+12 -2.6089098e+12 -1.6732405e+13
000060 b3 2e d1 53 21 28 19 d4 da 85 74 d5 8e 14 6b 53
       1.7968633e+12 -2.631213e+12 -1.6803483e+13 1.00966216e+12
000070 ca 92 14 d4 fd d4 90 d5 b1 83 d5 53 5d 81 17 d4
       -2.5524715e+12 -1.9905557e+13 1.8340749e+12 -2.6028417e+12
000080 6e 7b 6b d5 cf dd 65 53 12 c4 15 d4 93 12 8f d5
       -1.618221e+13 9.8726884e+11 -2.5729586e+12 -1.9663742e+13
000090 2f 06 74 53 38 53 11 d4 be 3b 93 d5 f9 13 61 53
       1.04807576e+12 -2.4966657e+12 -2.02356e+13 9.667027e+11
0000a0 f4 6c 17 d4 e6 fd 8d d5 23 a5 bf 53 e1 9b 20 d4
       -2.601472e+12 -1.9515203e+13 1.6462186e+12 -2.75924e+12
0000b0 fd 15 97 d5 ab 67 d8 53 c9 9b 13 d4 81 fa 5d d5
       -2.0765087e+13 1.8589044e+12 -2.5358953e+12 -1.5254248e+13
0000c0 11 88 5a 53 ff 78 19 d4 cf 2a 8d d5 2f 1c 5e 53
       9.385857e+11 -2.63664e+12 -1.9401875e+13 9.539556e+11
0000d0 d2 28 18 d4 ae a7 8d d5 4d d4 d4 53 fe 50 17 d4
       -2.6140795e+12 -1.9468915e+13 1.8281898e+12 -2.5995955e+12
0000e0 fe 0d 6c d5 ac 0e d7 53 6c ab 14 d4 ae ee 60 d5
       -1.6221553e+13 1.8473282e+12 -2.5541246e+12 -1.5457233e+13
0000f0 d9 83 61 53 ba b6 17 d4 e5 36 8e d5 af ff d5 53
       9.685797e+11 -2.6064228e+12 -1.9545803e+13 1.8382354e+12
000100 8b 1b 17 d4 72 76 69 d5 1c d8 5c 53 d8 d9 18 d4
       -2.5960086e+12 -1.6043433e+13 9.485185e+11 -2.6259594e+12
000110 75 4b 8d d5 cf 39 5a 53 fc 60 19 d4 a5 0e 8d d5
       -1.9419403e+13 9.3727274e+11 -2.6350285e+12 -1.9386755e+13

exp_avg_sq f4 [24, 3]
000000 79 ed cb 6b f9 8b dc 6a 47 38 b1 6d 30 00 cc 6b
       4.9306675e+26 1.3331234e+26 6.85586e+27 4.932435e+26
000010 88 01 dc 6a 77 1a b1 6d 48 c6 c6 6b 85 0b d7 6a
       1.3298546e+26 6.851355e+27 4.8060734e+26 1.29986725e+26
000020 5a 4f ad 6d 3d bb d7 6b c1 05 ea 6a 58 af ba 6d
       6.7046046e+27 5.216065e+26 1.4145791e+26 7.2220237e+27
000030 1b 6e eb 6b c5 35 b2 6a 24 44 32 6d 5c 8c ee 6b
       5.6923505e+26 1.0772136e+26 3.4481693e+27 5.7677435e+26
000040 68 91 bd 6a 3b 52 2c 6d c6 38 f0 6b a9 eb c0 6a
       1.1458682e+26 3.333177e+27 5.808206e+26 1.1661332e+26
000050 31 8c 2a 6d 2f 2f cc 6b d2 f9 da 6a f4 4d b1 6d
       3.2988708e+27 4.9368737e+26 1.3236279e+26 6.859136e+27
000060 1e d5 cd 6b 25 0c df 6a b0 aa b2 6d 00 f8 eb 6b
       4.9767242e+26 1.348239e+26 6.911835e+27 5.7053743e+26
000070 3c 7f b2 6a 90 5f 33 6d 69 1a c9 6b 74 46 d8 6a
       1.0789482e+26 3.469584e+27 4.862376e+26 1.3073034e+26
000080 a6 ff ae 6d b4 f1 ea 6b 79 a4 b4 6a 33 cd 30 6d
       6.7699315e+27 5.680601e+26 1.0919167e+26 3.4198395e+27
000090 8f 5e ea 6b 71 c0 ad 6a a0 36 36 6d 29 f2 eb 6b
       5.6667036e+26 1.0502647e+26 3.5245193e+27 5.7048227e+26
0000a0 0d 9f b4 6a 1e 2a 31 6d ff aa f4 6b 1f 07 01 6b
       1.0917887e+26 3.4268602e+27 5.915708e+26 1.5598506e+26
0000b0 9e 69 d2 6d d4 e8 bf 6b 2b c6 cd 6a 6f c8 a7 6d
       8.139942e+27 4.6400866e+26 1.2438281e+26 6.490788e+27
0000c0 f0 8b ee 6b af 0e b8 6a c5 cc 30 6d 83 40 ed 6b
       5.7677036e+26 1.1125585e+26 3.419807e+27 5.7364013e+26
0000d0 5d ba b6 6a ae 62 30 6d ff 0a c9 6b 3d a8 d7 6a
       1.1045229e+26 3.411791e+27 4.8609203e+26 1.3035677e+26
0000e0 2e f0 ae 6d f5 f3 c0 6b 26 21 d0 6a 5d be a8 6d
       6.767594e+27 4.6653162e+26 1.25806555e+26 6.527952e+27
0000f0 3a 73 ec 6b e1 e8 b3 6a 82 a4 32 6d ec 76 c7 6b
       5.7170127e+26 1.0874873e+26 3.4554506e+27 4.8227566e+26
000100 1a fd d6 6a ca dd ad 6d b0 99 ed 6b 6a a9 b9 6a
       1.2995268e+26 6.726129e+27 5.7448238e+26 1.1222566e+26
000110 10 88 2e 6d 3a 01 ee 6b d7 33 b6 6a eb 83 31 6d
       3.37593e+27 5.7546027e+26 1.1013465e+26 3.4336454e+27

exp_avg f4 [24]
000000 09 58 9a 53 8c 61 a1 53 b2 ed 93 53 07 15 b0 53
       1.3258039e+12 1.3862526e+12 1.2706961e+12 1.512534e+12
000010 74 58 53 54 de 5b 55 54 89 68 58 54 50 e9 a2 53
       3.6308884e+12 3.6654772e+12 3.717867e+12 1.3993981e+12
000020 b9 be a2 53 d6 a4 4e 54 e7 0a 99 53 e7 e0 4f 54
       1.397969e+12 3.550115e+12 1.3146258e+12 3.5713259e+12
000030 16 e3 49 54 b1 82 52 54 ab fb e1 53 c4 56 8b 53
       3.4683932e+12 3.616543e+12 1.9411799e+12 1.1969123e+12
000040 09 51 56 54 49 21 54 54 84 10 9a 53 fc e8 8d 53
       3.6819302e+12 3.644366e+12 1.3234041e+12 1.2189984e+12
000050 ac b8 52 54 45 bd 96 53 44 cf 54 54 68 1f 56 54
       3.6201656e+12 1.294841e+12 3.6560416e+12 3.6785996e+12

exp_avg_sq f4 [24]
000000 f2 ef 3d 6c 00 50 3e 6c 5a 1d 38 6c 7c 2d 4b 6c
       9.1848036e+26 9.202948e+26 8.9032384e+26 9.8250694e+26
000010 82 e4 44 6c e5 76 4a 6c d7 82 4c 6c 04 86 3e 6c
       9.521142e+26 9.790579e+26 9.88955e+26 9.213151e+26
000020 cc 42 40 6c e2 72 45 6c f6 f3 3a 6c b7 31 45 6c
       9.297168e+26 9.548036e+26 9.040491e+26 9.535726e+26
000030 9e bd 42 6c de 1d 46 6c b5 c4 6b 6c 40 cb 30 6c
       9.417082e+26 9.580334e+26 1.14010596e+27 8.5492306e+26
000040 31 d3 48 6c 22 b5 47 6c 8c 10 3b 6c ce ee 31 6c
       9.7112995e+26 9.6572645e+26 9.045891e+26 8.604304e+26
000050 a9 fc 45 6c 9c e6 38 6c 3c ab 48 6c 07 d7 47 6c
       9.5740616e+26 8.941255e+26 9.703752e+26 9.663667e+26

exp_avg f4 [36, 24]
000000 04 00 00 00 04 00 00 00 04 00 00 00 04 00 00 00
       6e-45 6e-45 6e-45 6e-45
000010 04 00 00 00 04 00 00 00 00 00 00 00 04 00 00 00
       6e-45 6e-45 0.0 6e-45
000020 04 00 00 00 04 00 00 00 04 00 00 00 04 00 00 00
       6e-45 6e-45 6e-45 6e-45
000030 04 00 00 00 04 00 00 00 04 00 00 00 04 00 00 00
       6e-45 6e-45 6e-45 6e-45
000040 04 00 00 00 04 00 00 00 04 00 00 00 00 00 00 00
       6e-45 6e-45 6e-45 0.0
000050 04 00 00 00 04 00 00 00 04 00 00 00 04 00 00 00
       6e-45 6e-45 6e-45 6e-45
000060 5e 94 dd d1 42 f6 da d1 37 8a e0 d1 ed 04 af d1
       -1.1895962e+11 -1.175543e+11 -1.2054894e+11 -9.396274e+10
000070 6d b9 eb 52 ce 2d ee 52 1b 7e e7 52 7b 2a d8 d1
       5.0621412e+11 5.1148535e+11 4.9712657e+11 -1.16053205e+11
000080 d8 25 d6 d1 38 d3 f5 52 1f 28 e6 d1 98 c2 f7 52
       -1.1496974e+11 5.2790533e+11 -1.2356445e+11 5.3206083e+11
000090 2c 24 f9 52 05 80 f1 52 b5 84 8f d1 e6 3f f3 d1
       5.3502686e+11 5.1861746e+11 -7.705085e+10 -1.3059364e+11
0000a0 a6 c6 ec 52 17 61 f3 52 a5 4d e4 d1 13 c8 ea d1
       5.0847252e+11 5.2265298e+11 -1.225694e+11 -1.2604738e+11
0000b0 70 2a f4 52 10 9b ee d1 0e ce f2 52 37 7d e9 52
       5.24342e+11 -1.2810047e+11 5.2141955e+11 5.0141407e+11
0000c0 05 d5 df d1 26 30 dd d1 8f d2 e2 d1 b8 cc b0 d1
       -1.2016895e+11 -1.1874945e+11 -1.217744e+11 -9.491861e+10
0000d0 b6 1c ee 52 69 97 f0 52 6a d6 e9 52 07 5d da d1
       5.1134195e+11 5.166662e+11 5.0216233e+11 -1.1723295e+11
0000e0 2d 53 d8 d1 b6 50 f8 52 0c 7f e8 d1 1a 45 fa 52
       -1.1613855e+11 5.33253e+11 -1.2482049e+11 5.3745058e+11
0000f0 3c aa fb 52 4d f2 f3 52 bc fa 90 d1 a0 b8 f5 d1
       5.4044643e+11 5.238711e+11 -7.783524e+10 -1.3192056e+11
000100 aa 2c ef 52 3a d8 f5 52 ab 9f e6 d1 f4 2a ed d1
       5.1362326e+11 5.2794733e+11 -1.2381516e+11 -1.27328485e+11
000110 a2 a3 f6 52 d9 07 f1 d1 ad 43 f5 52 b2 da eb 52
       5.2965363e+11 -1.2940235e+11 5.267012e+11 5.064932e+11
000120 1d b5 e0 d1 a0 0d de d1 90 b5 e3 d1 f0 7d b1 d1
       -1.2063891e+11 -1.1921392e+11 -1.2225046e+11 -9.529026e+10
000130 d4 09 ef 52 09 87 f1 52 44 bf ea 52 b1 37 db d1
       5.1333104e+11 5.186763e+11 5.0411563e+11 -1.1769152e+11
000140 cb 2b d9 d1 f9 47 f9 52 bf 67 e9 d1 5c 3e fb 52
       -1.1659283e+11 5.3532718e+11 -1.2530849e+11 5.395415e+11
000150 dd a4 fc 52 3a e5 f4 52 42 8c 91 d1 a1 ae f6 d1
       5.4254885e+11 5.259089e+11 -7.8140424e+10 -1.3243647e+11
000160 d8 1a f0 52 10 cd f6 52 90 86 e7 d1 55 18 ee d1
       5.1562126e+11 5.3000117e+11 -1.2429938e+11 -1.27826305e+11
000170 40 99 f7 52 20 f9 f1 d1 f0 37 f6 52 90 c5 ec 52
       5.31714e+11 -1.2990834e+11 5.287502e+11 5.084634e+11
000180 f2 3a e1 d1 c4 91 de d1 2a 3d e4 d1 bf e7 b1 d1
       -1.2091957e+11 -1.19491035e+11 -1.2253484e+11 -9.551216e+10
000190 92 97 ef 52 45 16 f2 52 77 4a eb 52 37 ba db d1
       5.1452006e+11 5.1987785e+11 5.052833e+11 -1.1796525e+11
0001a0 2b ad d9 d1 d1 db f9 52 bd f2 e9 d1 58 d3 fb 52
       -1.1686415e+11 5.3656738e+11 -1.2559998e+11 5.4079128e+11
0001b0 b5 3a fd 52 6e 76 f5 52 13 e3 91 d1 6f 41 f7 d1
       5.4380583e+11 5.2712695e+11 -7.832249e+10 -1.3274434e+11
0001c0 36 a9 f0 52 67 5f f7 52 5e 10 e8 d1 07 a6 ee d1
       5.1681552e+11 5.3122875e+11 -1.2458838e+11 -1.2812346e+11
0001d0 10 2c f8 52 29 89 f2 d1 f0 c9 f6 52 f8 51 ed 52
       5.3294557e+11 -1.3021041e+11 5.2997495e+11 5.0964123e+11
0001e0 fa cc e0 d1 27 25 de d1 cf cd e3 d1 d8 90 b1 d1
       -1.2068895e+11 -1.1926326e+11 -1.2230131e+11 -9.532991e+10
0001f0 9e 22 ef 52 19 a0 f1 52 97 d7 ea 52 f2 4e db d1
       5.1353898e+11 5.1888656e+11 5.0431967e+11 -1.1774029e+11
000200 da 42 d9 d1 d6 61 f9 52 87 80 e9 d1 68 58 fb 52
       -1.16641186e+11 5.3554414e+11 -1.2536046e+11 5.3976e+11
000210 14 bf fc 52 a0 fe f4 52 d3 9b 91 d1 c1 c8 f6 d1
       5.4276876e+11 5.2612196e+11 -7.817307e+10 -1.32491256e+11
000220 ba 33 f0 52 a4 e6 f6 52 17 9f e7 d1 88 31 ee d1
       5.1583e+11 5.3021573e+11 -1.2435082e+11 -1.2787915e+11
000230 f0 b2 f7 52 be 12 f2 d1 76 51 f6 52 19 de ec 52
       5.319295e+11 -1.2996207e+11 5.2896432e+11 5.0866923e+11
000240 91 7f df d1 b0 db dc d1 e5 7b e2 d1 30 89 b0 d1
       -1.1998974e+11 -1.1857232e+11 -1.2159265e+11 -9.477698e+10
000250 24 c2 ed 52 f2 3b f0 52 75 7d e9 52 a1 09 da d1
       5.105822e+11 5.1589893e+11 5.014161e+11 -1.1705805e+11
000260 95 00 d8 d1 40 f2 f7 52 37 26 e8 d1 eb e5 f9 52
       -1.1596534e+11 5.324606e+11 -1.2463419e+11 5.3665212e+11
000270 85 4a fb 52 7b 95 f3 52 5a c3 90 d1 dd 5a f5 d1
       5.396435e+11 5.2309246e+11 -7.771909e+10 -1.3172393e+11
000280 ab d1 ee 52 b1 7a f5 52 9b 47 e6 d1 66 d0 ec d1
       5.1285993e+11 5.271627e+11 -1.2363048e+11 -1.2713858e+11
000290 d0 45 f6 52 cf ab f0 d1 61 e6 f4 52 ff 80 eb 52
       5.288666e+11 -1.2920933e+11 5.2591857e+11 5.0574075e+11
0002a0 04 00 00 00 04 00 00 00 00 00 00 00 04 00 00 00
       6e-45 6e-45 0.0 6e-45
0002b0 04 00 00 00 04 00 00 00 04 00 00 00 04 00 00 00
       6e-45 6e-45 6e-45 6e-45
0002c0 04 00 00 00 04 00 00 00 04 00 00 00 04 00 00 00
       6e-45 6e-45 6e-45 6e-45
0002d0 04 00 00 00 04 00 00 00 04 00 00 00 00 00 00 00
       6e-45 6e-45 6e-45 0.0
0002e0 04 00 00 00 04 00 00 00 04 00 00 00 00 00 00 00
       6e-45 6e-45 6e-45 0.0
0002f0 04 00 00 00 00 00 00 00 04 00 00 00 04 00 00 00
       6e-45 0.0 6e-45 6e-45
000300 a4 18 e1 d1 fa 6f de d1 74 1a e4 d1 a1 cc b1 d1
       -1.2084763e+11 -1.19420174e+11 -1.22462044e+11 -9.545529e+10
000310 f9 72 ef 52 48 f1 f1 52 88 26 eb 52 bd 98 db d1
       5.1421305e+11 5.1956757e+11 5.0498188e+11 -1.17895045e+11
000320 13 8c d9 d1 a9 b5 f9 52 2b cf e9 d1 de ac fb 52
       -1.16794745e+11 5.362473e+11 -1.25525385e+11 5.404685e+11
000330 06 14 fd 52 f4 50 f5 52 f7 cc 91 d1 c5 1b f7 d1
       5.4348133e+11 5.2681258e+11 -7.8276125e+10 -1.3266535e+11
000340 70 84 f0 52 9b 39 f7 52 14 ed e7 d1 c1 81 ee d1
       5.1650704e+11 5.309117e+11 -1.2451437e+11 -1.2804739e+11
000350 30 06 f8 52 3f 64 f2 d1 3c a4 f6 52 b7 2d ed 52
       5.3262785e+11 -1.3013299e+11 5.2965868e+11 5.093371e+11
000360 db 01 e2 d1 73 56 df d1 c6 06 e5 d1 f3 84 b2 d1
       -1.2133672e+11 -1.1990351e+11 -1.2295764e+11 -9.584184e+10
000370 9f 6a f0 52 86 eb f2 52 bb 19 ec 52 4d 7c dc d1
       5.1629048e+11 5.2166676e+11 5.07022e+11 -1.1837228e+11
000380 7f 6d da d1 ef b7 fa 52 5a c1 ea d1 28 b1 fc 52
       -1.1726749e+11 5.3841386e+11 -1.2603328e+11 5.4265197e+11
000390 be 19 fe 52 ae 4e f6 52 1f 64 92 d1 ca 1b f8 d1
       5.456768e+11 5.28941e+11 -7.859312e+10 -1.3320226e+11
0003a0 31 7d f1 52 4c 39 f8 52 61 dd e8 d1 dc 78 ef d1
       5.1859374e+11 5.330566e+11 -1.2501832e+11 -1.2856561e+11
0003b0 b6 06 f9 52 60 5f f3 d1 5a a3 f7 52 04 23 ee 52
       5.3477972e+11 -1.3065965e+11 5.3179875e+11 5.1139484e+11
0003c0 2f ad e0 d1 d4 05 de d1 98 ad e3 d1 a0 77 b1 d1
       -1.2062228e+11 -1.19197565e+11 -1.2223375e+11 -9.527702e+10
0003d0 bd 01 ef 52 e3 7e f1 52 54 b7 ea 52 04 30 db d1
       5.1326317e+11 5.1860796e+11 5.0404904e+11 -1.17675426e+11
0003e0 34 24 d9 d1 8d 3f f9 52 a0 5f e9 d1 d8 35 fb 52
       -1.1657691e+11 5.3525653e+11 -1.2529146e+11 5.3947007e+11
0003f0 56 9c fc 52 f5 dc f4 52 12 87 91 d1 fd a5 f6 d1
       5.4247732e+11 5.2583953e+11 -7.8129545e+10 -1.3241835e+11

exp_avg_sq f4 [36, 24]
000000 7f 7f 7f 3f 64 9c e2 3e 49 2a b5 3e 5d d8 ca 3f
       0.9980392 0.44259942 0.35383824 1.5847279
000010 7d b0 8e 3f 92 30 f4 40 00 00 00 00 8c c8 b5 40
       1.114761 7.630929 0.0 5.680731
000020 cb ae 14 3d 5a 4c 5d 41 7a e4 9f 3e fc fe 46 40
       0.036299508 13.8311405 0.31229 3.109313
000030 53 a6 9a 40 3a 80 ef 40 7c 0d b1 3f 07 ca 93 3f
       4.8328032 7.4844027 1.383224 1.1546029
000040 57 70 d1 3f 12 f3 83 41 3f 1e 39 3d 00 00 00 00
       1.6362408 16.493687 0.04519486 0.0
000050 62 ef b7 3f 8e 9d 01 3c ae 8d 15 41 23 5c 58 3e
       1.4369929 0.007911099 9.34709 0.21128897
000060 22 47 1e 69 c4 53 1a 69 7a b6 1c 69 ba 28 15 69
       1.1959137e+25 1.1660634e+25 1.1840884e+25 1.1270142e+25
000070 35 10 fd 68 94 71 fe 68 eb ee fc 68 4b 70 17 69
       9.5604615e+24 9.61261e+24 9.555549e+24 1.144238e+25
000080 62 d9 1a 69 9f b5 02 69 bf fa 1a 69 88 58 03 69
       1.1700071e+25 9.876127e+24 1.1709918e+25 9.92421e+24
000090 57 d8 04 69 92 fd ff 68 c6 59 0f 69 0b b9 1d 69
       1.003749e+25 9.671048e+24 1.0831271e+25 1.19172e+25
0000a0 ea 5f 00 69 fc 7c 03 69 2d ef 16 69 4a 81 1b 69
       9.699715e+24 9.934969e+24 1.1404272e+25 1.1749628e+25
0000b0 b1 ac 03 69 e2 f4 1d 69 88 0a 03 69 ec 77 fe 68
       9.94905e+24 1.1934861e+25 9.901188e+24 9.613546e+24
0000c0 94 01 21 69 9a fc 1c 69 19 6a 1f 69 cd ba 17 69
       1.2165282e+25 1.1861582e+25 1.2045015e+25 1.1464371e+25
0000d0 cf ba 00 69 ea 6e 01 69 ce a9 00 69 4a 0c 1a 69
       9.726543e+24 9.7797e+24 9.721524e+24 1.1639538e+25
0000e0 88 84 1d 69 65 fb 04 69 64 a6 1d 69 34 a1 05 69
       1.1901701e+25 1.0047837e+25 1.1911694e+25 1.0096775e+25
0000f0 b1 27 07 69 6a 38 02 69 c5 d1 11 69 1b 71 20 69
       1.0212026e+25 9.839173e+24 1.1017803e+25 1.2122641e+25
000100 f9 9a 02 69 29 c6 05 69 e2 88 19 69 6e 2f 1e 69
       9.868262e+24 1.0107682e+25 1.1600754e+25 1.1952141e+25
000110 a5 f6 05 69 b2 ad 20 69 a7 51 05 69 c3 71 01 69
       1.0121992e+25 1.2140524e+25 1.0073295e+25 9.780541e+24
000120 ea 0b 22 69 1d 00 1e 69 a2 71 20 69 ac b5 18 69
       1.224389e+25 1.1938176e+25 1.2122797e+25 1.1538415e+25
000130 dc 91 01 69 3b 47 02 69 bb 80 01 69 13 0b 1b 69
       9.790015e+24 9.843546e+24 9.784959e+24 1.1714737e+25
000140 08 89 1e 69 c2 d9 05 69 1c ab 1e 69 b9 80 06 69
       1.1978587e+25 1.0113467e+25 1.1988645e+25 1.0162746e+25
000150 ab 09 08 69 02 12 03 69 bf c2 12 69 68 7a 21 69
       1.0278723e+25 9.903395e+24 1.1088927e+25 1.2200944e+25
000160 45 75 03 69 cd a5 06 69 a8 86 1a 69 e8 34 1f 69
       9.932692e+24 1.017369e+25 1.1675655e+25 1.2029316e+25
000170 98 d6 06 69 7b b7 21 69 9f 30 06 69 f9 49 02 69
       1.0188091e+25 1.221897e+25 1.0139104e+25 9.844355e+24
000180 2c a6 22 69 6f 96 1e 69 6d 0a 21 69 21 47 19 69
       1.2289419e+25 1.1982543e+25 1.2167893e+25 1.1581347e+25
000190 8e 0f 02 69 b1 c5 02 69 44 fe 01 69 85 9e 1b 69
       9.827113e+24 9.88087e+24 9.82201e+24 1.1758256e+25
0001a0 de 1f 1f 69 c1 5b 06 69 06 42 1f 69 41 03 07 69
       1.2023106e+25 1.0151835e+25 1.2033187e+25 1.0201272e+25
0001b0 d1 8d 08 69 43 91 03 69 70 4e 13 69 0f 14 22 69
       1.0317726e+25 9.940954e+24 1.1130157e+25 1.2246294e+25
0001c0 bc f4 03 69 95 28 07 69 ac 19 1b 69 72 cc 1f 69
       9.970313e+24 1.0212289e+25 1.1719046e+25 1.2074042e+25
0001d0 64 59 07 69 43 51 22 69 dc b2 06 69 59 c8 02 69
       1.0226695e+25 1.2264358e+25 1.0177544e+25 9.881654e+24
0001e0 83 29 22 69 04 1d 1e 69 fd 8e 20 69 96 d1 18 69
       1.2252626e+25 1.1946706e+25 1.2131461e+25 1.1546654e+25
0001f0 0b a9 01 69 a0 5e 02 69 02 98 01 69 57 27 1b 69
       9.796857e+24 9.850451e+24 9.791829e+24 1.172308e+25
000200 ea a5 1e 69 bf f1 05 69 fd c7 1e 69 d6 98 06 69
       1.1987112e+25 1.0120547e+25 1.1997169e+25 1.0169863e+25
000210 08 22 08 69 8a 29 03 69 86 dd 12 69 ec 97 21 69
       1.0285914e+25 9.91034e+24 1.109683e+25 1.2209655e+25
000220 da 8c 03 69 06 be 06 69 cb a2 1a 69 f8 51 1f 69
       9.939652e+24 1.0180839e+25 1.1683959e+25 1.2037893e+25
000230 cc ee 06 69 f8 d4 21 69 9d 48 06 69 64 61 02 69
       1.0195234e+25 1.2227673e+25 1.0146185e+25 9.851267e+24
000240 0a 95 20 69 e6 92 1c 69 bd fe 1e 69 a1 54 17 69
       1.2133247e+25 1.1830384e+25 1.2013328e+25 1.1434215e+25
000250 36 64 00 69 d4 17 01 69 43 53 00 69 9d a4 19 69
       9.700984e+24 9.753997e+24 9.695981e+24 1.1608938e+25
000260 82 1a 1d 69 d1 a1 04 69 39 3c 1d 69 4e 47 05 69
       1.1870408e+25 1.0021398e+25 1.1880359e+25 1.0070241e+25
000270 a0 cc 06 69 b8 e0 01 69 a6 6f 11 69 f6 04 20 69
       1.0185148e+25 9.81329e+24 1.0988843e+25 1.2090722e+25
000280 29 43 02 69 27 6c 05 69 8e 21 19 69 dc c4 1d 69
       9.842344e+24 1.0081117e+25 1.1570257e+25 1.1920687e+25
000290 75 9c 05 69 93 41 20 69 f3 f7 04 69 a5 1a 01 69
       1.0095374e+25 1.2108612e+25 1.004682e+25 9.754828e+24
0002a0 b0 f0 0a 3e 38 df 5e 3e 00 00 00 00 d7 e2 03 40
       0.13568377 0.21764839 0.0 2.0607202
0002b0 d1 33 14 44 cd b1 9f 41 26 51 71 42 45 99 04 40
       592.80963 19.961817 60.329247 2.0718548
0002c0 9a c8 97 3c 63 d8 04 44 a3 53 23 3b 2f 69 98 43
       0.018528271 531.38104 0.0024921678 304.82175
0002d0 f3 8d da 44 98 4b 2d 42 d2 22 7b 44 00 00 00 00
       1748.4359 43.323822 1004.54407 0.0
0002e0 a7 92 cc 43 c6 eb cb 44 39 e0 5e 3a 00 00 00 00
       409.14572 1631.3679 0.000850204 0.0
0002f0 6b 6a b0 44 00 00 00 00 be 96 b5 44 ca e5 a8 43
       1411.3256 0.0 1452.7107 337.79523
000300 53 87 22 69 89 78 1e 69 e9 eb 20 69 0e 2a 19 69
       1.2280315e+25 1.1973718e+25 1.2158887e+25 1.1572766e+25
000310 ab f4 01 69 92 aa 02 69 79 e3 01 69 0d 81 1b 69
       9.819178e+24 9.872866e+24 9.814102e+24 1.1749558e+25
000320 bc 01 1f 69 c5 3f 06 69 f4 23 1f 69 43 e7 06 69
       1.2014212e+25 1.0143575e+25 1.2024312e+25 1.019301e+25
000330 60 71 08 69 fd 75 03 69 7f 32 13 69 5b f5 21 69
       1.0309332e+25 9.932904e+24 1.112191e+25 1.2237232e+25
000340 89 d9 03 69 8b 0c 07 69 5d fc 1a 69 25 ae 1f 69
       9.962285e+24 1.0204014e+25 1.1710396e+25 1.2065099e+25
000350 5e 3d 07 69 87 32 22 69 e9 96 06 69 50 ad 02 69
       1.0218424e+25 1.2255287e+25 1.0169295e+25 9.873675e+24
000360 8a 96 23 69 f1 80 1f 69 9d f8 21 69 bd 29 1a 69
       1.2360363e+25 1.2051757e+25 1.2238194e+25 1.164823e+25
000370 f7 d1 02 69 38 89 03 69 91 c0 02 69 84 84 1c 69
       9.884493e+24 9.93858e+24 9.879358e+24 1.1826138e+25
000380 13 0b 20 69 ba 24 07 69 79 2d 20 69 55 cd 07 69
       1.2092527e+25 1.0211151e+25 1.2102679e+25 1.0260915e+25
000390 08 5a 09 69 08 56 04 69 0a 28 14 69 9a 03 23 69
       1.0378e+25 9.99903e+24 1.1194381e+25 1.2316995e+25
0003a0 11 ba 04 69 a5 f2 07 69 e4 fe 1b 69 a7 b8 20 69
       1.0028555e+25 1.0271928e+25 1.1786699e+25 1.2143758e+25
0003b0 ec 23 08 69 49 41 23 69 5f 7c 07 69 bc 8b 03 69
       1.0286472e+25 1.23352e+25 1.023702e+25 9.939322e+24
0003c0 a6 fe 21 69 29 f3 1d 69 87 64 20 69 48 a9 18 69
       1.2239975e+25 1.1934353e+25 1.2118929e+25 1.1534758e+25
0003d0 19 88 01 69 69 3d 02 69 ef 76 01 69 48 fe 1a 69
       9.787133e+24 9.840647e+24 9.782067e+24 1.1710962e+25
0003e0 eb 7b 1e 69 a7 cf 05 69 04 9e 1e 69 a3 76 06 69
       1.1974717e+25 1.0110484e+25 1.198478e+25 1.0159769e+25
0003f0 73 ff 07 69 31 08 03 69 d8 b6 12 69 1c 6d 21 69
       1.0275707e+25 9.900498e+24 1.1085414e+25 1.219702e+25

exp_avg f4 [36]
000000 04 00 00 00 e2 08 ba 4f fc ea bb 4f eb a5 bc 4f
       6e-45 6.2422886e+09 6.3054787e+09 6.3299804e+09
000010 a9 15 bd 4f 5d b9 bc 4f 90 a3 bb 4f 04 00 00 00
       6.3446267e+09 6.332529e+09 6.296117e+09 6e-45
000020 c4 f8 bc 4f 26 bc bd 4f 90 9f bc 4f fd be ba 4f
       6.3408394e+09 6.3664486e+09 6.3291474e+09 6.2661576e+09
000030 84 d7 ba 4f c4 7b bc 4f ac 59 bc 4f 04 00 00 00
       6.2693724e+09 6.3244554e+09 6.3199867e+09 6e-45
000040 ff 39 88 4f 04 00 00 00 04 00 00 00 f5 96 bc 4f
       4.5710044e+09 6e-45 6e-45 6.3280195e+09
000050 3c e4 ba 4f 77 3f bc 4f be 04 bb 4f 87 9a bc 4f
       6.2710395e+09 6.3165517e+09 6.2753004e+09 6.3284874e+09
000060 40 51 bb 4f 32 ca bd 4f 04 00 00 00 04 00 00 00
       6.2853284e+09 6.36829e+09 6e-45 6e-45
000070 08 00 00 00 e0 36 bd 4f 7d 39 bc 4f d9 8e bb 4f
       1.1e-44 6.34898e+09 6.3157683e+09 6.293402e+09
000080 e9 cf 88 4f 04 00 00 00 b8 c8 b8 4f ef 46 bb 4f
       4.590654e+09 6e-45 6.200324e+09 6.283976e+09

exp_avg_sq f4 [36]
000000 0a c5 8b 41 b6 2b 86 63 70 89 88 63 7e 70 89 63
       17.47121 4.950027e+21 5.037321e+21 5.0706197e+21
000010 fd f6 89 63 b6 89 89 63 c2 2b 88 63 75 7a 5c 44
       5.0900026e+21 5.074254e+21 5.0238206e+21 881.9134
000020 18 db 89 63 f9 c7 8a 63 90 65 89 63 89 02 87 63
       5.0859826e+21 5.1201205e+21 5.0690446e+21 4.980986e+21
000030 1f 31 87 63 60 37 89 63 82 13 89 63 9f 0f e6 42
       4.9877e+21 5.062388e+21 5.057219e+21 115.03051
000040 db b7 1c 63 2d cc 50 43 9d a5 d9 44 19 60 89 63
       2.8909403e+21 208.79756 1741.1754 5.068257e+21
000050 9d 42 87 63 66 eb 88 63 31 6d 87 63 6a 60 89 63
       4.990221e+21 5.051439e+21 4.996357e+21 5.0683026e+21
000060 86 c5 87 63 2b de 8a 63 d2 50 0c 44 c4 89 85 41
       5.009087e+21 5.123319e+21 561.2628 16.692268
000070 d3 3f 0b 46 9e 26 8a 63 a9 e9 88 63 7b 15 88 63
       8911.956 5.0968667e+21 5.0511884e+21 5.02061e+21
000080 e0 d1 1d 63 ec 5e ad 47 a9 95 84 63 d4 ba 87 63
       2.911262e+21 88765.84 4.891509e+21 5.0075457e+21

exp_avg f4 [1, 36]
000000 04 00 00 00 21 73 8c 54 ff 02 8e 54 e2 8e 8d 54
       6e-45 4.8258157e+12 4.879485e+12 4.8639005e+12
000010 f1 57 8d 54 0e e4 8c 54 07 a1 8d 54 04 00 00 80
       4.8565264e+12 4.8409724e+12 4.866336e+12 -6e-45
000020 50 44 8d 54 c9 de 8d 54 d3 dd 8d 54 80 82 8c 54
       4.853892e+12 4.874625e+12 4.874496e+12 4.827879e+12
000030 c1 b8 8d 54 ea 77 8d 54 97 ce 8d 54 04 00 00 80
       4.8695204e+12 4.8608177e+12 4.872451e+12 -6e-45
000040 5e a0 49 54 04 00 00 80 04 00 00 80 86 37 8d 54
       3.4639158e+12 -6e-45 -6e-45 4.8521753e+12
000050 18 60 8d 54 23 3d 8d 54 2d 0d 8d 54 0e a2 8d 54
       4.8576206e+12 4.852929e+12 4.8464915e+12 4.8664737e+12
000060 24 98 8d 54 65 08 8e 54 04 00 00 80 04 00 00 80
       4.865143e+12 4.8802095e+12 -6e-45 -6e-45
000070 04 00 00 80 82 a6 8d 54 5a 48 8d 54 b0 6a 8d 54
       -6e-45 4.8670714e+12 4.854434e+12 4.8590425e+12
000080 77 e5 49 54 04 00 00 00 53 9c 8a 54 11 42 8d 54
       3.4685528e+12 6e-45 4.7626254e+12 4.8535904e+12

exp_avg_sq f4 [1, 36]
000000 c5 12 3d 3f 20 3b 53 6d 2f 0e 56 6d 6b 28 55 6d
       0.73856765 4.085801e+27 4.1404337e+27 4.123073e+27
000010 0b d9 53 6d 4d b6 54 6d 41 d0 54 6d 6c c1 ff 3f
       4.097733e+27 4.1144506e+27 4.1164116e+27 1.9980903
000020 7b 57 55 6d 44 45 54 6d 02 e0 54 6d 5f 21 51 6d
       4.126629e+27 4.10591e+27 4.117602e+27 4.0451694e+27
000030 68 8b 55 6d 83 35 54 6d 1d dc 55 6d 76 e8 45 40
       4.1305524e+27 4.1047196e+27 4.1366505e+27 3.0923133
000040 72 9b e9 6c ef f7 a6 41 67 66 92 42 50 37 55 6d
       2.2593103e+27 20.871061 73.200005 4.1241985e+27
000050 6e 8c 55 6d 23 f3 53 6d ad a6 55 6d 06 e6 54 6d
       4.1306298e+27 4.0997045e+27 4.132613e+27 4.1180565e+27
000060 b0 d7 54 6d de 47 55 6d f2 db 90 40 1b 2f 62 42
       4.1169733e+27 4.1254493e+27 4.526849 56.546
000070 b5 d3 18 43 bd 44 55 6d 19 09 55 6d 6c 57 55 6d
       152.82698 4.125213e+27 4.1207066e+27 4.1266246e+27
000080 00 c6 e9 6c 25 c7 8c 45 61 1c 4f 6d 1d f0 54 6d
       2.260918e+27 4504.893 4.0061066e+27 4.1188188e+27

exp_avg f4 [1, 36]
000000 04 00 00 80 04 00 00 80 04 00 00 80 04 00 00 80
       -6e-45 -6e-45 -6e-45 -6e-45
000010 04 00 00 80 04 00 00 80 04 00 00 80 04 00 00 80
       -6e-45 -6e-45 -6e-45 -6e-45
000020 04 00 00 80 04 00 00 80 04 00 00 80 04 00 00 80
       -6e-45 -6e-45 -6e-45 -6e-45
000030 04 00 00 80 04 00 00 80 04 00 00 80 00 00 00 00
       -6e-45 -6e-45 -6e-45 0.0
000040 04 00 00 80 04 00 00 80 04 00 00 80 04 00 00 80
       -6e-45 -6e-45 -6e-45 -6e-45
000050 04 00 00 80 04 00 00 80 04 00 00 80 04 00 00 80
       -6e-45 -6e-45 -6e-45 -6e-45
000060 04 00 00 80 04 00 00 80 00 00 00 00 04 00 00 80
       -6e-45 -6e-45 0.0 -6e-45
000070 04 00 00 80 04 00 00 80 04 00 00 80 04 00 00 80
       -6e-45 -6e-45 -6e-45 -6e-45
000080 04 00 00 80 04 00 00 80 04 00 00 80 04 00 00 80
       -6e-45 -6e-45 -6e-45 -6e-45

exp_avg_sq f4 [1, 36]
000000 99 5b e1 40 0e e8 23 47 19 f5 89 48 8d c6 21 48
       7.0424314 41960.055 282536.78 165658.2
000010 92 5a 3e 47 39 11 5e 48 10 cd 1b 48 3d b7 2b 44
       48730.57 227396.89 159540.25 686.8631
000020 1f 04 21 49 24 70 9a 47 55 2e 39 48 da c7 e7 47
       659521.94 79072.28 189625.33 118671.7
000030 e6 58 53 47 6b d0 8c 48 a9 55 8f 48 00 00 00 00
       54104.9 288387.34 293549.28 0.0
000040 ce af c4 47 41 6b 84 44 c9 b1 9d 45 cd 8f c7 47
       100703.61 1059.3517 5046.223 102175.6
000050 5e 02 91 48 e0 4d ba 46 46 af 10 48 41 6d 0a 47
       296978.94 23846.938 148157.1 35437.254
000060 03 9b 4b 47 80 ba 60 48 00 00 00 00 61 6b 52 45
       52123.01 230122.0 0.0 3366.7112
000070 f7 cc 54 46 05 0b 98 48 6c 6f 62 49 35 e9 52 48
       13619.241 311384.16 927478.75 215972.83
000080 79 bc c5 3f 8d 59 82 47 05 92 01 45 bf ce ac 48
       1.5448142 66739.1 2073.1262 353909.97
