Basic-Policy-Gradient-Labs_/data/policies/Pendulum-v0#default_team_-617.5508135454471#squashedGaussian#200#-617.5508135454471.pt (torch, 21703 bytes, 18 tensors)

weight f4 [24, 3]
000000 85 6f 8f c1 55 a3 9b c1 1a 9f 8c 40 b2 ca 8e c1
       -17.929453 -19.454752 4.3944216 -17.848972
000010 b0 15 97 c1 f3 62 88 40 03 8d 8d c1 fa 7a 9e c1
       -18.88559 4.262079 -17.693853 -19.810047
000020 f8 5e 8f 40 14 40 8b c1 e4 11 9a c1 0b 86 75 40
       4.480343 -17.406288 -19.258736 3.8363063
000030 ea c2 9e c1 2e 80 83 c1 bc 68 f8 c0 16 a4 96 c1
       -19.845173 -16.437588 -7.762785 -18.83012
000040 99 0a 86 c1 88 f3 f5 c0 e2 41 9e c1 84 ec 84 c1
       -16.755175 -7.685978 -19.78217 -16.615486
000050 0e 44 f1 c0 14 b8 8a c1 94 9a 91 c1 94 f4 85 40
       -7.5395575 -17.339882 -18.200478 4.1861057
000060 02 9b 90 c1 8a e8 9a c1 07 be 87 40 9c 2e 98 c1
       -18.075687 -19.363544 4.2419467 -19.022758
000070 50 3c 84 c1 f6 9f ff c0 3e 32 8e c1 de e6 95 c1
       -16.52945 -7.9882765 -17.774532 -18.737728
000080 f9 2d 8c 40 09 22 99 c1 ab 30 8c c1 ed 76 00 c1
       4.380612 -19.141619 -17.523764 -8.029035
000090 1a 82 9d c1 73 4a 88 c1 7d 71 02 c1 c7 3e 97 c1
       -19.688526 -17.036352 -8.152707 -18.905653
0000a0 50 d8 83 c1 90 25 fb c0 fd 08 93 c1 a4 32 8c c1
       -16.480621 -7.8483353 -18.379389 -17.524727
0000b0 a3 f2 49 40 8d da 8c c1 33 7a 99 c1 2a 51 94 40
       3.1554344 -17.606714 -19.184668 4.6349077
0000c0 97 07 9d c1 40 ba 81 c1 0f dc f7 c0 cd 6a 9a c1
       -19.628706 -16.215942 -7.7456126 -19.302149
0000d0 9e 9d 83 c1 55 ed fc c0 ad 82 8d c1 0d cd 91 c1
       -16.451962 -7.903971 -17.688807 -18.225122
0000e0 9f 4d 88 40 dd a5 8e c1 8e 2c 9e c1 b5 b6 91 40
       4.259475 -17.830988 -19.771755 4.553553
0000f0 eb f2 9e c1 cd 10 89 c1 91 8d ff c0 73 44 91 c1
       -19.868612 -17.133204 -7.986031 -18.158422
000100 8b 7b 9a c1 b1 b8 90 40 ba ca 9a c1 bf 63 87 c1
       -19.310324 4.5225453 -19.348988 -16.923704
000110 59 e0 fb c0 80 5d a0 c1 2f a9 80 c1 c7 36 f6 c0
       -7.871136 -20.045654 -16.08261 -7.6941867

bias f4 [24]
000000 49 18 a3 41 17 19 a1 41 a9 67 9f 41 cb 42 a1 41
       20.386858 20.13725 19.925615 20.157614
000010 f5 d7 94 41 be 3c 9c 41 6a 83 98 41 37 fa a1 41
       18.605448 19.52966 19.064167 20.247175
000020 23 04 a0 41 af 00 9d 41 08 c5 a0 41 d0 91 9a 41
       20.00202 19.625334 20.096207 19.321198
000030 19 46 99 41 6b 1c 9b 41 b1 35 a2 41 ae 1d a0 41
       19.159227 19.388876 20.276217 20.014492
000040 50 5f 9a 41 4d af 9e 41 33 3c 9e 41 e3 b1 9b 41
       19.29654 19.835596 19.779394 19.461859
000050 19 f3 98 41 56 9c 9f 41 33 15 9d 41 13 2a 97 41
       19.1187 19.951336 19.635351 18.895544

weight f4 [36, 24]
000000 3b 52 92 3d 64 de 3d be 06 2a 6c be 5e e0 ac 3d
       0.071445905 -0.18541867 -0.23062906 0.08441232
000010 aa 5d 31 be 2f 4e df 3c 9a be 06 3e d6 92 96 3d
       -0.17320886 0.02725896 0.13158646 0.073522255
000020 73 23 10 be d9 41 01 3e ad 6e d1 bd 8a d1 5a 3d
       -0.14076023 0.12622775 -0.10226188 0.05342249
000030 a7 4e 66 be 4c 69 7c 3d d9 21 b9 3d 94 92 e0 bd
       -0.22490941 0.061623856 0.09039659 -0.109654576
000040 13 ea 9d 3d 8b ca 82 be ba 51 80 be ee bc 4d bd
       0.07710662 -0.25545153 -0.25062352 -0.050229006
000050 da 0e 2c bd dd 54 12 be dc 38 96 bd 6b 28 ec bd
       -0.04200635 -0.14290185 -0.07335064 -0.115311466
000060 0b 06 62 41 31 bf 5f 41 0c bc 5d 41 32 1f 69 41
       14.126475 13.984178 13.85841 14.570116
000070 e5 f2 8f 41 d8 1e 91 41 56 c2 91 41 b4 28 5f 41
       17.9936 18.14006 18.21989 13.947437
000080 26 69 65 41 62 ca 90 41 43 54 5e 41 e2 4f 8f 41
       14.338171 18.09882 13.895572 17.914005
000090 d1 43 8e 41 02 8d 8f 41 05 99 79 41 79 f0 56 41
       17.783113 17.943851 15.599858 13.433709
0000a0 84 02 8f 41 43 3e 8f 41 3c 4b 5c 41 57 4b 57 41
       17.876228 17.905401 13.768368 13.4558935
0000b0 45 09 8f 41 7d 38 5c 41 ca 9d 91 41 10 6e 92 41
       17.879526 13.763791 18.202045 18.303741
0000c0 91 73 60 41 2a 22 60 41 36 74 5f 41 31 b2 6c 41
       14.028214 14.008341 13.965872 14.793504
0000d0 33 7f 91 41 e4 2e 93 41 94 14 93 41 f0 52 61 41
       18.187109 18.397896 18.385048 14.082748
0000e0 e5 3c 60 41 fc ae 91 41 06 ae 5f 41 e9 40 91 41
       14.014867 18.210442 13.979986 18.156694
0000f0 54 b9 90 41 d2 6f 90 41 1c fa 79 41 c9 ad 55 41
       18.090492 18.0546 15.623562 13.354928
000100 8f 8d 90 41 ee e6 92 41 7b 7e 60 41 c7 2f 5c 41
       18.06912 18.362759 14.030879 13.761664
000110 59 57 90 41 31 52 60 41 85 e6 91 41 a4 4a 91 41
       18.04265 14.020066 18.237558 18.161446
000120 8c c2 5d 41 c7 4a 60 41 48 60 5d 41 b3 6c 67 41
       13.859997 14.018256 13.836006 14.464038
000130 b7 74 91 41 ee 19 92 41 54 94 91 41 c4 1b 60 41
       18.18199 18.262661 18.197426 14.006779
000140 42 ba 63 41 61 bb 91 41 53 8a 60 41 3e 75 90 41
       14.232973 18.216494 14.033771 18.057247
000150 59 fe 8f 41 f6 fa 91 41 66 ba 7e 41 de 6b 57 41
       17.999193 18.24754 15.920507 13.463835
000160 38 d8 90 41 fb 80 91 41 97 6c 61 41 b7 f7 56 41
       18.105576 18.187979 14.089011 13.435477
000170 80 33 90 41 99 35 5f 41 08 be 90 41 16 2b 91 41
       18.025146 13.950585 18.092789 18.146038
000180 ea e4 5c 41 4c 32 60 41 42 25 5e 41 5b ac 68 41
       13.805887 14.0122795 13.884096 14.542079
000190 56 c0 8f 41 27 55 90 41 88 63 92 41 5d e0 5c 41
       17.968914 18.041578 18.2986 13.804776
0001a0 6c 41 61 41 5c 56 8f 41 a3 84 5f 41 ac 59 8f 41
       14.078472 17.917168 13.969882 17.918785
0001b0 cf 8a 91 41 97 86 8f 41 cb 60 7f 41 c8 66 54 41
       18.192778 17.940718 15.961131 13.275093
0001c0 88 1d 93 41 da e3 91 41 6e 69 5c 41 1e 6c 58 41
       18.38942 18.236256 13.77574 13.526396
0001d0 e1 6e 92 41 a0 e2 5b 41 5e b8 8f 41 08 81 90 41
       18.30414 13.742828 17.965023 18.063004
0001e0 6c a1 5e 41 9a 83 5f 41 8c 65 5e 41 dd 0e 6a 41
       13.91441 13.969629 13.899792 14.628629
0001f0 8c 20 92 41 42 62 91 41 64 60 92 41 ed 1d 5f 41
       18.265892 18.172977 18.297066 13.944806
000200 b2 06 64 41 76 52 91 41 62 b2 60 41 fc c3 8e 41
       14.251635 18.165264 14.0435505 17.845695
000210 ea ba 8e 41 ff 77 8f 41 f0 8c 7e 41 8a 6e 57 41
       17.841267 17.933592 15.909409 13.464487
000220 66 25 92 41 f1 45 90 41 4b 86 60 41 dc fa 58 41
       18.268261 18.034151 14.032786 13.561245
000230 a4 cc 90 41 91 ae 5e 41 c2 b0 8f 41 3d c0 90 41
       18.099922 13.917619 17.961308 18.093866
000240 09 a1 62 41 e2 e7 61 41 fd ba 5d 41 dc 5e 67 41
       14.164315 14.119112 13.858151 14.460659
000250 75 22 92 41 11 8b 90 41 00 5c 92 41 49 98 60 41
       18.266825 18.067904 18.294922 14.037179
000260 85 60 63 41 83 bc 90 41 13 b4 5b 41 af ca 91 41
       14.211064 18.092047 13.731463 18.223967
000270 ca 58 91 41 af dd 8f 41 a5 ae 7d 41 10 4f 57 41
       18.168354 17.983244 15.855138 13.456802
000280 14 88 92 41 4f f1 8f 41 99 a0 5f 41 35 dd 55 41
       18.316444 17.992826 13.976708 13.366506
000290 29 90 90 41 8e d4 5b 41 85 27 90 41 75 d1 91 41
       18.07039 13.739393 18.019297 18.227274
0002a0 55 cc e3 3d 05 3d 80 be 9b 2b 52 3d d0 93 85 bd
       0.111229576 -0.25046554 0.051311117 -0.065223336
0002b0 e5 48 bb 3d 92 f7 8f be 9d e9 91 be 1b ef 88 be
       0.09144763 -0.2811857 -0.28498545 -0.26744923
0002c0 6c 4e 65 be 48 d4 99 be 06 95 94 3d d4 26 cc bd
       -0.22393197 -0.3004477 0.072549865 -0.099683434
0002d0 9b c8 98 3d 7a 93 d7 bd 70 91 b8 bb 96 08 8e 3c
       0.074601375 -0.10526176 -0.005632572 0.017338078
0002e0 f2 97 d6 bd cb a1 d8 3c e5 17 42 be 90 e1 90 3b
       -0.104782 0.026444336 -0.18954428 0.0044214204
0002f0 ed 19 92 be e9 8b 1a be bc 85 97 3d ef eb 50 bd
       -0.28535405 -0.15092434 0.07398555 -0.051006254
000300 8d a8 63 41 5e f2 60 41 ff 42 59 41 18 7e 69 41
       14.22865 14.059172 13.578856 14.593285
000310 65 49 90 41 9a f8 8f 41 89 09 91 41 8c 38 61 41
       18.035837 17.996387 18.129656 14.076305
000320 32 f0 5f 41 40 c8 91 41 2c e7 60 41 67 33 91 41
       13.996141 18.222778 14.056438 18.150099
000330 74 c8 91 41 3d 7c 8f 41 2e 17 7e 41 ff 1d 5b 41
       18.222878 17.935663 15.880659 13.694823
000340 bd d0 90 41 70 12 90 41 b8 f2 5d 41 67 bb 5a 41
       18.101923 18.009003 13.8717575 13.670753
000350 9c f4 91 41 62 4a 60 41 ff 6a 91 41 9b cb 91 41
       18.244438 14.01816 18.177244 18.224417
000360 b6 42 60 41 39 0d 5e 41 89 86 5a 41 67 51 68 41
       14.016287 13.878228 13.6578455 14.519874
000370 78 2c 90 41 09 b1 90 41 e1 f2 92 41 4e 5e 60 41
       18.021713 18.086443 18.368593 14.023024
000380 c5 2f 5f 41 00 5c 8f 41 6b bf 5a 41 f7 42 90 41
       13.9491625 17.919922 13.671733 18.032698
000390 97 72 91 41 f6 eb 91 41 ee e0 7d 41 c9 29 55 41
       18.180952 18.240215 15.867414 13.322701
0003a0 c8 17 92 41 01 20 92 41 64 e3 60 41 6d 1d 5a 41
       18.261612 18.265627 14.055515 13.632184
0003b0 9e 84 90 41 47 1d 5a 41 bf 89 91 41 c1 bb 91 41
       18.064754 13.632148 18.192259 18.216677
0003c0 ba ca 5c 41 96 e9 60 41 12 e5 59 41 30 c7 69 41
       13.799494 14.057028 13.618425 14.61113
0003d0 7c b1 90 41 69 ec 90 41 b0 33 93 41 f5 b7 60 41
       18.086662 18.115435 18.400238 14.044911
0003e0 1a 6a 64 41 07 6e 91 41 d2 94 5d 41 09 5d 90 41
       14.275904 18.178724 13.848833 18.045427
0003f0 16 f0 8f 41 bd c7 8f 41 96 16 7e 41 dc 86 55 41
       17.99223 17.972528 15.880514 13.345425

bias f4 [36]
000000 04 5d 40 be 9f 8a 8d 41 21 8f 8e 41 fc 6d 8d 41
       -0.18785483 17.692686 17.819887 17.678703
000010 81 8e 8c 41 7d b1 8e 41 dc 55 8d 41 58 53 90 be
       17.569582 17.836664 17.666924 -0.28188586
000020 ed 30 8f 41 e5 70 8e 41 02 a3 8c 41 0a a4 8c 41
       17.89889 17.805124 17.579594 17.580097
000030 c6 12 8c 41 5c 80 8e 41 16 e9 8d 41 f2 5f 80 bd
       17.509167 17.812675 17.738811 -0.062683
000040 03 12 4d 41 35 09 90 be e6 c1 7f be af c9 8e 41
       12.816897 -0.28132024 -0.2497631 17.848478
000050 a7 73 8c 41 1c 29 8e 41 bf 5b 8d 41 fa fb 8d 41
       17.55647 17.770073 17.669798 17.748035
000060 08 f9 8c 41 c9 ca 8d 41 f3 99 ac be 45 8b 42 be
       17.621597 17.724016 -0.33711204 -0.1899844
000070 48 ad 1d be 82 cc 8d 41 0c ec 8e 41 c5 5d 8c 41
       -0.15398133 17.724857 17.865257 17.545786
000080 2f f6 4c 41 ab 4e 8c be 4a ff 8b 41 71 13 8e 41
       12.810103 -0.2740377 17.499653 17.759493

weight f4 [1, 36]
000000 6a 3d 52 3d eb 83 93 41 38 00 95 41 41 92 95 41
       0.0513281 18.439413 18.625107 18.696413
000010 3e eb 95 41 f2 9e 95 41 d9 c8 94 41 06 6d 87 bd
       18.739864 18.70261 18.59807 -0.066125914
000020 32 d1 95 41 93 6f 96 41 85 8f 95 41 14 17 94 41
       18.727146 18.80448 18.695078 18.511269
000030 07 28 94 41 91 72 95 41 78 56 95 41 c9 36 70 bc
       18.519545 18.68094 18.667221 -0.014661499
000040 7f fd 58 41 38 40 a4 bd b8 f5 60 3e 79 84 95 41
       13.561889 -0.08020061 0.21968734 18.689684
000050 26 30 94 41 cb 42 95 41 bc 47 94 41 4d 8a 95 41
       18.52351 18.657614 18.535027 18.69253
000060 10 88 94 41 72 79 96 41 dc 2e 93 3d be e1 b6 3d
       18.566437 18.8093 0.07186672 0.08929776
000070 a4 9a 23 3c 0a 04 96 41 25 3c 95 41 86 b6 94 41
       0.0099856 18.751972 18.654367 18.589123
000080 f2 e9 59 41 04 9b 8f bd 5b 87 92 41 12 7e 94 41
       13.619616 -0.07011989 18.316092 18.561558

weight f4 [1, 36]
000000 39 43 35 bd be b3 70 3e 0d 53 70 3e ba cc 96 3e
       -0.04425356 0.23506066 0.23469181 0.2945307
000010 50 94 7c 3e 66 49 81 3e 69 55 7e 3e 64 2d 51 bd
       0.24665952 0.2525131 0.24837269 -0.05106868
000020 24 92 52 3e eb 5a 65 3e db e9 9f 3e 80 1c 1c 3e
       0.2056356 0.22397964 0.31233105 0.15245247
000030 10 45 64 3e 4a 80 9a 3e 6d 0f 4a 3e 20 bc f5 3c
       0.2229197 0.30176002 0.19732447 0.029996932
000040 e7 db 39 bc da 0e bb 3d 04 e2 45 bd 4b e1 18 3e
       -0.011343933 0.09133692 -0.04831125 0.14929692
000050 23 4b 84 3e b6 7f f4 3d 4c 65 59 3e 2a b0 1e 3e
       0.25838575 0.119384214 0.21230048 0.15496889
000060 c3 5b 5c 3e 8c 9d 5f 3e 36 50 43 bd 7d 28 93 3d
       0.2151938 0.21837443 -0.047683917 0.07185457
000070 2a 66 39 bc 24 4e 65 3e 1b 19 9f 3e 17 52 83 3e
       -0.011315862 0.2239309 0.3107384 0.25648567
000080 c4 ea c3 bd 26 5e bc 3c 6f a6 10 3e 1a 21 8c 3e
       -0.09566262 0.022994112 0.1412599 0.27369004

exp_avg f4 [24, 3]
000000 48 92 c4 51 87 b3 8d d3 c7 f3 2c 56 31 4b c3 51
       1.0553347e+11 -1.2172047e+12 4.7540754e+13 1.04847516e+11
000010 28 a2 8d d3 0d 22 2d 56 91 fc e5 51 4e d2 8c d3
       -1.2166218e+12 4.759044e+13 1.2347311e+11 -1.2096475e+12
000020 e8 91 2a 56 16 e7 d0 51 7f 17 93 d3 5b 93 33 56
       4.688591e+13 1.1215377e+11 -1.2635088e+12 4.9361367e+13
000030 ac 62 21 54 69 a6 88 51 ea bb 98 54 52 45 21 54
       2.7725807e+12 7.336343e+10 5.2479016e+12 2.770611e+12
000040 eb 62 89 50 ae 77 a3 54 28 f4 1d 54 d1 f2 08 d0
       1.843969e+10 5.6167005e+12 2.7136245e+12 -9.190458e+09
000050 28 5e b0 54 e4 c2 ce 51 10 57 8e d3 28 4a 2d 56
       6.0599514e+12 1.1100412e+11 -1.222692e+12 4.7633503e+13
000060 0d 20 cf 51 33 4e 8f d3 66 5a 2e 56 05 c3 23 54
       1.11199494e+11 -1.2309846e+12 4.792582e+13 2.8134062e+12
000070 d1 b0 c1 51 1b 9a 90 54 f9 8c c5 51 b9 70 8c d3
       1.039869e+11 4.968486e+12 1.0605921e+11 -1.2063732e+12
000080 c9 92 2b 56 50 e0 23 54 56 9c 9d 51 40 88 90 54
       4.716173e+13 2.815372e+12 8.461659e+10 4.9660895e+12
000090 46 b3 24 54 69 b3 07 52 48 ff 87 54 09 c4 22 54
       2.8295294e+12 1.4570765e+11 4.672828e+12 2.7962945e+12
0000a0 ab 60 9d 51 f2 f8 94 54 e2 6c aa 51 c4 aa 9a d3
       8.449146e+10 5.118654e+12 9.14964e+10 -1.3285799e+12
0000b0 f4 04 42 56 8f 7e e7 51 64 db 89 d3 db c5 26 56
       5.3331632e+13 1.2428259e+11 -1.1841826e+12 4.584218e+13
0000c0 e4 a0 21 54 93 af 62 51 0e 36 9e 54 3d 26 22 54
       2.776756e+12 6.0850516e+10 5.436094e+12 2.785705e+12
0000d0 7b 3b 79 51 2b 01 9a 54 4e c0 cb 51 25 e7 8c d3
       6.69028e+10 5.2915565e+12 1.0938809e+11 -1.2103468e+12
0000e0 a1 cc 2b 56 07 c6 e8 51 69 85 8a d3 66 8f 27 56
       4.722384e+13 1.24969345e+11 -1.1898875e+12 4.6058583e+13
0000f0 dc ee 22 54 96 46 a3 51 92 b5 94 54 7f cd c2 51
       2.7991684e+12 8.765799e+10 5.109611e+12 1.0458391e+11
000100 d1 ee 8b d3 d8 b2 2a 56 19 89 21 54 e5 6b 11 51
       -1.2020143e+12 4.6921276e+13 2.7751594e+12 3.9036277e+10
000110 03 db 9e 54 03 15 21 54 e3 d8 6e 51 dd 3f 9e 54
       5.458234e+12 2.767369e+12 6.411506e+10 5.43741e+12

exp_avg_sq f4 [24, 3]
000000 17 27 74 6b 61 f3 80 6a a7 68 5a 6d 0e 47 74 6b
       2.951625e+26 7.7945915e+25 4.2246406e+27 2.9531345e+26
000010 b3 ab 80 6a bf 61 5a 6d 98 d5 6d 6b 6e 54 7b 6a
       7.777667e+25 4.2241187e+27 2.8752409e+26 7.595977e+25
000020 06 42 55 6d 52 54 81 6b 64 ee 88 6a de bf 66 6d
       4.1250078e+27 3.1269924e+26 8.276984e+25 4.463344e+27
000030 2b fb 90 6b 30 d8 57 6a 2a 22 cf 6c 32 dc 92 6b
       3.5054285e+26 6.523499e+25 2.0032718e+27 3.5508603e+26
000040 e9 78 65 6a 40 29 c9 6c 2a f3 93 6b af ad 69 6a
       6.935375e+25 1.9455111e+27 3.577208e+26 7.062498e+25
000050 bd 0a c8 6c d3 78 74 6b d5 1d 80 6a d2 9d 5a 6d
       1.934687e+27 2.9554848e+26 7.744169e+25 4.2286578e+27
000060 da 8b 76 6b ae 6e 82 6a d6 63 5c 6d cd 43 91 6b
       2.9805618e+26 7.884151e+25 4.2629623e+27 3.5122885e+26
000070 6b a7 57 6a e8 ce cf 6c ba b8 70 6b a7 fa 7c 6a
       6.5177415e+25 2.0097979e+27 2.9101454e+26 7.6458245e+25
000080 ba 91 57 6d cb 9b 90 6b b7 3f 5a 6a c7 c9 cc 6c
       4.1697156e+27 3.4964206e+26 6.596168e+25 1.9805899e+27
000090 9e 4c 90 6b 09 51 51 6a a1 bf d2 6c 78 41 91 6b
       3.4889426e+26 6.3262044e+25 2.0382349e+27 3.5120682e+26
0000a0 74 7f 5a 6a a4 9c cd 6c b8 24 93 6b 00 9b 97 6a
       6.6036927e+25 1.988556e+27 3.55771e+26 9.163988e+25
0000b0 d9 cd 82 6d 1b 69 65 6b ad 7d 70 6a 19 1c 4e 6d
       5.060238e+27 2.7734036e+26 7.268392e+25 3.9867425e+27
0000c0 d6 e9 92 6b c9 07 5f 6a 2a 23 ce 6c e5 10 92 6b
       3.5521486e+26 6.7406806e+25 1.9936382e+27 3.531659e+26
0000d0 19 1d 5d 6a 74 22 cd 6c 8e af 70 6b 23 54 7c 6a
       6.6827504e+25 1.98394e+27 2.9097123e+26 7.626166e+25
0000e0 0b 95 57 6d b1 bc 66 6b 1d 2e 73 6a d2 5c 4f 6d
       4.1699662e+27 2.78944e+26 7.3496684e+25 4.0109756e+27
0000f0 2e 95 91 6b 5d a7 59 6a 48 49 cf 6c 6e bc 6e 6b
       3.5199745e+26 6.5781813e+25 2.0047496e+27 2.8861418e+26
000100 ab 64 7b 6a c0 0b 56 6d 37 46 92 6b 78 ab 60 6a
       7.5978943e+25 4.1402498e+27 3.536695e+26 6.790228e+25
000110 e9 3a cb 6c f9 99 92 6b 70 fa 5c 6a 4d fb ce 6c
       1.9655211e+27 3.5446057e+26 6.6786584e+25 2.0018036e+27

exp_avg f4 [24]
000000 be ed 83 54 39 28 84 54 48 0a 81 54 9d dd 88 54
       4.533035e+12 4.540884e+12 4.433786e+12 4.702669e+12
000010 c0 ec d9 d3 27 3e d2 d3 8a 53 cb d3 6c e1 83 54
       -1.8719598e+12 -1.8059718e+12 -1.7465598e+12 4.5313813e+12
000020 53 b4 84 54 ee 20 df d3 de d9 82 54 34 b7 de d3
       4.559688e+12 -1.9166604e+12 4.4960076e+12 -1.9131128e+12
000030 c5 32 e5 d3 6e e2 db d3 60 1d 96 54 bc fa 7b 54
       -1.9687986e+12 -1.8887934e+12 5.1579034e+12 4.3289737e+12
000040 a8 0f d7 d3 54 f6 d8 d3 4f d7 82 54 6b 2d 7d 54
       -1.8473613e+12 -1.8636913e+12 4.495664e+12 4.3495549e+12
000050 72 0e dd d3 f3 28 82 54 f9 93 d5 d3 20 85 d7 d3
       -1.8988602e+12 4.472262e+12 -1.8346212e+12 -1.8513029e+12

exp_avg_sq f4 [24]
000000 73 88 e0 6b 0c fc e0 6b a8 9d d9 6b e7 49 f0 6b
       5.428875e+26 5.439793e+26 5.2616283e+26 5.8098238e+26
000010 ff 1f ec 6b b5 bb f2 6b 9f 5a f5 6b 11 36 e1 6b
       5.7091518e+26 5.8689294e+26 5.9322954e+26 5.4452726e+26
000020 c7 53 e3 6b 0d 92 ec 6b cf ff dc 6b a4 3f ec 6b
       5.4964358e+26 5.719924e+26 5.343434e+26 5.7121406e+26
000030 00 3d e9 6b 02 72 ed 6b 70 8f 0b 6c 02 e2 d0 6b
       5.6393556e+26 5.741076e+26 6.748722e+26 5.0504772e+26
000040 bc e2 f0 6b 98 5f ef 6b a3 25 dd 6b 65 47 d2 6b
       5.8242584e+26 5.787694e+26 5.3470068e+26 5.0842315e+26
000050 e0 53 ed 6b f1 98 da 6b 98 89 f0 6b 40 cb ef 6b
       5.73823e+26 5.2853615e+26 5.8158393e+26 5.797862e+26

exp_avg f4 [36, 24]
000000 04 00 00 00 04 00 00 00 04 00 00 00 04 00 00 00
       6e-45 6e-45 6e-45 6e-45
000010 04 00 00 00 04 00 00 00 00 00 00 00 04 00 00 00
       6e-45 6e-45 0.0 6e-45
000020 04 00 00 00 04 00 00 00 04 00 00 00 04 00 00 00
       6e-45 6e-45 6e-45 6e-45
000030 04 00 00 00 04 00 00 00 04 00 00 00 04 00 00 00
       6e-45 6e-45 6e-45 6e-45
000040 04 00 00 00 04 00 00 00 04 00 00 00 00 00 00 00
       6e-45 6e-45 6e-45 0.0
000050 04 00 00 00 04 00 00 00 04 00 00 00 04 00 00 00
       6e-45 6e-45 6e-45 6e-45
000060 11 af 4d 53 a2 90 48 53 17 3b 4f 53 94 2a 3c 53
       8.834054e+11 8.6142e+11 8.900496e+11 8.081682e+11
000070 89 f0 80 d2 48 e5 7e d2 67 59 80 d2 2e 1b 46 53
       -2.7689566e+11 -2.736921e+11 -2.7562787e+11 8.508595e+11
000080 c6 ed 47 53 a6 b7 81 d2 13 e5 4b 53 0c c4 81 d2
       8.586877e+11 -2.7856595e+11 8.757216e+11 -2.7866995e+11
000090 81 83 83 d2 3c 41 80 d2 d7 c3 26 53 6a a6 53 53
       -2.824235e+11 -2.7542513e+11 7.162502e+11 9.0903006e+11
0000a0 b2 7f 81 d2 be 6f 82 d2 7f f6 46 53 9f 11 50 53
       -2.7809658e+11 -2.8011024e+11 8.5453904e+11 8.936488e+11
0000b0 ec 23 83 d2 2d 27 50 53 b7 0c 82 d2 63 9f 81 d2
       -2.816217e+11 8.9401046e+11 -2.7927953e+11 -2.7836242e+11
0000c0 19 c1 4f 53 76 95 4a 53 1a 51 51 53 77 0f 3e 53
       8.922979e+11 8.700909e+11 8.990088e+11 8.1630324e+11
0000d0 d9 3c 82 d2 16 bb 80 d2 2f a4 81 d2 b4 19 48 53
       -2.796833e+11 -2.764473e+11 -2.7840266e+11 8.594247e+11
0000e0 f9 f0 49 53 f5 05 83 d2 80 f2 4d 53 7c 12 83 d2
       8.673313e+11 -2.8137033e+11 8.845368e+11 -2.814754e+11
0000f0 73 d6 84 d2 c6 8b 81 d2 93 71 28 53 d2 c7 55 53
       -2.8526677e+11 -2.781979e+11 7.2345996e+11 9.1818046e+11
000100 71 cd 82 d2 e8 bf 83 d2 35 f7 48 53 cb 29 52 53
       -2.8089624e+11 -2.829302e+11 8.631409e+11 9.026443e+11
000110 e7 75 84 d2 92 3f 52 53 e3 5b 83 d2 73 ed 82 d2
       -2.8445688e+11 9.0300967e+11 -2.8209116e+11 -2.8116474e+11
000120 ab 8c 50 53 fa 5b 4b 53 36 1e 52 53 b1 c9 3e 53
       8.957132e+11 8.734215e+11 9.0245e+11 8.194276e+11
000130 80 bc 82 d2 48 39 81 d2 41 23 82 d2 c2 dd 48 53
       -2.8075413e+11 -2.775059e+11 -2.794686e+11 8.6271394e+11
000140 d8 b6 4a 53 62 86 83 d2 4a bc 4e 53 f6 92 83 d2
       8.70651e+11 -2.8244764e+11 8.879222e+11 -2.8255316e+11
000150 a8 58 85 d2 c1 0a 82 d2 a1 16 29 53 4d 99 56 53
       -2.8635903e+11 -2.792631e+11 7.262291e+11 9.2169496e+11
000160 a6 4d 83 d2 0e 41 84 d2 1f bc 49 53 b9 f7 52 53
       -2.8197172e+11 -2.8401356e+11 8.664446e+11 9.060992e+11
000170 bf f7 84 d2 95 0d 53 53 a2 dc 83 d2 c7 6d 83 d2
       -2.855461e+11 9.06466e+11 -2.8317116e+11 -2.8224124e+11
000180 9f 08 51 53 d7 d4 4b 53 17 9b 52 53 17 3b 3f 53
       8.977928e+11 8.754492e+11 9.045451e+11 8.213301e+11
000190 36 0a 83 d2 16 86 81 d2 98 70 82 d2 26 55 49 53
       -2.81406e+11 -2.781502e+11 -2.8011738e+11 8.64717e+11
0001a0 56 2f 4b 53 8f d4 83 d2 2b 37 4f 53 29 e1 83 d2
       8.726725e+11 -2.8310343e+11 8.899838e+11 -2.8320914e+11
0001b0 ec a7 85 d2 0b 58 82 d2 20 7b 29 53 da 18 57 53
       -2.8702396e+11 -2.7991143e+11 7.279152e+11 9.238349e+11
0001c0 b1 9b 83 d2 a7 8f 84 d2 08 34 4a 53 20 75 53 53
       -2.826264e+11 -2.846729e+11 8.6845633e+11 9.082031e+11
0001d0 c6 46 85 d2 07 8b 53 53 03 2b 84 d2 e5 bb 83 d2
       -2.86209e+11 9.085706e+11 -2.8382865e+11 -2.8289653e+11
0001e0 78 9e 50 53 54 6d 4b 53 24 30 52 53 fa d9 3e 53
       8.9601186e+11 8.737126e+11 9.027508e+11 8.197008e+11
0001f0 b6 c7 82 d2 59 44 81 d2 67 2e 82 d2 e7 ee 48 53
       -2.8084817e+11 -2.7759873e+11 -2.7956213e+11 8.630016e+11
000200 25 c8 4a 53 a7 91 83 d2 f2 cd 4e 53 3c 9e 83 d2
       8.7094126e+11 -2.8254218e+11 8.8821845e+11 -2.8264772e+11
000210 17 64 85 d2 e4 15 82 d2 10 25 29 53 9e ab 56 53
       -2.8645494e+11 -2.793565e+11 7.264713e+11 9.2200226e+11
000220 e8 58 83 d2 61 4c 84 d2 57 cd 49 53 bd 09 53 53
       -2.8206616e+11 -2.8410855e+11 8.6673346e+11 9.064015e+11
000230 22 03 85 d2 98 1f 53 53 f0 e7 83 d2 0b 79 83 d2
       -2.856416e+11 9.0676815e+11 -2.83266e+11 -2.8233574e+11
000240 df 73 4f 53 2a 4a 4a 53 4d 03 51 53 d2 c8 3d 53
       8.910022e+11 8.6882766e+11 8.9770354e+11 8.15118e+11
000250 6d 0c 82 d2 3d 8b 80 d2 f9 73 81 d2 50 cf 47 53
       -2.792771e+11 -2.7604592e+11 -2.7799824e+11 8.581766e+11
000260 ea a5 49 53 3d d5 82 d2 f3 a5 4d 53 be e1 82 d2
       8.66072e+11 -2.8096165e+11 8.8325246e+11 -2.8106654e+11
000270 0e a5 84 d2 9b 5b 81 d2 f9 32 28 53 5a 78 55 53
       -2.8485242e+11 -2.7779383e+11 7.224097e+11 9.168472e+11
000280 d0 9c 82 d2 eb 8e 83 d2 83 ac 48 53 af db 51 53
       -2.804883e+11 -2.8251924e+11 8.618877e+11 9.0133384e+11
000290 a7 44 84 d2 6b f1 51 53 0a 2b 83 d2 c4 bc 82 d2
       -2.8404374e+11 9.016985e+11 -2.816814e+11 -2.8075636e+11
0002a0 04 00 00 00 04 00 00 00 00 00 00 00 04 00 00 00
       6e-45 6e-45 0.0 6e-45
0002b0 04 00 00 00 04 00 00 00 04 00 00 00 04 00 00 00
       6e-45 6e-45 6e-45 6e-45
0002c0 04 00 00 00 04 00 00 00 04 00 00 00 04 00 00 00
       6e-45 6e-45 6e-45 6e-45
0002d0 04 00 00 00 04 00 00 00 04 00 00 00 00 00 00 00
       6e-45 6e-45 6e-45 0.0
0002e0 04 00 00 00 04 00 00 00 04 00 00 00 00 00 00 00
       6e-45 6e-45 6e-45 0.0
0002f0 04 00 00 00 00 00 00 00 04 00 00 00 04 00 00 00
       6e-45 0.0 6e-45 6e-45
000300 7e e4 50 53 9d b1 4b 53 b3 76 52 53 0c 1a 3f 53
       8.9718666e+11 8.748582e+11 9.039346e+11 8.2077575e+11
000310 9a f3 82 d2 c0 6f 81 d2 1a 5a 82 d2 5c 32 49 53
       -2.8121635e+11 -2.7796282e+11 -2.799287e+11 8.641333e+11
000320 3a 0c 4b 53 d4 bd 83 d2 5c 13 4f 53 6d ca 83 d2
       8.720835e+11 -2.8291275e+11 8.89383e+11 -2.8301843e+11
000330 df 90 85 d2 92 41 82 d2 d5 5d 29 53 ac f3 56 53
       -2.868306e+11 -2.7972292e+11 7.274237e+11 9.2321114e+11
000340 02 85 83 d2 cc 78 84 d2 16 11 4a 53 95 50 53 53
       -2.824361e+11 -2.8448116e+11 8.6787005e+11 9.0759004e+11
000350 ca 2f 85 d2 77 66 53 53 3b 14 84 d2 2f a5 83 d2
       -2.860162e+11 9.079572e+11 -2.8363755e+11 -2.8270602e+11
000360 00 c1 51 53 a1 88 4c 53 db 54 53 53 c6 e3 3f 53
       9.008862e+11 8.784656e+11 9.0766174e+11 8.2416016e+11
000370 cd 7d 83 d2 52 f8 81 d2 a9 e3 82 d2 bd 06 4a 53
       -2.8237565e+11 -2.7910845e+11 -2.8108263e+11 8.6769644e+11
000380 8f e2 4b 53 d3 48 84 d2 f2 ed 4f 53 7d 55 84 d2
       8.756794e+11 -2.8407874e+11 8.930503e+11 -2.8418497e+11
000390 ce 1d 86 d2 04 cb 82 d2 9e 10 2a 53 94 d6 57 53
       -2.8801283e+11 -2.808759e+11 7.304232e+11 9.27018e+11
0003a0 c5 0f 84 d2 96 04 85 d2 63 e6 4a 53 a5 2f 54 53
       -2.8360013e+11 -2.856538e+11 8.7144864e+11 9.113324e+11
0003b0 51 bc 85 d2 9f 45 54 53 99 9f 84 d2 19 30 84 d2
       -2.8719504e+11 9.117011e+11 -2.8480664e+11 -2.838713e+11
0003c0 c0 88 50 53 28 58 4b 53 46 1a 52 53 1e c6 3e 53
       8.956475e+11 8.733574e+11 9.023839e+11 8.1936764e+11
0003d0 02 ba 82 d2 d5 36 81 d2 c8 20 82 d2 00 da 48 53
       -2.8073322e+11 -2.7748536e+11 -2.7944786e+11 8.626509e+11
0003e0 0b b3 4a 53 e2 83 83 d2 6b b8 4e 53 76 90 83 d2
       8.7058724e+11 -2.8242667e+11 8.878573e+11 -2.825322e+11
0003f0 1d 56 85 d2 47 08 82 d2 75 13 29 53 47 95 56 53
       -2.863377e+11 -2.792423e+11 7.261759e+11 9.2162746e+11

exp_avg_sq f4 [36, 24]
000000 ef 66 09 3f 0a bc 73 3e c7 da 42 3e 49 2c 5a 3f
       0.5367269 0.238022 0.1902877 0.85223824
000010 be 78 19 3f 18 52 83 40 00 00 00 00 03 85 43 40
       0.5994986 4.103771 0.0 3.0549934
000020 00 eb 9f 3c 36 05 ee 40 81 f9 2b 3e 6e 08 d6 3f
       0.019521236 7.438136 0.16794397 1.6721323
000030 eb 55 26 40 96 cc 80 40 6e 6e 3e 3f ea f4 1e 3f
       2.598994 4.024974 0.7438725 0.6209246
000040 bd 43 61 3f 95 eb 0d 41 3a 1b c7 3c 00 00 00 00
       0.87993985 8.870015 0.024304975 0.0
000050 87 d5 45 3f df 68 8b 3b bb da a0 40 90 b5 e8 3d
       0.7727894 0.004254445 5.0267005 0.11362755
000060 09 ab be 68 33 cb b9 68 79 b6 bc 68 0c 64 b3 68
       7.2032374e+24 7.0190893e+24 7.1293674e+24 6.777193e+24
000070 8f ef 94 68 79 be 95 68 84 0c 95 68 cd 33 b6 68
       5.6266345e+24 5.6571697e+24 5.630908e+24 6.88341e+24
000080 9e 73 ba 68 d3 bb 99 68 d6 96 ba 68 f5 76 9a 68
       7.0439434e+24 5.8078945e+24 7.049141e+24 5.8355105e+24
000090 0e 3b 9c 68 03 8d 96 68 61 46 ac 68 ce f0 bd 68
       5.9022283e+24 5.6876494e+24 6.5083624e+24 7.1757546e+24
0000a0 50 2e 97 68 75 ca 9a 68 94 98 b5 68 92 38 bb 68
       5.711453e+24 5.847833e+24 6.860503e+24 7.0730086e+24
0000b0 6b fb 9a 68 05 46 be 68 d9 45 9a 68 cb e1 95 68
       5.855058e+24 7.18833e+24 5.828263e+24 5.662382e+24
0000c0 91 04 c2 68 73 0e bd 68 2a 07 c0 68 5e 8a b6 68
       7.3297867e+24 7.1423505e+24 7.254612e+24 6.896185e+24
0000d0 8b 8f 97 68 86 62 98 68 18 ad 97 68 bb 66 b9 68
       5.725802e+24 5.756937e+24 5.730163e+24 7.004263e+24
0000e0 df b9 bd 68 f0 71 9c 68 9b dd bd 68 6d 30 9d 68
       7.167648e+24 5.9103276e+24 7.1729213e+24 5.9384387e+24
0000f0 7f fc 9e 68 b6 34 99 68 44 4c af 68 f8 46 c1 68
       6.006333e+24 5.7879553e+24 6.622568e+24 7.301807e+24
000100 be d8 99 68 5d 85 9d 68 c3 c8 b8 68 57 82 be 68
       5.812162e+24 5.950973e+24 6.9809507e+24 7.197232e+24
000110 0f b7 9d 68 78 9d c1 68 4c fe 9c 68 18 86 98 68
       5.958307e+24 7.314572e+24 5.931041e+24 5.7621864e+24
000120 76 4c c3 68 b0 4d be 68 85 4b c1 68 96 be b7 68
       7.3781754e+24 7.1894617e+24 7.3024786e+24 6.94167e+24
000130 dc 90 98 68 57 65 99 68 b7 ae 98 68 e1 9f ba 68
       5.763775e+24 5.7951317e+24 5.768181e+24 7.0504753e+24
000140 6b fa be 68 c6 7b 9d 68 5e 1e bf 68 95 3b 9e 68
       7.214952e+24 5.949558e+24 7.2202574e+24 5.977864e+24
000150 a0 0a a0 68 d6 38 9a 68 1b 74 b0 68 74 8d c2 68
       6.046197e+24 5.826343e+24 6.666226e+24 7.3499876e+24
000160 16 de 9a 68 02 91 9e 68 b2 00 ba 68 0b c4 bf 68
       5.8507296e+24 5.9904706e+24 7.026984e+24 7.244707e+24
000170 0d c3 9e 68 a6 e4 c2 68 2d 09 9e 68 1c 89 99 68
       5.9978556e+24 7.3628553e+24 5.9704253e+24 5.8004103e+24
000180 47 0b c4 68 84 07 bf 68 64 08 c2 68 4a 72 b8 68
       7.406335e+24 7.216885e+24 7.330351e+24 6.9681896e+24
000190 c3 27 99 68 15 fd 99 68 90 45 99 68 0b 56 bb 68
       5.7860444e+24 5.817525e+24 5.790442e+24 7.077358e+24
0001a0 e3 b4 bf 68 9b 17 9e 68 fe d8 bf 68 14 d8 9e 68
       7.24247e+24 5.972555e+24 7.2477984e+24 6.000959e+24
0001b0 11 a9 a0 68 83 d1 9a 68 66 20 b1 68 86 4b c3 68
       6.069579e+24 5.848874e+24 6.691652e+24 7.378037e+24
0001c0 2b 77 9b 68 04 2e 9f 68 46 b6 ba 68 5c 7f c0 68
       5.8733205e+24 6.013641e+24 7.05378e+24 7.27235e+24
0001d0 fc 5f 9f 68 ee a2 c3 68 93 a5 9e 68 fa 20 9a 68
       6.021015e+24 7.390936e+24 5.9935057e+24 5.822822e+24
0001e0 66 70 c3 68 cc 70 be 68 21 6f c1 68 7a e0 b7 68
       7.383479e+24 7.194643e+24 7.3077336e+24 6.9466714e+24
0001f0 69 ac 98 68 1c 81 99 68 67 ca 98 68 2c c2 ba 68
       5.767841e+24 5.79923e+24 5.772267e+24 7.055536e+24
000200 6b 1d bf 68 44 98 9d 68 56 41 bf 68 37 58 9e 68
       7.2201173e+24 5.953763e+24 7.225418e+24 5.9820894e+24
000210 8c 27 a0 68 e3 54 9a 68 a3 94 b0 68 52 b1 c2 68
       6.050465e+24 5.8304826e+24 6.671027e+24 7.3552806e+24
000220 22 fa 9a 68 c6 ad 9e 68 ec 22 ba 68 55 e7 bf 68
       5.8548686e+24 5.9947157e+24 7.032035e+24 7.2499146e+24
000230 d3 df 9e 68 84 08 c3 68 bd 25 9e 68 fc a4 99 68
       6.002102e+24 7.3681484e+24 5.9746404e+24 5.804524e+24
000240 1a 80 c1 68 7c 8d bc 68 2b 84 bf 68 e4 0d b6 68
       7.3102383e+24 7.1233186e+24 7.2352805e+24 6.8778155e+24
000250 77 28 97 68 eb fa 97 68 fc 45 97 68 64 e8 b8 68
       5.71059e+24 5.7416477e+24 5.7149466e+24 6.985618e+24
000260 8b 38 bd 68 76 07 9c 68 24 5c bd 68 8c c5 9c 68
       7.1485624e+24 5.8946144e+24 7.1538157e+24 5.922666e+24
000270 41 90 9e 68 76 cc 98 68 bf d4 ae 68 fa c2 c0 68
       5.9903594e+24 5.772571e+24 6.60493e+24 7.2823284e+24
000280 39 70 99 68 36 1a 9d 68 cd 4a b8 68 57 00 be 68
       5.796738e+24 5.9351604e+24 6.962362e+24 7.178047e+24
000290 db 4b 9d 68 89 19 c1 68 99 93 9c 68 62 1e 98 68
       5.9424866e+24 7.295102e+24 5.915295e+24 5.7468814e+24
0002a0 5d 70 95 3d 81 b6 ef 3d 00 00 00 00 12 da 8d 3f
       0.07296822 0.11704732 0.0 1.1082175
0002b0 bd 66 9f 43 fd c2 2b 41 a0 c6 01 42 49 9e 8e 3f
       318.80264 10.735105 32.44397 1.1142055
0002c0 c1 40 23 3c 2b e2 8e 43 06 ab af 3a 7e ed 23 43
       0.009964169 285.76694 0.0013402409 163.9277
0002d0 b9 11 6b 44 e2 63 ba 41 6b 0e 07 44 00 00 00 00
       940.2769 23.29877 540.2253 0.0
0002e0 fe 07 5c 43 88 54 5b 44 95 b7 ef 39 00 00 00 00
       220.03122 877.3208 0.00045722412 0.0
0002f0 1b bf 3d 44 00 00 00 00 80 4f 43 44 fe a8 35 43
       758.986 0.0 781.2422 181.66013
000300 62 e3 c3 68 ee e0 be 68 fd e0 c1 68 ba 4c b8 68
       7.4004475e+24 7.211191e+24 7.324536e+24 6.9626463e+24
000310 a1 06 99 68 c9 db 99 68 9b 24 99 68 14 30 bb 68
       5.781155e+24 5.812611e+24 5.7855786e+24 7.0717553e+24
000320 f1 8d bf 68 42 f5 9d 68 19 b2 bf 68 c3 b5 9e 68
       7.236723e+24 5.967486e+24 7.2420586e+24 5.9958945e+24
000330 1b 86 a0 68 fb af 9a 68 7f fc b0 68 d6 23 c3 68
       6.0644196e+24 5.8439256e+24 6.686354e+24 7.37218e+24
000340 ab 55 9b 68 84 0b 9f 68 85 90 ba 68 50 58 c0 68
       5.868377e+24 6.0085496e+24 7.0482086e+24 7.2665875e+24
000350 98 3d 9f 68 3f 7b c3 68 2c 83 9e 68 a2 ff 99 68
       6.01594e+24 7.3850796e+24 5.988429e+24 5.8179013e+24
000360 f6 32 c5 68 e1 27 c0 68 56 2d c3 68 81 88 b9 68
       7.44997e+24 7.25944e+24 7.373582e+24 7.009247e+24
000370 3c 10 9a 68 f0 e6 9a 68 53 2e 9a 68 b1 70 bc 68
       5.820351e+24 5.852036e+24 5.824792e+24 7.1190695e+24
000380 27 d6 c0 68 af 07 9f 68 64 fa c0 68 70 c9 9f 68
       7.285158e+24 6.007984e+24 7.290506e+24 6.036577e+24
000390 fa 9c a1 68 8b bc 9b 68 78 2b b2 68 12 72 c4 68
       6.1055737e+24 5.8835585e+24 6.731065e+24 7.4215045e+24
0003a0 5a 63 9c 68 ae 1f a0 68 eb cf bb 68 d0 a1 c1 68
       5.908175e+24 6.049304e+24 7.0953435e+24 7.315213e+24
0003b0 40 52 a0 68 36 ca c4 68 91 96 9f 68 cc 0a 9b 68
       6.056767e+24 7.434512e+24 6.02907e+24 5.857328e+24
0003c0 e2 3c c3 68 9c 3e be 68 17 3c c1 68 19 b0 b7 68
       7.3758764e+24 7.1872366e+24 7.3002015e+24 6.939532e+24
0003d0 99 85 98 68 f4 59 99 68 63 a3 98 68 f8 90 ba 68
       5.762113e+24 5.7934513e+24 5.766509e+24 7.048275e+24
0003e0 18 eb be 68 1c 70 9d 68 1f 0f bf 68 e9 2f 9e 68
       7.212691e+24 5.947837e+24 7.2180075e+24 5.9761415e+24
0003f0 c6 fe 9f 68 88 2d 9a 68 27 66 b0 68 e0 7d c2 68
       6.044448e+24 5.824675e+24 6.664167e+24 7.3476887e+24

exp_avg f4 [36]
000000 04 00 00 00 a8 bd 3b 50 6e a1 3d 50 3c 5b 3e 50
       6e-45 1.2599075e+10 1.2725893e+10 1.2774601e+10
000010 60 cc 3e 50 77 6b 3e 50 f4 5a 3d 50 04 00 00 00
       1.280426e+10 1.2778855e+10 1.2707418e+10 6e-45
000020 64 ab 3e 50 aa 74 3f 50 ad 57 3e 50 ad 78 3c 50
       1.2795613e+10 1.2848376e+10 1.2773668e+10 1.2648101e+10
000030 65 8e 3c 50 d9 32 3e 50 2f 0f 3e 50 04 00 00 00
       1.2653794e+10 1.2764014e+10 1.2754664e+10 6e-45
000040 cc 16 0a 50 04 00 00 00 04 00 00 00 c6 49 3e 50
       9.266999e+09 6e-45 6e-45 1.2770023e+10
000050 cc 98 3c 50 18 f6 3d 50 e1 b6 3c 50 12 51 3e 50
       1.2656521e+10 1.2748087e+10 1.2664407e+10 1.2771936e+10
000060 88 08 3d 50 49 81 3f 50 04 00 00 00 04 00 00 00
       1.2685812e+10 1.2851684e+10 6e-45 6e-45
000070 04 00 00 00 fe eb 3e 50 bb ed 3d 50 b9 43 3d 50
       6e-45 1.2812548e+10 1.2745895e+10 1.2701328e+10
000080 2d ad 0a 50 04 00 00 00 56 7c 3a 50 ea fb 3c 50
       9.30642e+09 6e-45 1.2514843e+10 1.2682504e+10

exp_avg_sq f4 [36]
000000 d7 54 16 41 e1 a9 23 63 02 9a 26 63 bd b9 27 63
       9.395713 3.0190603e+21 3.073257e+21 3.09399e+21
000010 0c 62 28 63 ce d8 27 63 4f 26 26 63 64 23 ed 43
       3.106118e+21 3.0962287e+21 3.06492e+21 474.2765
000020 b9 3d 28 63 1e 66 29 63 d4 ac 27 63 fe b6 24 63
       3.1035006e+21 3.124858e+21 3.0930598e+21 3.038452e+21
000030 14 ee 24 63 81 73 27 63 bc 45 27 63 02 72 77 42
       3.0424214e+21 3.0889292e+21 3.0856312e+21 61.861336
000040 3a 5c bd 62 38 93 e0 42 d8 17 6a 44 d4 a4 27 63
       1.7465401e+21 112.28754 936.37256 3.0924834e+21
000050 7c 03 25 63 17 15 27 63 ee 37 25 63 20 a6 27 63
       3.0439638e+21 3.082126e+21 3.047743e+21 3.0925768e+21
000060 1e a7 25 63 ce 80 29 63 29 eb 96 43 f8 a0 0f 41
       3.0557548e+21 3.126781e+21 301.8372 8.976799
000070 7c c5 95 45 33 9c 28 63 ef 11 27 63 f1 09 26 63
       4792.6855 3.1103083e+21 3.0818985e+21 3.062876e+21
000080 55 b9 be 62 ad 78 3a 47 d6 b2 21 63 66 99 25 63
       1.759118e+21 47736.676 2.9828123e+21 3.0547663e+21

exp_avg f4 [1, 36]
000000 04 00 00 00 33 cc 85 54 c2 21 86 54 9e dd 85 54
       6e-45 4.5972524e+12 4.608736e+12 4.59959e+12
000010 f6 c5 84 54 a3 80 86 54 72 69 85 54 04 00 00 80
       4.5620553e+12 4.6214703e+12 4.583998e+12 -6e-45
000020 6c 94 86 54 80 50 84 54 d2 02 85 54 81 58 83 54
       4.624126e+12 4.54629e+12 4.570224e+12 4.5130045e+12
000030 d0 17 86 54 6c fc 84 54 5d 37 86 54 04 00 00 80
       4.607401e+12 4.569365e+12 4.6116357e+12 -6e-45
000040 f5 9e 2c 54 04 00 00 80 04 00 00 80 d3 8a 86 54
       2.965605e+12 -6e-45 -6e-45 4.6228376e+12
000050 44 b1 86 54 3e 12 85 54 a8 5c 87 54 84 70 85 54
       4.627997e+12 4.5722936e+12 4.651001e+12 4.584947e+12
000060 f8 86 85 54 03 28 85 54 04 00 00 80 04 00 00 80
       4.5879604e+12 4.5752155e+12 -6e-45 -6e-45
000070 04 00 00 80 c6 d2 85 54 bb 38 86 54 50 59 86 54
       -6e-45 4.5981347e+12 4.611819e+12 4.616192e+12
000080 4b 49 2c 54 04 00 00 00 a2 81 84 54 ee 36 86 54
       2.959856e+12 6e-45 4.5528845e+12 4.6115775e+12

exp_avg_sq f4 [1, 36]
000000 47 5c cb 3e f1 2e fa 6c 0c 93 fd 6c 74 7d fc 6c
       0.3971884 2.419625e+27 2.4524211e+27 2.441934e+27
000010 3f e7 fa 6c c9 f5 fb 6c 46 13 fc 6c 6d 8a 89 3f
       2.4265879e+27 2.4368085e+27 2.4379226e+27 1.0745369
000020 63 b7 fc 6c a6 67 fb 6c 72 24 fc 6c d2 a1 f7 6c
       2.4441226e+27 2.4314388e+27 2.4385713e+27 2.3949508e+27
000030 e7 f6 fc 6c 7d 57 fb 6c b8 56 fd 6c e9 dc d4 3f
       2.4465222e+27 2.4308283e+27 2.450142e+27 1.6629916
000040 85 ca 88 6c d7 95 33 41 71 76 1d 42 eb 90 fc 6c
       1.3229623e+27 11.224082 39.365665 2.4426693e+27
000050 89 f9 fc 6c 52 08 fb 6c 82 1a fd 6c b3 2c fc 6c
       2.4466216e+27 2.4278374e+27 2.4478673e+27 2.4388831e+27
000060 e8 1c fc 6c 6a a0 fc 6c 27 ce 1b 40 7e 46 f3 41
       2.4382865e+27 2.4432547e+27 2.4344575 30.40942
000070 04 60 a4 42 ae 9e fc 6c 1e 59 fc 6c 4f b8 fc 6c
       82.18753 2.4431892e+27 2.4405612e+27 2.4441574e+27
000080 00 e3 88 6c 65 6a 17 45 cf 38 f5 6c e5 3b fc 6c
       1.3238871e+27 2422.6497 2.3716408e+27 2.4394572e+27

exp_avg f4 [1, 36]
000000 04 00 00 80 04 00 00 80 04 00 00 80 04 00 00 80
       -6e-45 -6e-45 -6e-45 -6e-45
000010 04 00 00 80 04 00 00 80 04 00 00 80 04 00 00 80
       -6e-45 -6e-45 -6e-45 -6e-45
000020 04 00 00 80 04 00 00 80 04 00 00 80 04 00 00 80
       -6e-45 -6e-45 -6e-45 -6e-45
000030 04 00 00 80 04 00 00 80 04 00 00 80 00 00 00 00
       -6e-45 -6e-45 -6e-45 0.0
000040 04 00 00 80 04 00 00 80 04 00 00 80 04 00 00 80
       -6e-45 -6e-45 -6e-45 -6e-45
000050 04 00 00 80 04 00 00 80 04 00 00 80 04 00 00 80
       -6e-45 -6e-45 -6e-45 -6e-45
000060 04 00 00 80 04 00 00 80 00 00 00 00 04 00 00 80
       -6e-45 -6e-45 0.0 -6e-45
000070 04 00 00 80 04 00 00 80 04 00 00 80 04 00 00 80
       -6e-45 -6e-45 -6e-45 -6e-45
000080 04 00 00 80 04 00 00 80 04 00 00 80 04 00 00 80
       -6e-45 -6e-45 -6e-45 -6e-45

exp_avg_sq f4 [1, 36]
000000 f7 62 72 40 bd 4a b0 46 c0 61 14 48 00 00 ae 47
       3.7872903 22565.37 151943.0 89088.0
000010 d9 bc cc 46 f7 d8 ee 47 f4 92 a7 47 f8 b0 b8 43
       26206.424 122289.93 85797.91 369.38257
000020 e5 2e ad 48 a4 1b 26 47 8e 2c c7 47 83 4b 79 47
       354679.16 42523.64 101977.11 63819.51
000030 48 51 e3 46 65 74 17 48 62 2a 1a 48 00 00 00 00
       29096.64 155089.58 157865.53 0.0
000040 a2 8c 53 47 d8 6c 0e 44 40 9c 29 45 2f a4 56 47
       54156.633 569.7007 2713.7656 54948.184
000050 79 f7 1b 48 c3 61 48 46 1c 9e 9b 47 f5 e2 94 46
       159709.89 12824.44 79676.22 19057.479
000060 a0 fd da 46 a9 b5 f1 47 00 00 00 00 c5 51 e2 44
       28030.812 123755.32 0.0 1810.5553
000070 66 e1 e4 45 29 88 23 48 ad 8b f3 48 18 d9 e2 47
       7324.175 167456.64 498781.4 116146.19
000080 7f ad 54 3f 0e 33 0c 47 74 5c 8b 44 a0 dd 39 48
       0.83077234 35891.055 1114.8892 190326.5
