Basic-Policy-Gradient-Labs_/data/policies/Pendulum-v0#default_team_-616.4461439210836#squashedGaussian#200#-616.4461439210836.pt (torch, 21703 bytes, 18 tensors)

weight f4 [24, 3]
00000000: 3c5f 67c1 076f 4bc1 1c5f 5a40 418b 65c1
00000010: db8a 42c1 e58a 5440 fcc5 64c1 d4b1 50c1
00000020: 41f2 5a40 14d7 5cc1 157d 48c1 ea6e 3e40
00000030: c395 7ac1 a9a7 0cc1 9e89 60c0 0099 6ac1
00000040: 8bde 11c1 d3f2 62c0 a9a1 78c1 5f8e 0fc1
00000050: dc04 62c0 b01a 5dc1 32f8 37c1 50ab 5140
00000060: c118 69c1 51de 49c1 539c 5240 d7a3 6ec1
00000070: edad 0ec1 2d22 67c0 8aea 64c1 8a03 40c1
00000080: e4b6 5940 8af6 70c1 541b 1ec1 781d 69c0
00000090: 59bc 79c1 a770 16c1 f06d 6ac0 3063 6cc1
000000a0: dcb6 0dc1 2619 63c0 70f6 67c1 2f14 2dc1
000000b0: 4a01 2340 4d31 64c1 1729 47c1 0384 6340
000000c0: 2be9 76c1 f376 09c1 b0ba 63c0 8f74 72c1
000000d0: fa9d 0dc1 d6e4 68c0 9716 63c1 78e6 37c1
000000e0: dcef 5340 73c2 67c1 19ff 4fc1 8b21 5d40
000000f0: 11cb 7bc1 05d7 17c1 c243 69c0 6cae 6bc1
00000100: f5b3 48c1 467b 5f40 aa36 73c1 8bd6 14c1
00000110: efb0 68c0 2910 7dc1 d14b 07c1 aef8 61c0
-14.460751 -12.714606 3.412055 -14.346498 -12.1589 3.3209774 -14.298336 -13.043415
3.421036 -13.802509 -12.530538 2.9755197 -15.661563 -8.790933 -3.5083995 -14.6623535
-9.116832 -3.5460708 -15.539468 -8.972259 -3.5315466 -13.8190155 -11.498095 3.276081
-14.568543 -12.616776 3.2907913 -14.915 -8.917462 -3.611461 -14.3072605 -12.000864
3.4017878 -15.06019 -9.881672 -3.6424236 -15.608483 -9.402503 -3.66296 -14.774216
-8.857143 -3.54841 -14.497665 -10.817428 2.5469537 -14.262036 -12.447532 3.5549324
-15.431926 -8.59154 -3.5582695 -15.153457 -8.8510685 -3.638967 -14.193015 -11.493767
3.3115149 -14.484973 -12.99978 3.4551723 -15.737077 -9.489995 -3.6447606 -14.730083
-12.543935 3.491899 -15.200846 -9.302379 -3.6357992 -15.816445 -8.45601 -3.5308032

bias f4 [24]
00000000: 4a46 5f41 1fc8 5a41 9ef6 5841 3a8a 5941
00000010: 0ba3 3841 e15b 4741 af2c 3f41 4b3c 5c41
00000020: 6f87 5841 5aa1 4941 cb92 5a41 cc2d 4541
00000030: 0299 4241 9b91 4541 7c8d 5641 e835 5b41
00000040: 0f60 4341 ad95 4c41 0b09 5541 dd4f 5241
00000050: 1c63 4141 f1c6 5841 d767 4941 5bc7 3c41
13.95466 13.673858 13.560209 13.596247 11.539805 12.459931 11.948409 13.76472
13.533065 12.601892 13.660838 12.323681 12.162355 12.348048 13.409542 13.700661
12.210952 12.786542 13.314708 13.144498 12.086697 13.54857 12.587852 11.798671

weight f4 [36, 24]
00000000: 3b52 923d 64de 3dbe 062a 6cbe 5ee0 ac3d
00000010: aa5d 31be 2f4e df3c 9abe 063e d692 963d
00000020: 7323 10be d941 013e ad6e d1bd 8ad1 5a3d
00000030: a74e 66be 4c69 7c3d d921 b93d 9492 e0bd
00000040: 13ea 9d3d 8bca 82be ba51 80be eebc 4dbd
00000050: da0e 2cbd dd54 12be dc38 96bd 6b28 ecbd
00000060: eb59 fc40 95bc f840 00ce f440 6ecd 0441
00000070: c4a3 3b41 67bd 3c41 c972 3e41 f912 f840
00000080: 09d4 0141 a74a 3c41 55b0 f640 d911 3941
00000090: 4b7f 3741 3c09 3a41 e101 1541 f957 e840
000000a0: 7019 3941 cfe9 3841 3dc3 f340 0451 e940
000000b0: 51ea 3841 d97f f240 3993 3d41 f969 4041
000000c0: 8ea1 f840 61ef f840 23ab f740 4d16 0841
000000d0: 1c7a 3e41 a29a 4041 6cd4 4041 87d4 fb40
000000e0: 03bc f840 3ad1 3d41 2ad1 f840 1db1 3c41
000000f0: d227 3c41 308c 3b41 e118 1541 d53f e540
00000100: f8ec 3b41 6af8 3f41 9297 fb40 5587 f240
00000110: bd43 3b41 7d20 fa40 94e1 3d41 c0e0 3d41
00000120: 0ff4 f240 43f5 f840 2f38 f340 16ab 0241
00000130: 8343 3e41 9c4e 3e41 03b2 3d41 091b f940
00000140: 546b ff40 14c8 3d41 cc3e fa40 b2f7 3a41
00000150: f88f 3a41 8c80 3e41 57b3 1941 1a71 e840
00000160: 4560 3c41 420a 3d41 2929 fd40 5fcc e740
00000170: 2bda 3a41 5f9c f740 566e 3b41 df7f 3d41
00000180: 4301 f140 3f8d f840 b18a f440 ddce 0341
00000190: 1fc2 3a41 1aac 3a41 7737 3f41 5a6d f240
000001a0: 8d42 fa40 2ce5 3841 3ffc f740 8ea7 3841
000001b0: 5490 3d41 ed7e 3941 f93d 1a41 f12f e240
000001c0: 15d2 4041 2bb7 3d41 06ec f240 2c7e ea40
000001d0: 3038 3f41 27bf f040 5d4a 3941 0913 3c41
000001e0: 0baa f440 8a5f f740 0d3b f540 5549 0541
000001f0: a297 3f41 d4db 3c41 9646 3f41 d017 f740
00000200: bdfc ff40 93f2 3c41 2387 fa40 d491 3741
00000210: a105 3841 1d77 3941 1982 1941 2d6f e840
00000220: 38f7 3e41 aa90 3a41 3a55 fb40 2ecb eb40
00000230: fb08 3c41 9186 f640 4250 3941 93a6 3c41
00000240: dc07 fd40 5086 fc40 d243 f440 bec8 0241
00000250: f1c5 3f41 4d58 3b41 aa68 3f41 776a fa40
00000260: 950e ff40 b3f1 3b41 8fe8 f040 02ca 3d41
00000270: 116c 3d41 026d 3a41 18d3 1841 b08d e840
00000280: 37e7 3f41 7d12 3a41 11e7 f940 67ed e540
00000290: 9bba 3b41 9330 f140 e268 3a41 a6f3 3e41
000002a0: 55cc e33d 053d 80be 9b2b 523d d093 85bd
000002b0: e548 bb3d 92f7 8fbe 9de9 91be 1bef 88be
000002c0: 6c4e 65be 48d4 99be 0695 943d d426 ccbd
000002d0: 9bc8 983d 7a93 d7bd 7091 b8bb 9608 8e3c
000002e0: f297 d6bd cba1 d83c e517 42be 90e1 903b
000002f0: ed19 92be e98b 1abe bc85 973d efeb 50bd
00000300: 4ca8 fe40 d42c fa40 80e5 ea40 74b0 0441
00000310: fde1 3b41 0101 3a41 8a91 3c41 fb3c fb40
00000320: abbf f740 c2d6 3d41 aae0 fa40 2569 3c41
00000330: 5219 3e41 4178 3941 4404 1941 83bd ef40
00000340: 3c46 3c41 4322 3a41 e01d f640 613c ef40
00000350: 8351 3e41 23ae f940 78bd 3c41 efb5 3e41
00000360: 0284 f740 680a f440 cc14 ed40 7757 0341
00000370: dd80 3b41 614a 3b41 993c 4041 8030 f940
00000380: 77e6 f540 07d7 3841 6e39 ee40 c960 3a41
00000390: 2b46 3d41 5830 3e41 aaa1 1841 a57d e340
000003a0: 1bad 3e41 e515 3e41 eba7 fb40 a0a8 ed40
000003b0: 304a 3b41 30fc ec40 6fd3 3c41 f86e 3e41
000003c0: f6ff f040 ad2e fa40 483d ec40 6503 0541
000003d0: 6ebb 3c41 bdf1 3b41 f8ee 4041 184f fa40
000003e0: 8163 0041 a52b 3d41 804f f440 8ec5 3a41
000003f0: a871 3a41 4618 3a41 8b0d 1941 fba2 e440
0.071445905 -0.18541867 -0.23062906 0.08441232 -0.17320886 0.02725896 0.13158646 0.073522255
-0.14076023 0.12622775 -0.10226188 0.05342249 -0.22490941 0.061623856 0.09039659 -0.109654576
0.07710662 -0.25545153 -0.25062352 -0.050229006 -0.04200635 -0.14290185 -0.07335064 -0.115311466
7.8859763 7.7730203 7.6501465 8.300154 11.727482 11.796241 11.903024 7.752316
8.114266 11.768226 7.709025 11.566857 11.468577 11.6272545 9.312959 7.260739
11.56871 11.557082 7.617583 7.2911396 11.557206 7.5781064 11.848443 12.025872
7.769721 7.779221 7.7396407 8.505445 11.904812 12.037752 12.051861 7.8696933
7.7729506 11.863581 7.7755327 11.793241 11.759722 11.721725 9.318574 7.164042
11.745354 11.998148 7.862252 7.57902 11.704038 7.816466 11.867573 11.867371
7.5922923 7.779939 7.6006083 8.166769 11.891482 11.894192 11.85596 7.78455
7.9818516 11.861347 7.8201656 11.6854725 11.660149 11.9063835 9.606284 7.2638063
11.773503 11.815004 7.9112744 7.2436976 11.678264 7.7378383 11.7144375 11.843719
7.531404 7.767242 7.64193 8.238004 11.672393 11.667017 11.951041 7.5758486
7.820624 11.55595 7.7495418 11.540907 11.847736 11.593488 9.64013 7.068352
12.05129 11.857219 7.5913115 7.327902 11.951218 7.523334 11.580655 11.754647
7.645757 7.7304125 7.6634583 8.330403 11.97452 11.803669 11.954733 7.721657
7.999602 11.809222 7.828996 11.473103 11.501374 11.59158 9.594262 7.2635713
11.935356 11.660318 7.8541536 7.368552 11.7521925 7.7039266 11.582094 11.790668
7.9072094 7.8913956 7.633279 8.174009 11.985826 11.709058 11.963053 7.825496
7.97053 11.746509 7.5283885 11.861818 11.838883 11.651613 9.551537 7.267296
11.993949 11.629514 7.8094563 7.18523 11.733058 7.5371795 11.650606 11.9344845
0.111229576 -0.25046554 0.051311117 -0.065223336 0.09144763 -0.2811857 -0.28498545 -0.26744923
-0.22393197 -0.3004477 0.072549865 -0.099683434 0.074601375 -0.10526176 -0.005632572 0.017338078
-0.104782 0.026444336 -0.18954428 0.0044214204 -0.28535405 -0.15092434 0.07398555 -0.051006254
7.958044 7.817972 7.340515 8.293079 11.742673 11.625245 11.785532 7.851194
7.742147 11.864931 7.839925 11.77567 11.881182 11.591859 9.563541 7.4918838
11.767147 11.633365 7.691147 7.4761205 11.8949 7.802507 11.796257 11.919417
7.734864 7.6262703 7.4087887 8.208854 11.718961 11.705659 12.014794 7.7871704
7.684383 11.552497 7.4445105 11.648629 11.829631 11.886803 9.539469 7.1090875
11.917262 11.880345 7.864248 7.426834 11.705612 7.4057846 11.80162 11.902092
7.531245 7.8181977 7.3824806 8.313329 11.795759 11.746518 12.058342 7.822155
8.024293 11.823155 7.6347046 11.673231 11.652748 11.630926 9.565806 7.144895

bias f4 [36]
00000000: 045d 40be 092c 0641 c0d8 0741 8a66 0541
00000010: 3184 0341 b6e8 0741 f26c 0541 5853 90be
00000020: 87dd 0841 7725 0741 b7cd 0341 4221 0441
00000030: 331b 0341 ca8c 0741 1c73 0641 f25f 80bd
00000040: 26c9 8440 3509 90be e6c1 7fbe 3424 0841
00000050: f5db 0341 71ea 0641 5ea7 0541 2d82 0641
00000060: 21c6 0441 68de 0541 f399 acbe 458b 42be
00000070: 48ad 1dbe 3604 0641 8a7b 0841 4c87 0341
00000080: f819 8440 ab4e 8cbe dd42 0341 4700 0741
-0.18785483 8.385751 8.4904175 8.337534 8.219773 8.494314 8.339098 -0.28188586
8.554084 8.446647 8.237723 8.25812 8.19414 8.471872 8.403103 -0.062683
4.1495543 -0.28132024 -0.2497631 8.508839 8.2412 8.432237 8.353361 8.406781
8.298371 8.366798 -0.33711204 -0.1899844 -0.15398133 8.376028 8.530161 8.220531
4.12817 -0.2740377 8.203824 8.437568

weight f4 [1, 36]
00000000: 6a3d 523d a2cf 3d41 eb91 4041 4ad6 4141
00000010: 21b1 4241 effa 4141 2842 4041 066d 87bd
00000020: f850 4241 e7b5 4341 71d9 4141 723a 3f41
00000030: f6e3 3e41 29af 4141 4948 4141 c936 70bc
00000040: a2b8 f840 3840 a4bd b8f5 603e f2b6 4141
00000050: acf3 3e41 7c54 4141 5820 3f41 7bcd 4141
00000060: 2cbc 3f41 dfad 4341 dc2e 933d bee1 b63d
00000070: a49a 233c 78bc 4241 c927 4141 650d 4041
00000080: faa5 fa40 049b 8fbd 9439 3c41 1ba4 3f41
0.0513281 11.863192 12.0356245 12.114817 12.168244 12.123763 12.016151 -0.066125914
12.144768 12.23191 12.115586 11.951769 11.930655 12.105264 12.080148 -0.014661499
7.772538 -0.08020061 0.21968734 12.107164 11.93449 12.083126 11.945396 12.112666
11.98344 12.229949 0.07186672 0.08929776 0.0099856 12.171013 12.072213 12.00327
7.832761 -0.07011989 11.764057 11.977565

weight f4 [1, 36]
00000000: 3943 35bd beb3 703e 0d53 703e bacc 963e
00000010: 5094 7c3e 6649 813e 6955 7e3e 642d 51bd
00000020: 2492 523e eb5a 653e dbe9 9f3e 801c 1c3e
00000030: 1045 643e 4a80 9a3e 6d0f 4a3e 20bc f53c
00000040: e7db 39bc da0e bb3d 04e2 45bd 4be1 183e
00000050: 234b 843e b67f f43d 4c65 593e 2ab0 1e3e
00000060: c35b 5c3e 8c9d 5f3e 3650 43bd 7d28 933d
00000070: 2a66 39bc 244e 653e 1b19 9f3e 1752 833e
00000080: c4ea c3bd 265e bc3c 6fa6 103e 1a21 8c3e
-0.04425356 0.23506066 0.23469181 0.2945307 0.24665952 0.2525131 0.24837269 -0.05106868
0.2056356 0.22397964 0.31233105 0.15245247 0.2229197 0.30176002 0.19732447 0.029996932
-0.011343933 0.09133692 -0.04831125 0.14929692 0.25838575 0.119384214 0.21230048 0.15496889
0.2151938 0.21837443 -0.047683917 0.07185457 -0.011315862 0.2239309 0.3107384 0.25648567
-0.09566262 0.022994112 0.1412599 0.27369004

exp_avg f4 [24, 3]
00000000: ecba 23d2 da5f 38d2 31a8 b952 0c28 26d2
00000010: c5c8 37d2 c63a b652 58e1 1dd2 7189 35d2
00000020: 47ca b952 f5b5 33d2 01bd 3ed2 a965 b452
00000030: 305e 89d2 e694 6bd2 cc96 98d2 6787 86d2
00000040: 1e9a 75d2 9bf4 85d2 260e 8bd2 715a 71d2
00000050: 9a11 8dd2 5038 28d2 dd2a 35d2 10c9 b052
00000060: 3a1b 27d2 b2a5 3ad2 5fef b952 15ae 84d2
00000070: 11aa 6ed2 9e4f 98d2 e6f5 22d2 9508 36d2
00000080: 4789 b652 5379 84d2 6ee6 72d2 fa05 87d2
00000090: 7b31 86d2 2b39 6bd2 8601 9dd2 e982 85d2
000000a0: bf9b 71d2 c824 8dd2 2a11 54d2 937a 53d2
000000b0: 6d77 ba52 2e88 17d2 1db0 2ed2 b384 b452
000000c0: ef5a 8ad2 e423 6dd2 10e3 92d2 afd1 85d2
000000d0: e24c 6ed2 006f 93d2 1df0 24d2 1f16 36d2
000000e0: f195 b452 2a7b 18d2 6858 31d2 2306 b852
000000f0: 0ede 87d2 917a 6fd2 c714 92d2 0174 20d2
00000100: 27fb 35d2 e211 b852 cbb5 85d2 975c 73d2
00000110: 5a5e 8bd2 c699 8bd2 d667 6bd2 d997 96d2
-1.7580392e+11 -1.9797053e+11 3.9869537e+11 -1.7840911e+11 -1.9733684e+11 3.9133505e+11 -1.6952263e+11 -1.9492374e+11
3.989813e+11 -1.9296297e+11 -2.0480369e+11 3.8739984e+11 -2.9499536e+11 -2.5295385e+11 -3.276825e+11 -2.8889865e+11
-2.6371316e+11 -2.8766722e+11 -2.986189e+11 -2.5915112e+11 -3.0294285e+11 -1.8062482e+11 -1.9452705e+11 3.7964376e+11
-1.7942908e+11 -2.0041096e+11 3.9929247e+11 -2.8492815e+11 -2.5626386e+11 -3.270854e+11 -1.7497755e+11 -1.95457e+11
3.919936e+11 -2.8448558e+11 -2.6081201e+11 -2.8996043e+11 -2.8817788e+11 -2.5256911e+11 -3.371677e+11 -2.8671348e+11
-2.5942503e+11 -3.0310374e+11 -2.2770526e+11 -2.2707364e+11 4.0043377e+11 -1.627062e+11 -1.8756975e+11 3.8766022e+11
-2.9711555e+11 -2.5462735e+11 -3.1543735e+11 -2.8737428e+11 -2.5587302e+11 -3.1661123e+11 -1.7710077e+11 -1.955138e+11
3.8780486e+11 -1.6372534e+11 -1.904231e+11 3.9518847e+11 -2.9177302e+11 -2.5713838e+11 -3.137069e+11 -1.7228525e+11
-1.9540068e+11 3.95287e+11 -2.871403e+11 -2.6130761e+11 -2.992917e+11 -2.9979017e+11 -2.5276485e+11 -3.2339634e+11

exp_avg_sq f4 [24, 3]
00000000: c585 2969 447e 6d68 2d52 3a6b ecfe 2969
00000010: 20a7 6c68 8deb 3a6b 6f45 2469 fafd 6768
00000020: 8677 346b f776 3569 4fc8 7b68 62e3 476b
00000030: 45fd 5e69 12eb 7668 6fd8 cf6a 006b 6169
00000040: 819c 8068 758c ce6a 5204 6469 9c80 8268
00000050: f9f4 d06a 2f4e 2a69 da29 6b68 4452 3b6b
00000060: 3cb2 2b69 1750 7068 ecdb 3c6b 8f8c 5e69
00000070: 5386 7668 4c8c ce6a 6416 2769 c107 6968
00000080: abb9 376b fe0c 5d69 6ba7 7868 4004 cd6a
00000090: 5aec 5c69 659c 7268 4a5e cf6a 2ab5 5e69
000000a0: 358b 7868 692b ce6a 5a35 5369 2873 8b68
000000b0: 1fc6 6a6b 3ec7 1d69 7e69 5d68 a43c 2d6b
000000c0: aa1b 6269 4fac 7c68 cacd d06a f322 6069
000000d0: 6442 7a68 8558 ce6a 2766 2769 8c54 6868
000000e0: 133a 386b 70c6 1e69 f894 6068 7074 2e6b
000000f0: 6746 5f69 9bef 7868 b57b cf6a 084f 2569
00000100: 6b38 6868 febf 356b a95a 6069 0450 7d68
00000110: 7013 ce6a 7408 6269 06ff 7a68 9eb8 d16a
1.2808761e+25 4.4861202e+24 2.2524827e+26 1.2844519e+25 4.4702456e+24 2.2597256e+26 1.2411983e+25 4.3822068e+24
2.1817108e+26 1.3711086e+25 4.756036e+24 2.4165002e+26 1.6848598e+25 4.6641537e+24 1.2563486e+26 1.70321e+25
4.858799e+24 1.24851e+26 1.7228468e+25 4.9302405e+24 1.2630671e+26 1.2867913e+25 4.4421126e+24 2.2645762e+26
1.2973e+25 4.5393814e+24 2.283166e+26 1.6815331e+25 4.65672e+24 1.2485063e+26 1.2624772e+25 4.4018177e+24
2.2211022e+26 1.6702123e+25 4.6969408e+24 1.2392493e+26 1.6692489e+25 4.5827906e+24 1.2534646e+26 1.6827316e+25
4.6948592e+24 1.2462186e+26 1.5958456e+25 5.2682656e+24 2.8382424e+26 1.192139e+25 4.182356e+24 2.0943053e+26
1.7084242e+25 4.7728595e+24 1.2621419e+26 1.6935277e+25 4.7272652e+24 1.2472837e+26 1.2648313e+25 4.3885946e+24
2.227166e+26 1.1996711e+25 4.2422323e+24 2.1090295e+26 1.6870183e+25 4.7022673e+24 1.2541592e+26 1.2490373e+25
4.386519e+24 2.1972223e+26 1.695172e+25 4.784939e+24 1.24565255e+26 1.7078572e+25 4.741184e+24 1.2676866e+26

exp_avg f4 [24]
00000000: d22e df52 4db3 e152 4f20 d852 b9c4 f152
00000010: 9c8f 1653 fe6f 1953 025c 1953 8bd8 e352
00000020: 0146 e352 be1f 1753 75ff dd52 553d 1753
00000030: ac5d 1553 280e 1853 7a6d 0d53 11f0 cf52
00000040: cd7d 1853 7515 1853 ee2e e052 6f82 d152
00000050: cff9 1653 8806 db52 fa77 1853 f904 1853
4.792816e+11 4.846879e+11 4.641275e+11 5.191938e+11 6.4665446e+11 6.590089e+11 6.586736e+11 4.8929528e+11
4.8806602e+11 6.490726e+11 4.767368e+11 6.4956904e+11 6.415217e+11 6.530725e+11 6.074271e+11 4.4654294e+11
6.549456e+11 6.53195e+11 4.8143e+11 4.4991824e+11 6.484362e+11 4.703537e+11 6.548479e+11 6.5291846e+11

exp_avg_sq f4 [24]
00000000: de71 b869 f166 b969 5190 b169 3cff c769
00000010: cdb8 e669 83fb eb69 e83e ef69 2eea b969
00000020: 3d76 bb69 ec7d e669 d290 b569 8406 e569
00000030: 4c4f e369 bd44 e769 94e8 ef69 258f a969
00000040: a774 eb69 b53e e969 893a b669 7ec7 aa69
00000050: 311d e769 c80a b369 11df e969 4dc1 ea69
2.787251e+25 2.8017175e+25 2.6832673e+25 3.0222694e+25 3.4865704e+25 3.5660662e+25 3.6153792e+25 2.8094645e+25
2.8328437e+25 3.4830948e+25 2.7437433e+25 3.4609348e+25 3.4350079e+25 3.494831e+25 3.6253949e+25 2.5623056e+25
3.5581055e+25 3.524698e+25 2.7537615e+25 2.5807433e+25 3.4924965e+25 2.705608e+25 3.534164e+25 3.5475185e+25

exp_avg f4 [36, 24]
00000000: 0400 0000 0400 0000 0400 0000 0400 0000
00000010: 0400 0000 0400 0000 0000 0000 0400 0000
00000020: 0400 0000 0400 0000 0400 0000 0400 0000
00000030: 0400 0000 0400 0000 0400 0000 0400 0000
00000040: 0400 0000 0400 0000 0400 0000 0000 0000
00000050: 0400 0000 0400 0000 0400 0000 0400 0000
00000060: 45a0 7151 5f17 6c51 9de5 6e51 0288 6851
00000070: 227f 3a51 855f 3f51 42e7 3d51 847a 6851
00000080: cf02 6d51 33fd 4051 a3db 6b51 6d71 4251
00000090: aea8 4151 1811 3e51 468d 6051 a7d4 6e51
000000a0: 0483 3e51 652c 4351 a4ee 6551 84f2 6b51
000000b0: 13b7 4151 8fe1 6e51 d12a 4351 0624 3c51
000000c0: d722 7551 5a85 6f51 075e 7251 c2e8 6b51
000000d0: b834 3d51 3927 4251 7da9 4051 10db 6b51
000000e0: 3874 7051 e8ca 4351 be48 6f51 8944 4551
000000f0: e678 4451 f0d3 4051 57d0 6351 d64c 7251
00000100: 8547 4151 3a02 4651 b945 6951 f75f 6f51
00000110: 7c87 4451 ec59 7251 a300 4651 b5df 3e51
00000120: 58bf 7651 6918 7151 def5 7351 ba75 6d51
00000130: 1a73 3e51 f26d 4351 b8ed 4151 f167 6d51
00000140: d408 7251 6514 4551 68db 7051 8490 4651
00000150: 84c3 4551 6f18 4251 b44f 6551 91e4 7351
00000160: c68c 4251 704f 4751 41ce 6a51 c6f2 7051
00000170: 37d2 4551 baf1 7351 d74d 4751 e820 4051
00000180: 8dd5 7751 4128 7251 f608 7551 7b81 6e51
00000190: dd49 3f51 4f4a 4451 64c8 4251 9f73 6e51
000001a0: bc19 7351 a1f2 4551 fdea 7151 6870 4751
000001b0: 84a2 4651 4cf3 4251 4152 6651 8ef7 7451
000001c0: 2768 4351 3130 4851 04d7 6b51 7202 7251
000001d0: 49b1 4651 c904 7551 932e 4851 8ef9 4051
000001e0: f0ed 7651 ef45 7151 f123 7451 94a2 6d51
000001f0: 1097 3e51 dc92 4351 5612 4251 c994 6d51
00000200: 8b36 7251 a039 4551 e108 7151 02b6 4651
00000210: dee8 4551 173d 4251 ff7a 6551 9e12 7451
00000220: 84b1 4251 1375 4751 9bfa 6a51 4520 7151
00000230: 92f7 4551 cd1f 7451 7a73 4751 3245 4051
00000240: 44bd 7451 1d22 6f51 99f9 7151 0487 6b51
00000250: 52e6 3c51 c7d6 4151 ab59 4051 5979 6b51
00000260: 9a10 7051 cb79 4351 9be5 6e51 d0f2 4451
00000270: 7b27 4451 0e84 4051 f371 6351 73e8 7151
00000280: 70f7 4051 31b0 4551 10e5 6851 c9fc 6e51
00000290: 0f36 4451 81f5 7151 9cae 4551 9e90 3e51
000002a0: 0400 0000 0400 0000 0000 0000 0400 0000
000002b0: 0400 0000 0400 0000 0400 0000 0400 0000
000002c0: 0400 0000 0400 0000 0400 0000 0400 0000
000002d0: 0400 0000 0400 0000 0400 0000 0000 0000
000002e0: 0400 0000 0400 0000 0400 0000 0000 0000
000002f0: 0400 0000 0000 0000 0400 0000 0400 0000
00000300: 6a5b 7751 e4b0 7151 2e90 7451 ef0b 6e51
00000310: 95eb 3e51 8de9 4351 6268 4251 1dfe 6d51
00000320: eea1 7251 0f91 4551 c273 7151 1e0e 4751
00000330: 9d40 4651 3393 4251 bfe0 6551 da7e 7451
00000340: d807 4351 86cd 4751 c862 6b51 2e8b 7151
00000350: 584f 4651 078c 7451 e8cb 4751 729a 4051
00000360: 4421 7951 626c 7351 e950 7651 b5c0 6f51
00000370: e649 4051 0a51 4551 1ccd 4351 c8b2 6f51
00000380: 205f 7451 93fb 4651 c62e 7351 5a7b 4851
00000390: 65ac 4751 3ef8 4351 8886 6751 703f 7651
000003a0: b26d 4451 243c 4951 ae12 6d51 5d46 7351
000003b0: 3cbb 4751 be4c 7651 863a 4951 ddfb 4151
000003c0: 4bc3 7651 491c 7151 c9f9 7351 8d79 6d51
000003d0: 2c76 3e51 1571 4351 d3f0 4151 c46b 6d51
000003e0: b90c 7251 9117 4551 43df 7051 b993 4651
000003f0: b2c6 4551 8c1b 4251 6153 6551 7de8 7351
6e-45 6e-45 6e-45 6e-45 6e-45 6e-45 0.0 6e-45
6e-45 6e-45 6e-45 6e-45 6e-45 6e-45 6e-45 6e-45
6e-45 6e-45 6e-45 0.0 6e-45 6e-45 6e-45 6e-45
6.4861e+10 6.3375274e+10 6.4128406e+10 6.241964e+10 5.0062303e+10 5.137133e+10 5.0976793e+10 6.2405493e+10
6.362215e+10 5.1805106e+10 6.3312638e+10 5.2195414e+10 5.1984916e+10 5.102066e+10 6.027768e+10 6.411062e+10
5.1140116e+10 5.2391465e+10 6.1721952e+10 6.333663e+10 5.200001e+10 6.4124154e+10 5.238981e+10 5.050364e+10
6.580322e+10 6.4295903e+10 6.5059975e+10 6.3326396e+10 5.078958e+10 5.2117606e+10 5.171733e+10 6.3312036e+10
6.4546374e+10 5.2557677e+10 6.423235e+10 5.295365e+10 5.274012e+10 5.176184e+10 6.115331e+10 6.504195e+10
5.1883037e+10 5.3152555e+10 6.261857e+10 6.42567e+10 5.2755415e+10 6.505567e+10 5.3150888e+10 5.123731e+10
6.623576e+10 6.471854e+10 6.5487626e+10 6.374265e+10 5.112343e+10 5.24602e+10 5.205731e+10 6.3728194e+10
6.4970637e+10 5.290317e+10 6.4654574e+10 5.3301756e+10 5.3086798e+10 5.21021e+10 6.1555294e+10 6.5469485e+10
5.222409e+10 5.350195e+10 6.303017e+10 6.4679076e+10 5.310221e+10 6.5483284e+10 5.3500277e+10 5.1574112e+10
6.652748e+10 6.500359e+10 6.5776083e+10 6.402341e+10 5.1348623e+10 5.2691268e+10 5.2286603e+10 6.4008876e+10
6.52568e+10 5.31362e+10 6.493935e+10 5.3536522e+10 5.332063e+10 5.2331594e+10 6.1826404e+10 6.575783e+10
5.2454126e+10 5.3737624e+10 6.3307792e+10 6.4963944e+10 5.3336117e+10 6.5771704e+10 5.3735928e+10 5.1801285e+10
6.6284618e+10 6.4766276e+10 6.553594e+10 6.378968e+10 5.1161137e+10 5.2498907e+10 5.2095705e+10 6.3775216e+10
6.5018573e+10 5.294221e+10 6.4702255e+10 5.334107e+10 5.3125964e+10 5.2140536e+10 6.160069e+10 6.5517773e+10
5.2262617e+10 5.3541417e+10 6.3076676e+10 6.472678e+10 5.314138e+10 6.5531597e+10 5.353974e+10 5.1612164e+10
6.569671e+10 6.4191844e+10 6.4954667e+10 6.3223906e+10 5.0707374e+10 5.2033253e+10 5.163363e+10 6.3209574e+10
6.4441917e+10 5.2472623e+10 6.4128397e+10 5.2867957e+10 5.2654748e+10 5.1678077e+10 6.1054333e+10 6.4936686e+10
5.1799065e+10 5.3066535e+10 6.2517215e+10 6.4152703e+10 5.2670034e+10 6.4950374e+10 5.3064876e+10 5.115438e+10
6e-45 6e-45 0.0 6e-45 6e-45 6e-45 6e-45 6e-45
6e-45 6e-45 6e-45 6e-45 6e-45 6e-45 6e-45 0.0
6e-45 6e-45 6e-45 0.0 6e-45 0.0 6e-45 6e-45
6.6399412e+10 6.487843e+10 6.5649435e+10 6.390015e+10 5.1249762e+10 5.258981e+10 5.218593e+10 6.388566e+10
6.5131176e+10 5.303389e+10 6.4814326e+10 5.343346e+10 5.3217972e+10 5.223083e+10 6.1707383e+10 6.5631265e+10
5.235314e+10 5.3634163e+10 6.318591e+10 6.4838885e+10 5.323342e+10 6.564508e+10 5.3632467e+10 5.1701555e+10
6.687531e+10 6.5343463e+10 6.6119963e+10 6.435814e+10 5.1617096e+10 5.296676e+10 5.2559987e+10 6.434354e+10
6.5597997e+10 5.3414015e+10 6.527886e+10 5.3816435e+10 5.3599425e+10 5.2605215e+10 6.2149657e+10 6.610164e+10
5.2728373e+10 5.401859e+10 6.363879e+10 6.5303597e+10 5.3614985e+10 6.6115592e+10 5.4016893e+10 5.207214e+10
6.62399e+10 6.4722604e+10 6.5491735e+10 6.374666e+10 5.112665e+10 5.246349e+10 5.2060566e+10 6.3732204e+10
6.497472e+10 5.2906496e+10 6.4658616e+10 5.330512e+10 5.309013e+10 5.2105363e+10 6.155915e+10 6.5473597e+10

exp_avg_sq f4 [36, 24]
00000000: 097a 983c cb3c 073c 683b d83b cd1b f23c
00000010: 024f aa3c 41ba 113e 0000 0000 4ff8 d83d
00000020: 4576 313a 2111 843e 62d7 be3b a983 6d3d
00000030: 9295 b83d 12ee 0e3e c552 d33c 5a65 b03c
00000040: 5efa f93c 6f7d 9d3e 14f3 5c3a 0000 0000
00000050: c389 db3c 5cb4 1a39 5280 323e aa1e 813b
00000060: efce 9d66 f240 9966 5ac4 9b66 545c 9466
00000070: e9df 8766 069a 8966 d29e 8866 62ee 9566
00000080: f8fe 9966 a335 8d66 bfa8 9966 4923 8e66
00000090: a55f 8f66 c302 8a66 1274 8e66 ff68 9c66
000000a0: f385 8a66 217b 8e66 fff6 9466 4905 9a66
000000b0: cf54 8e66 6bdd 9c66 6910 8e66 b8ed 8866
000000c0: 5ae4 a066 a83e 9c66 e3ce 9e66 2142 9766
000000d0: 2890 8a66 5654 8c66 d253 8b66 ebda 9866
000000e0: df00 9d66 2e02 9066 4da8 9c66 c1f4 9066
000000f0: ed36 9266 a5be 8c66 e83b 9166 4876 9f66
00000100: a544 8d66 a74e 9166 28de 9766 7906 9d66
00000110: ec26 9166 5bed 9f66 ebe1 9066 a3a3 8b66
00000120: c41b a266 bb6c 9d66 ca01 a066 b266 9866
00000130: 5ba0 8b66 ce68 8d66 4f66 8c66 1602 9a66
00000140: 9d30 9e66 bd1d 9166 e7d6 9d66 7412 9266
00000150: 9156 9366 84d3 8d66 a254 9266 3eaa a066
00000160: ab5a 8e66 fc6c 9266 0803 9966 9535 9e66
00000170: ca44 9266 5322 a166 5bff 9166 2db6 8c66
00000180: 36d7 a266 8422 9e66 dbba a066 f216 9966
00000190: 9145 8c66 9010 8e66 8a0c 8d66 a3b3 9a66
000001a0: 69e7 9e66 c4c9 9166 0a8d 9e66 7ebf 9266
000001b0: 2505 9466 6f7b 8e66 b2fd 9266 ee63 a166
000001c0: 5703 8f66 ac1a 9366 5eb3 9966 11ec 9e66
000001d0: 3af2 9266 75dc a166 baac 9266 d05c 8d66
000001e0: 0c3d a266 168d 9d66 9322 a066 f685 9866
000001f0: c8bc 8b66 b085 8d66 0783 8c66 9721 9a66
00000200: ee50 9e66 4c3b 9166 1cf7 9d66 3b30 9266
00000210: 9e74 9366 96f0 8d66 c072 9266 74cb a066
00000220: bd77 8e66 e78a 9266 5e22 9966 0b56 9e66
00000230: bc62 9266 8143 a166 3d1d 9266 e3d2 8c66
00000240: f06f a066 d3cd 9b66 e65b 9e66 afd4 9666
00000250: 7a2b 8a66 93ee 8b66 a8ee 8a66 696c 9866
00000260: 528f 9c66 6b99 8f66 2337 9c66 6e8b 9066
00000270: aecc 9166 6658 8c66 dcd2 9066 1203 9f66
00000280: 1cde 8c66 eae4 9066 8570 9766 e994 9c66
00000290: 89bd 9066 c279 9f66 7178 9066 363e 8b66
000002a0: 68d5 253b 8401 853b 0000 0000 056a 1d3d
000002b0: 91e3 3041 099b be3e 6e03 903f c243 1e3d
000002c0: ce29 b539 2f8f 1e41 c9f0 4238 5ae9 b540
000002d0: e96d 0242 dfd6 4e3f 89df 9541 0000 0000
000002e0: c92b f440 9164 f341 2202 8537 0000 0000
000002f0: 4690 d241 0000 0000 ddbc d841 1297 c940
00000300: 8ca5 a266 7bf2 9d66 dd89 a066 3be8 9866
00000310: ec17 8c66 1ae2 8d66 9ade 8c66 f284 9a66
00000320: eab6 9e66 199a 9166 055d 9e66 b08f 9266
00000330: ecd4 9366 2b4d 8e66 15d1 9266 b632 a166
00000340: cdd4 8e66 a5ea 9266 e184 9966 01bc 9e66
00000350: 29c2 9266 3aab a166 d07c 9266 be2e 8d66
00000360: 0eec a366 162f 9f66 b3cb a166 171b 9a66
00000370: 9c37 8d66 5f06 8f66 8200 8e66 26ba 9b66
00000380: 0df5 9f66 b8c5 9266 2b9a 9f66 8fbd 9366
00000390: f904 9566 c971 8f66 7bf7 9366 9375 a266
000003a0: a4fa 8f66 3519 9466 deb7 9a66 d9f9 9f66
000003b0: 64f0 9366 4fef a266 91aa 9366 a850 8e66
000003c0: 1c11 a266 6e62 9d66 61f7 9f66 bb5c 9866
000003d0: 3b98 8b66 9060 8d66 1b5e 8c66 fdf7 9966
000003e0: 4526 9e66 3a15 9166 93cc 9d66 ff09 9266
000003f0: 104e 9366 5acb 8d66 474b 9266 cb9f a066
0.018612878 0.00825424 0.0065988787 0.029554272 0.020789627 0.14231206 0.0 0.10594236
0.00067696377 0.25794318 0.0058240155 0.05798689 0.09012903 0.13958004 0.025796304 0.021532703
0.030514892 0.3075976 0.00084285554 0.0 0.026799088 0.00014753774 0.17431763 0.003940423
3.726144e+23 3.6186005e+23 3.6779443e+23 3.503067e+23 3.2082494e+23 3.2490272e+23 3.2258578e+23 3.54015e+23
3.636127e+23 3.3342155e+23 3.6281744e+23 3.3561347e+23 3.3853137e+23 3.2586876e+23 3.3635858e+23 3.69313e+23
3.2707875e+23 3.364237e+23 3.5173326e+23 3.6367097e+23 3.3607024e+23 3.703868e+23 3.3543938e+23 3.233135e+23
3.798955e+23 3.689225e+23 3.7497515e+23 3.571486e+23 3.271729e+23 3.313435e+23 3.2897758e+23 3.60919e+23
3.707138e+23 3.400305e+23 3.698969e+23 3.4226784e+23 3.4523935e+23 3.3232404e+23 3.429241e+23 3.765191e+23
3.3355997e+23 3.43097e+23 3.585877e+23 3.7076547e+23 3.4273056e+23 3.7761735e+23 3.420941e+23 3.2971375e+23
3.8276778e+23 3.7170863e+23 3.7780582e+23 3.5984705e+23 3.296835e+23 3.338935e+23 3.315093e+23 3.6364146e+23
3.7351533e+23 3.4264586e+23 3.726879e+23 3.4490295e+23 3.4789237e+23 3.3487772e+23 3.4551335e+23 3.7935953e+23
3.361243e+23 3.4573796e+23 3.61289e+23 3.7356116e+23 3.4536722e+23 3.804671e+23 3.447268e+23 3.3224593e+23
3.8449666e+23 3.733853e+23 3.7951276e+23 3.6147267e+23 3.312073e+23 3.354408e+23 3.330425e+23 3.6527908e+23
3.7520133e+23 3.4423253e+23 3.743678e+23 3.4649896e+23 3.4950257e+23 3.364265e+23 3.4707268e+23 3.810722e+23
3.3768e+23 3.4733994e+23 3.629154e+23 3.7524428e+23 3.469669e+23 3.8218386e+23 3.4632587e+23 3.3378288e+23
3.8307474e+23 3.7200706e+23 3.781082e+23 3.6013542e+23 3.2994567e+23 3.341599e+23 3.3177417e+23 3.6393203e+23
3.738134e+23 3.429185e+23 3.7298495e+23 3.451776e+23 3.4816954e+23 3.3514585e+23 3.4579114e+23 3.7966584e+23
3.363924e+23 3.460139e+23 3.61578e+23 3.7386056e+23 3.456434e+23 3.807731e+23 3.4500243e+23 3.3251074e+23
3.7882176e+23 3.678818e+23 3.7391457e+23 3.5613915e+23 3.262443e+23 3.3040493e+23 3.280445e+23 3.5989976e+23
3.696665e+23 3.3906423e+23 3.6885313e+23 3.412964e+23 3.442594e+23 3.31381e+23 3.4195522e+23 3.7545645e+23
3.3261425e+23 3.4212175e+23 3.5757648e+23 3.6971804e+23 3.4175854e+23 3.7655115e+23 3.4112126e+23 3.2877827e+23
0.0025304202 0.0040590186 0.0 0.038431186 11.055558 0.37227657 1.1251047 0.038638838
0.00034554157 9.909957 4.6477453e-05 5.6847353 32.607334 0.8079662 18.734148 0.0
7.630345 30.424105 1.5855829e-05 0.0 26.320446 0.0 27.092218 6.299691
3.840386e+23 3.7294226e+23 3.790609e+23 3.610418e+23 3.307863e+23 3.3501226e+23 3.326188e+23 3.6484842e+23
3.7475404e+23 3.4379287e+23 3.739249e+23 3.4605804e+23 3.490578e+23 3.3599977e+23 3.466612e+23 3.8061823e+23
3.3725076e+23 3.4689697e+23 3.6248663e+23 3.74801e+23 3.4652356e+23 3.817298e+23 3.4588395e+23 3.3335796e+23
3.870501e+23 3.7586243e+23 3.820293e+23 3.6387208e+23 3.3343974e+23 3.3770797e+23 3.352927e+23 3.6770032e+23
3.7768833e+23 3.465564e+23 3.768501e+23 3.488423e+23 3.5186217e+23 3.386987e+23 3.4937654e+23 3.835961e+23
3.3996096e+23 3.496876e+23 3.653181e+23 3.7773257e+23 3.4931115e+23 3.847189e+23 3.4866713e+23 3.3603194e+23
3.826695e+23 3.7161362e+23 3.777098e+23 3.5975514e+23 3.2960855e+23 3.3381747e+23 3.3143362e+23 3.6354832e+23
3.7341993e+23 3.4256735e+23 3.7259263e+23 3.4482495e+23 3.4781394e+23 3.3480242e+23 3.4542706e+23 3.7926315e+23

exp_avg f4 [36]
00000000: 0400 0000 c382 144f 0bab 164f 93a8 174f
00000010: 9453 184f 37c5 174f 9e6c 164f 0400 0000
00000020: 8108 184f 761f 194f 03ab 174f 3e9e 154f
00000030: e55a 154f ee89 174f 9b39 174f 0400 0000
00000040: 1ca1 c24e 0400 0000 0400 0000 1790 174f
00000050: 3067 154f 0843 174f 208a 154f ada1 174f
00000060: e303 164f 3f19 194f 0400 0000 0400 0000
00000070: 0400 0000 8a5c 184f 2720 174f 6a43 164f
00000080: c022 c44e 0400 0000 1845 134f 14f1 154f
6e-45 2.4915976e+09 2.5277919e+09 2.5444073e+09 2.5556142e+09 2.5462843e+09 2.5237007e+09 6e-45
2.5506941e+09 2.568976e+09 2.544567e+09 2.5101757e+09 2.505762e+09 2.542399e+09 2.5371348e+09 6e-45
1.6326692e+09 6e-45 6e-45 2.5428027e+09 2.5065677e+09 2.5377526e+09 2.5088573e+09 2.5439552e+09
2.516837e+09 2.5685686e+09 6e-45 6e-45 6e-45 2.5562015e+09 2.5354668e+09 2.5210004e+09
1.6453059e+09 6e-45 2.470779e+09 2.5156045e+09

exp_avg_sq f4 [36]
00000000: 00d3 a63e 57ff 3e61 a40c 4361 cfaf 4461
00000010: 41b2 4561 c3db 4461 2f79 4261 d493 8341
00000020: 1464 4561 8b22 4761 b2a5 4461 73a0 4061
00000030: 73b3 4061 655a 4461 fe01 4461 d34b 0940
00000040: db31 ca60 8336 7940 2ce3 0142 758c 4461
00000050: e5cd 4061 05d7 4361 b112 4161 4299 4461
00000060: f3c3 4161 2839 4761 d579 2741 dd62 9f3e
00000070: f733 2643 4bf0 4561 46c0 4361 0046 4261
00000080: a409 cc60 c0ed ce44 b865 3c61 0aab 4161
0.32582855 2.2020503e+20 2.2487662e+20 2.2676439e+20 2.2792832e+20 2.2696233e+20 2.2421253e+20 16.447182
2.2757625e+20 2.2958695e+20 2.2671884e+20 2.2208353e+20 2.221691e+20 2.2637972e+20 2.2598159e+20 2.145253
1.1655734e+20 3.8939521 32.471848 2.2660518e+20 2.222882e+20 2.2578806e+20 2.2259803e+20 2.2666283e+20
2.2339633e+20 2.2968879e+20 10.467244 0.31130114 166.20299 2.2820772e+20 2.2568562e+20 2.2398202e+20
1.176197e+20 1655.4297 2.1720734e+20 2.2328414e+20

exp_avg f4 [1, 36]
00000000: 0400 0000 9683 8153 b5e9 8253 f23c 8253
00000010: 7a54 8153 50fe 8153 222c 8253 0400 0080
00000020: 0557 8253 3c75 8153 4907 8253 0801 8053
00000030: f0c5 8253 45a8 8153 a2b9 8253 0400 0080
00000040: f238 0f53 0400 0080 0400 0080 aa52 8253
00000050: 9ccc 8253 a289 8153 fedf 8253 a911 8253
00000060: 9540 8253 f719 8253 0400 0080 0400 0080
00000070: 0400 0080 db37 8253 9841 8253 988c 8253
00000080: 2f04 0f53 0400 0000 9656 7e53 9c59 8253
6e-45 1.1125169e+12 1.1245334e+12 1.1187365e+12 1.1109361e+12 1.1166349e+12 1.1181723e+12 -6e-45
1.1196114e+12 1.1120353e+12 1.116936e+12 1.0995462e+12 1.1233332e+12 1.1137478e+12 1.1229203e+12 -6e-45
6.151357e+11 -6e-45 -6e-45 1.1194652e+12 1.123557e+12 1.1127198e+12 1.1242074e+12 1.1172841e+12
1.1188585e+12 1.1175627e+12 -6e-45 -6e-45 -6e-45 1.1185657e+12 1.1188925e+12 1.121409e+12
6.142505e+11 6e-45 1.09237436e+12 1.1196983e+12

exp_avg_sq f4 [1, 36]
00000000: c8ab 613c 0c10 d86a a65b db6a ce3b da6a
00000010: baa8 d86a 48ab d96a 22e4 d96a 67a1 183d
00000020: 826a da6a 0526 d96a 90eb d96a 188f d56a
00000030: 2fcd da6a 1120 d96a 0917 db6a 5c37 6c3d
00000040: 8409 5a6a 8749 c73e ddbc ae3f 6349 da6a
00000050: b7c8 da6a 16d2 d86a 01e1 da6a 91ef d96a
00000060: 8cf1 d96a 9657 da6a 03e6 ac3d 80fb 863f
00000070: ae68 3640 a856 da6a bb19 da6a 3f81 da6a
00000080: 2229 5a6a 1007 a842 0b33 d36a d209 da6a
0.013773866 1.3060188e+26 1.3259378e+26 1.3191412e+26 1.3096238e+26 1.3157288e+26 1.31707115e+26 0.0372633
1.320244e+26 1.3125822e+26 1.3172466e+26 1.2908847e+26 1.3225739e+26 1.3124417e+26 1.3243177e+26 0.057669982
6.589769e+25 0.38923284 1.3651386 1.3194619e+26 1.3224684e+26 1.3106004e+26 1.3230419e+26 1.3173411e+26
1.3173879e+26 1.3197972e+26 0.08442309 1.0545502 2.8501391 1.3197753e+26 1.3183367e+26 1.3207809e+26
6.593502e+25 84.013794 1.276622e+26 1.317961e+26

exp_avg f4 [1, 36]
00000000: 0400 0080 0400 0080 0400 0080 0400 0080
00000010: 0400 0080 0400 0080 0400 0080 0400 0080
00000020: 0400 0080 0400 0080 0400 0080 0400 0080
00000030: 0400 0080 0400 0080 0400 0080 0000 0000
00000040: 0400 0080 0400 0080 0400 0080 0400 0080
00000050: 0400 0080 0400 0080 0400 0080 0400 0080
00000060: 0400 0080 0400 0080 0000 0000 0400 0080
00000070: 0400 0080 0400 0080 0400 0080 0400 0080
00000080: 0400 0080 0400 0080 0400 0080 0400 0080
-6e-45 -6e-45 -6e-45 -6e-45 -6e-45 -6e-45 -6e-45 -6e-45
-6e-45 -6e-45 -6e-45 -6e-45 -6e-45 -6e-45 -6e-45 0.0
-6e-45 -6e-45 -6e-45 -6e-45 -6e-45 -6e-45 -6e-45 -6e-45
-6e-45 -6e-45 0.0 -6e-45 -6e-45 -6e-45 -6e-45 -6e-45
-6e-45 -6e-45 -6e-45 -6e-45

exp_avg_sq f4 [1, 36]
00000000: 4a7d 063e f5a1 4344 30a9 a445 e016 4145
00000010: 0333 6344 9386 8445 37f5 3945 2ff4 4c41
00000020: b92e 4046 de54 b844 8206 5d45 9752 0a45
00000030: b341 7c44 fa11 a845 2e14 ab45 0000 0000
00000040: 0fc2 ea44 ed0c 9e41 eb37 bc42 8230 ee44
00000050: d813 ad45 6e5d de43 9fb0 2c45 6d38 2544
00000060: 2e04 7344 111d 8645 0000 0000 1f26 7b42
00000070: 9afd 7d43 1679 b545 d921 8746 33bc 7b45
00000080: a802 ec3c a494 9b44 84a6 1a42 e041 ce45
0.13133731 782.5306 5269.1484 3089.4297 908.79706 4240.822 2975.326 12.809615
12299.681 1474.6521 3536.4067 2213.1619 1009.02655 5378.247 5474.5225 0.0
1878.0643 19.756311 94.109215 1905.5159 5538.4805 444.72992 2763.0388 660.88165
972.0653 4291.6333 0.0 62.787228 253.99063 5807.1357 17296.924 4027.7625
0.02880986 1244.645 38.662613 6600.2344
