Basic-Policy-Gradient-Labs_/data/critics/Pendulum-v0#default_team#baseline0.pt (torch, 19537 bytes, 15 tensors)

weight f4 [24, 4]
0.32060805 1.0399203 0.13708007 1.5435421 0.30503872 0.39884487 0.020020371 0.54562914
-0.30904567 -0.42076412 0.0018053857 0.82529455 -0.109483734 1.6557773 0.2440492 0.61790174
0.47360906 0.40327522 0.08406855 1.567681 -0.54901046 -1.3271337 -0.3795714 0.029325373
-1.1112629 -0.07768211 -0.3811276 0.9444798 0.5553118 0.62593615 0.24769528 1.2210188
0.09142982 1.587007 0.18123318 0.39119744 0.42110837 0.13480598 0.032992873 0.88282055
0.68905663 0.6348384 0.07130543 1.3364128 -0.6066106 -1.0979476 -0.12703234 1.7525952
-1.4246448 -1.0461189 -0.5034262 0.7934608 -1.1754881 -0.09292058 -0.40791467 0.8786582
-1.0824081 -0.9777611 -0.14396262 1.1717939 0.23084225 0.7129382 0.09330919 0.9015836
0.59176326 0.48323238 0.17849515 1.3378819 -0.7634133 -0.5447305 -0.14513926 1.7102673
0.13964134 -0.15106988 -0.018053353 -0.20281678 0.118756056 0.8898338 0.1702179 0.6987326
0.5793593 0.16704184 0.1659816 1.5033984 0.8450571 1.6412756 0.10576327 0.2902393
0.037353057 -0.9658446 0.033508983 1.4451011 -0.33132783 -0.7877564 -0.08676339 1.7605327
00000000: bd26 a43e 1c1c 853f b85e 0c3e ca92 c53f
00000010: 092e 9c3e 6535 cc3e c301 a43c 5aae 0b3f
00000020: 3c3b 9ebe 656e d7be b1a2 ec3a 8146 533f
00000030: 0239 e0bd 83f0 d33f 09e8 793e cf2e 1e3f
00000040: e37c f23e 177a ce3e 222c ac3d c5a9 c83f
00000050: f38b 0cbf 84df a9bf 2f57 c2be c43b f03c
00000060: dd3d 8ebf cc17 9fbd 2823 c3be 6ec9 713f
00000070: ea28 0e3f 5a3d 203f d5a3 7d3e 584a 9c3f
00000080: 8f3f bb3d 0c23 cb3f 3195 393e 084b c83e
00000090: 849b d73e 940a 0a3e 8923 073d 8700 623f
000000a0: 0466 303f c584 223f 9508 923d 930f ab3f
000000b0: d54a 1bbf 8c89 8cbf c414 02be 0a55 e03f
000000c0: c35a b6bf 39e7 85bf 8ae0 00bf 3f20 4b3f
000000d0: 6576 96bf 254d bebd 31da d0be beef 603f
000000e0: 598c 8abf 8d4e 7abf f06a 13be 58fd 953f
000000f0: e961 6c3e 1e83 363f e318 bf3d 2fce 663f
00000100: cc7d 173f 3c6a f73e 6fc7 363e b73f ab3f
00000110: 0e6f 43bf 7573 0bbf 639f 14be 0aea da3f
00000120: 24fe 0e3e 10b2 1abe a0e4 93bc 34af 4fbe
00000130: 6036 f33d 26cc 633f 9a4d 2e3e 24e0 323f
00000140: e450 143f 040d 2b3e 15f7 293e 5c6f c03f
00000150: a955 583f 5215 d23f 6a9a d83d 3f9a 943e
00000160: 85ff 183d 9741 77bf b740 093d 13f9 b83f
00000170: cda3 a9be 67aa 49bf 01b1 b1bd 2359 e13f

bias f4 [24]
1.3830804 0.73680764 0.93099546 0.5020646 1.6880887 0.4828234 0.6549747 1.1939231
0.40575242 0.6518547 1.2657977 1.69988 0.56356025 0.88059783 1.0911736 1.5421889
0.92604613 1.1050835 -0.4451387 1.0495901 1.4547819 0.5819949 0.803659 1.1820531
00000000: c708 b13f 6d9f 3c3f b855 6e3f 4e87 003f
00000010: 4a13 d83f a134 f73e 6cac 273f 79d2 983f
00000020: c8be cf3e f3df 263f a905 a23f ab95 d93f
00000030: 7c45 103f dc6e 613f 94ab 8b3f 7266 c53f
00000040: 5c11 6d3f 6073 8d3f 38e9 e3be f858 863f
00000050: 4b36 ba3f 9efd 143f 99bc 4d3f 844d 973f

weight f4 [36, 24]
-0.26081192 -0.04389235 0.026700484 -0.13835113 -0.07764788 0.066135265 0.10860954 0.019109596
-0.039265774 -0.08171397 -0.054003596 -0.16454893 0.13114293 -0.06260341 -0.07220172 -0.15699162
-0.2633903 0.040318973 0.018713359 0.07475558 0.038950846 -0.13221598 -0.26321396 -0.14438385
0.087753 -0.02351454 -0.093506694 -0.12855503 0.04262956 -0.20422807 -0.11739118 -0.0008744079
-0.28105775 -0.14227702 -0.061852604 -0.073393784 -0.076192714 -0.31810713 -0.25183135 -0.28770933
-0.2923948 -0.26745632 -0.08843936 -0.112166986 -0.025467293 -0.1973876 0.041263744 -0.06987322
0.5263728 0.21736234 0.2657015 0.2667618 0.86430395 0.38428646 0.7339944 0.19637762
0.4453564 0.27435693 0.5351001 0.72665465 0.7625775 0.5979255 0.6391836 0.725264
0.37836516 0.82415587 -0.13784157 0.19958347 0.5607163 0.4725302 0.44729796 0.5893158
0.15155967 0.15227254 0.10424394 0.061223537 -0.10461481 0.122235835 -0.00067873416 -0.18777221
-0.19765314 0.19288683 -0.13992228 0.024987945 0.032480497 0.19550078 -0.20000325 0.030687409
-0.13173896 -0.16418746 -0.037000444 0.046720408 -0.12261378 0.061805155 -0.11760663 -0.122013524
0.7320609 0.25071755 0.40106264 0.5260909 0.7011487 0.5882933 0.8193 0.34512597
0.29914784 0.2892535 0.75892705 0.5001396 0.5210298 0.72171843 0.49403146 0.615644
0.4515494 0.615515 0.11514143 0.3542449 0.69463944 0.48223498 0.59403396 0.50982463
0.53027654 0.15387574 0.39519504 0.5428777 0.9789754 0.30641666 0.6925148 0.5851052
0.3481274 0.09840232 0.49257028 0.7150169 0.82202214 0.5115228 0.4615589 0.6062922
0.4783561 0.87644196 -0.09102635 0.24122956 0.7699306 0.6892264 0.70839846 0.87483484
0.84748286 0.08255444 0.27408335 0.41317174 0.76130664 0.43671238 0.6460463 0.41178077
0.4377916 -0.009544528 0.7788236 0.8364092 0.8558693 0.49460608 0.43115297 0.5963644
0.44888577 0.8082891 -0.12772457 0.09536298 0.66464144 0.6011408 0.56660306 0.79610085
0.81308067 0.16262019 0.11355126 0.41705573 0.98452705 0.3850418 0.7867403 0.14950576
0.17199835 0.2620508 0.7029017 0.5524458 0.68243843 0.51085913 0.662027 0.4942836
0.16810776 0.6758061 -0.0047029103 0.049821123 0.71834964 0.29379156 0.72513735 0.78124744
0.072240286 -0.0066962857 -0.17325974 0.05271353 -0.15485182 -0.025934858 -0.1354769 -0.119773164
-0.035297874 0.13653368 -0.1836449 -0.05844178 0.056068413 -0.044958957 -0.10732113 -0.07026759
-0.13085188 0.10224681 -0.1650812 0.18487515 -0.09109151 -0.15498643 -0.14720726 0.16792895
0.84419143 -0.034244567 0.4757101 0.45919186 0.82445997 0.36177894 0.67779726 0.4738604
0.54937094 0.24748886 0.5166488 0.5217635 0.76124775 0.43863347 0.71349734 0.51539737
0.32656038 0.5291281 -0.06859286 0.40348122 0.58859605 0.48481876 0.50450605 0.79271185
0.64295906 0.16953005 0.17240644 0.537678 0.7448596 0.37185332 0.7525929 0.1776771
0.45290646 0.24541022 0.6059444 0.9010679 0.85270673 0.684927 0.69709826 0.63679403
00000000: 2489 85be 77c8 33bd f9ba da3c ebab 0dbe
00000010: da05 9fbd ed71 873d ae6e de3d ba8b 9c3c
00000020: 26d5 20bd a759 a7bd e032 5dbd 847f 28be
00000030: 554a 063e 3736 80bd 7fde 93bd 69c2 20be
00000040: 18db 86be 8225 253d c24c 993c 7419 993d
00000050: ec8a 1f3d a063 07be fbc3 86be 5cd9 13be
00000060: d8b7 b33d 91a1 c0bc 7080 bfbd eea3 03be
00000070: 559c 2e3d 2a21 51be c96a f0bd 8538 65ba
00000080: cde6 8fbe 11b1 11be 2859 7dbd 7b4f 96bd
00000090: ed0a 9cbd f0de a2be 0af0 80be a34e 93be
000000a0: c5b4 95be 09f0 88be b21f b5bd ceb7 e5bd
000000b0: c9a0 d0bc fa1f 4abe 2c04 293d b119 8fbd
000000c0: 5ec0 063f 3c94 5e3e 070a 883e 0195 883e
000000d0: 0643 5d3f 32c1 c43e 0fe7 3b3f 3717 493e
000000e0: c105 e43e 8378 8c3e 52fc 083f 0a06 3a3f
000000f0: 4738 433f a511 193f 89a1 233f e7aa 393f
00000100: 14b9 c13e e1fb 523f 5726 0dbe 9c5f 4c3e
00000110: 1a8b 0f3f 7aef f13e 3d04 e53e 66dd 163f
00000120: 7532 1b3e 55ed 1b3e d97d d53d 88c5 7a3d
00000130: 4a40 d6bd c856 fa3d 14ed 31ba 5c47 40be
00000140: 9665 4abe 2084 453e c947 0fbe 85b3 cc3c
00000150: 450a 053d 5b31 483e a7cd 4cbe 2964 fb3c
00000160: 94e6 06be c220 28be c78d 17bd e65d 3f3d
00000170: ef1c fbbd 6727 7d3d bfdb f0bd 3ae2 f9bd
00000180: 5868 3b3f 0d5e 803e 1558 cd3e e5ad 063f
00000190: 7b7e 333f 649a 163f a5bd 513f 5ab4 b03e
000001a0: e829 993e 0919 943e 0b49 423f 2609 003f
000001b0: 3562 053f 8ac2 383f b1f1 fc3e d89a 1d3f
000001c0: 7c31 e73e 6492 1d3f 45cf eb3d 965f b53e
000001d0: e4d3 313f 81e7 f63e 9c12 183f de83 023f
000001e0: 34c0 073f 9a91 1d3e 0157 ca3e 08fa 0a3f
000001f0: 229e 7a3f a5e2 9c3e a648 313f 74c9 153f
00000200: c13d b23e 2887 c93d 2c32 fc3e 590b 373f
00000210: 0b70 523f 29f3 023f 7351 ec3e f735 1b3f
00000220: 17eb f43e 805e 603f 066c babd e204 773e
00000230: 2c1a 453f 2471 303f 9a59 353f 2df5 5f3f
00000240: a3f4 583f 4d12 a93d a754 8c3e 3f8b d33e
00000250: fee4 423f c498 df3e 4a63 253f eed4 d23e
00000260: 3826 e03e a760 1cbc fc60 473f ea1e 563f
00000270: 401a 5b3f 023d fd3e 15c0 dc3e 56ab 183f
00000280: 5bd4 e53e 09ec 4e3f 3bca 02be ab4d c33d
00000290: f125 2a3f 5de4 193f e60c 113f 44cd 4b3f
000002a0: 0e26 503f e885 263e 908d e83d 5488 d53e
000002b0: f709 7c3f 3324 c53e d067 493f 0a18 193e
000002c0: 5620 303e 862b 863e 5ef1 333f 176d 0d3f
000002d0: 49b4 2e3f aac7 023f 9a7a 293f bd12 fd3e
000002e0: 7124 2c3e a101 2d3f df1a 9abb 3c11 4c3d
000002f0: c3e5 373f d96b 963e 9aa2 393f d5ff 473f
00000300: b7f2 933d 846c dbbb 006b 31be 24ea 573d
00000310: 7a91 1ebe 5775 d4bc 75ba 0abe a24b f5bd
00000320: 8194 10bd 7ccf 0b3e 690d 3cbe a660 6fbd
00000330: fea7 653d e226 38bd 2ecb dbbd 74e8 8fbd
00000340: 09fe 05be c766 d13d 0c0b 29be e94f 3d3e
00000350: 308e babd c3b4 1ebe 80bd 16be 91f5 2b3e
00000360: ee1c 583f 0844 0cbd 4690 f33e 321b eb3e
00000370: cf0f 533f 173b b93e 1f84 2d3f d59d f23e
00000380: 93a3 0c3f b86d 7d3e 1943 043f 4b92 053f
00000390: 22e1 423f 9194 e03e c3a7 363f 15f1 033f
000003a0: ec32 a73e f074 073f 6a7a 8cbd 1795 ce3e
000003b0: 3bae 163f 2a3a f83e 4f27 013f 2aef 4a3f
000003c0: f798 243f 4999 2d3e 508b 303e 44a5 093f
000003d0: 1eaf 3e3f 8f63 be3e eea9 403f fcf0 353e
000003e0: 5be3 e73e d14c 7b3e 2c1f 1b3f 63ac 663f
000003f0: fd4a 5a3f 6057 2f3f 0875 323f ef04 233f

bias f4 [36]
-0.13670993 -0.15551773 1.0025293 -0.17556024 1.1680051 1.0771954 1.244827 1.131492
-0.0829615 1.2266598 1.0048597 0.8436441 1.1917132 -0.14060986 -0.026643325 0.8596015
1.0661498 0.9641072 -0.054321133 -0.17742199 1.1938698 0.98633564 -0.2645821 0.93848294
-0.15099545 1.0052601 0.28777668 -0.1951887 1.1664861 1.2022322 -0.010930971 0.93834543
1.221135 0.112220936 1.0386344 -0.048707303
00000000: b0fd 0bbe 0a40 1fbe e152 803f 10c6 33be
00000010: 3181 953f 8ae1 893f 7e56 9f3f bbd4 903f
00000020: b8e7 a9bd 3003 9d3f 3e9f 803f 0ff9 573f
00000030: 0f8a 983f 08fc 0fbe 1a43 dabc d80e 5c3f
00000040: 9977 883f bbcf 763f d67f 5ebd 1cae 35be
00000050: bad0 983f 7e80 7c3f 4e77 87be 6b40 703f
00000060: 8d9e 1abe 5dac 803f 7757 933e 8cdf 47be
00000070: 6b4f 953f bfe2 993f d117 33bc 6837 703f
00000080: 274e 9c3f 17d4 e53d f9f1 843f 4f81 47bd

weight f4 [1, 36]
0.062846065 0.02567474 -0.6530226 0.027043601 -0.6824031 -0.58745265 -0.58885485 -0.5951793
0.10776695 -0.6790848 -0.5684879 -0.70470643 -0.7295416 -0.03290366 -0.05472055 -0.6003847
-0.63741785 -0.69848555 0.046602454 0.04467213 -0.46939495 -0.7163807 0.068378404 -0.66454375
0.031548586 -0.7098 -0.05170677 0.06549656 -0.6418925 -0.5743403 -0.09799515 -0.5737725
-0.6630271 0.016324664 -0.74411654 -0.0061690323
00000000: 70b5 803d d553 d23c 7d2c 27bf 8b8a dd3c
00000010: f8b1 2ebf 4c63 16bf 31bf 16bf ac5d 18bf
00000020: ebb4 dc3d 80d8 2dbf 6c88 11bf a467 34bf
00000030: 3dc3 3abf fdc5 06bd a822 60bd d0b2 19bf
00000040: d12d 23bf f3cf 32bf 37e2 3e3d 20fa 363d
00000050: 8954 f0be ba64 37bf fa09 8c3d 8a1f 2abf
00000060: 1739 013d 74b5 35bf 7aca 53bd 0f23 863d
00000070: 1153 24bf f707 13bf aeb1 c8bd c1e2 12bf
00000080: 25bc 29bf 4dbb 853c 6c7e 3ebf 9825 cabb

exp_avg f4 [24, 4]
10.5979595 119.285324 -6.858051 -56.684826 2.5574307 17.059092 6.9755006 -7.7412696
4.014314 41.390747 4.184554 -19.244621 4.146643 43.65843 -58.789745 -1.6507481
13.380448 153.34404 -9.922144 -72.9085 14.361902 36.07655 -2.4404154 -33.51102
18.062614 63.736763 -16.280243 -46.35804 5.7340636 59.560314 1.1531584 -27.469225
0.7247425 31.954151 -34.20797 2.7340877 3.2697797 22.15247 9.515934 -10.035252
9.789882 105.84201 -3.2489748 -50.18257 9.012965 110.09588 -8.070143 -52.241184
27.646872 68.17646 -46.7557 -59.061867 15.270752 53.687317 -12.506589 -38.722485
0.23742852 77.05592 -91.68772 -55.318176 9.20976 101.62673 -4.0942135 -48.2022
6.369632 60.996784 4.3380537 -28.57099 8.95983 112.65814 -10.693507 -53.550793
0.0 0.0 0.0 0.0 3.9253476 37.98356 0.6021654 -17.369305
9.839099 105.31012 -1.148624 -49.82593 -5.843317 40.393246 -4.0188794 7.627169
9.730119 108.320755 -1.8833735 -51.21769 9.781503 117.12165 -7.810825 -55.57269
00000000: 3e91 2941 1692 ee42 2775 dbc0 43bd 62c2
00000010: f2ac 2340 0579 8841 4d37 df40 7bb8 f7c0
00000020: 4375 8040 2090 2542 dee7 8540 fcf4 99c1
00000030: 4db1 8440 3ba2 2e42 b328 6bc2 b74b d3bf
00000040: 5116 5641 1358 1943 1ac1 1ec1 27d1 91c2
00000050: 5aca 6541 634e 1042 c42f 1cc0 490b 06c2
00000060: 3c80 9041 72f2 7e42 f03d 82c1 a26e 39c2
00000070: 737d b740 c33d 6e42 b29a 933f f9c0 dbc1
00000080: b988 393f 1aa2 ff41 f6d4 08c2 4bfb 2e40
00000090: 1244 5140 4238 b141 4441 1841 6490 20c1
000000a0: 5ba3 1c41 1caf d342 34ef 4fc0 f4ba 48c2
000000b0: 1b35 1041 1731 dc42 4e1f 01c1 f9f6 50c2
000000c0: cb2c dd41 595a 8842 d605 3bc2 5a3f 6cc2
000000d0: 0055 7441 d0bf 5642 fd1a 48c1 d3e3 1ac2
000000e0: 7620 733e a21c 9a42 1d60 b7c2 d045 5dc2
000000f0: 2d5b 1341 e340 cb42 cc03 83c0 0ecf 40c2
00000100: 06d4 cb40 b5fc 7342 56d1 8a40 6391 e4c1
00000110: 775b 0f41 f850 e142 9b18 2bc1 0334 56c2
00000120: 0000 0000 0000 0000 0000 0000 0000 0000
00000130: e538 7b40 2aef 1742 8327 1a3f 56f4 8ac1
00000140: f36c 1d41 c89e d242 1c06 93bf c14d 47c2
00000150: 74fc bac0 af92 2142 a99a 80c0 c511 f440
00000160: 91ae 1b41 3aa4 d842 6212 f1bf eade 4cc2
00000170: 0981 1c41 493e ea42 47f2 f9c0 6f4a 5ec2

exp_avg_sq f4 [24, 4]
12383.494 23933.404 327362.75 16041.318 1116.3042 1958.1716 27396.71 1416.3923
2464.0032 5753.5845 75139.445 3830.8772 4706.7886 7628.9805 120799.33 5734.852
20495.822 37941.71 518057.34 25521.57 3842.5168 7640.3447 123706.195 6391.7715
6119.105 12045.108 139547.92 10500.725 3744.81 6922.702 98484.0 5180.456
3223.7188 5018.9736 80662.89 3817.66 1328.0812 2436.1768 35149.83 1861.6039
9824.124 20109.592 274687.7 13568.496 8917.199 19743.957 279237.62 13397.906
7511.813 14005.849 159039.1 12354.264 5331.2095 12019.916 154364.16 8690.069
6422.3145 14531.941 216417.08 9968.874 9683.071 19037.963 259453.83 12926.187
4029.8992 7674.7393 110468.89 5613.1597 9810.305 22636.291 302288.25 14798.438
0.0 0.0 0.0 0.0 2081.7942 3688.321 52069.562 2690.0496
9654.66 18987.312 265256.44 13414.045 5208.0234 8898.37 137067.88 6063.845
10128.899 22719.066 307781.4 14933.382 10493.056 23528.041 327106.28 15981.344
00000000: fa7d 4146 cffa ba46 58d8 9f48 46a5 7a46
00000010: bc89 8b44 7ec5 f444 6c09 d646 8e0c b144
00000020: 0d00 1a45 adcc b345 b9c1 9247 096e 6f45
00000030: 4f16 9345 d867 ee45 aaef eb47 d136 b345
00000040: a51f a046 b635 1447 2bf5 fc48 2463 c746
00000050: 4528 7045 c2c2 ee45 199d f147 2cbe c745
00000060: d738 bf45 6f34 3c46 fb46 0848 e612 2446
00000070: f60c 6a45 9e55 d845 005a c047 a6e3 a145
00000080: 807b 4945 cad7 9c45 728b 9d47 8f9a 6e45
00000090: 9902 a644 d442 1845 d44d 0947 53b3 e844
000000a0: 7f80 1946 2f1b 9d46 f61f 8648 fc01 5446
000000b0: cc54 0b46 ea3f 9a46 b458 8848 a057 5146
000000c0: 81be ea45 65d7 5a46 c64f 1b48 0e09 4146
000000d0: ad99 a645 aacf 3b46 0abf 1648 47c8 0746
000000e0: 84b2 c845 c40f 6346 4558 5348 7fc3 1b46
000000f0: 494c 1746 edbb 9446 755f 7d48 bff8 4946
00000100: 63de 7b45 ead5 ef45 72c2 d747 4769 af45
00000110: 3849 1946 95d8 b046 089a 9348 c139 6746
00000120: 0000 0000 0000 0000 0000 0000 0000 0000
00000130: b51c 0245 2385 6645 9065 4b47 cb20 2845
00000140: a4da 1646 a056 9446 0e85 8148 2e98 5146
00000150: 30c0 a245 7b09 0b46 f8da 0548 c37e bd45
00000160: 9943 1e46 227e b146 ad48 9648 8755 6946
00000170: 39f4 2346 15d0 b746 49b8 9f48 60b5 7946

exp_avg f4 [24]
-56.684834 -7.7412715 -19.244623 -1.6507535 -72.90849 -33.51102 -46.35804 -27.469221
2.734085 -10.035252 -50.18257 -52.241188 -59.061867 -38.722485 -55.31818 -48.20219
-28.570986 -53.550797 0.0 -17.369308 -49.82593 7.62717 -51.21769 -55.57269
00000000: 45bd 62c2 7fb8 f7c0 fdf4 99c1 e44b d3bf
00000010: 26d1 91c2 490b 06c2 a26e 39c2 f7c0 dbc1
00000020: 40fb 2e40 6490 20c1 f4ba 48c2 faf6 50c2
00000030: 5a3f 6cc2 d3e3 1ac2 d145 5dc2 0bcf 40c2
00000040: 6191 e4c1 0434 56c2 0000 0000 58f4 8ac1
00000050: c14d 47c2 c711 f440 eade 4cc2 6f4a 5ec2

exp_avg_sq f4 [24]
16041.326 1416.3928 3830.8787 5734.865 25521.57 6391.7715 10500.727 5180.4565
3817.6633 1861.6038 13568.497 13397.908 12354.267 8690.074 9968.874 12926.187
5613.159 14798.439 0.0 2690.0513 13414.05 6063.8447 14933.384 15981.346
00000000: 4ea5 7a46 920c b144 0f6e 6f45 ec36 b345
00000010: 2463 c746 2cbe c745 e812 2446 a7e3 a145
00000020: 9d9a 6e45 52b3 e844 fd01 5446 a257 5146
00000030: 1109 4146 4cc8 0746 7fc3 1b46 bff8 4946
00000040: 4669 af45 c239 6746 0000 0000 d220 2845
00000050: 3398 5146 c27e bd45 8955 6946 62b5 7946

exp_avg f4 [36, 24]
1.3700911e-23 5.7397456e-24 2.2275537e-24 2.3058442e-23 9.21853e-24 1.9963502e-24 1.4340642e-24 2.7854852e-23
1.7217533e-23 7.2037757e-25 1.6012529e-23 5.944924e-24 1.820197e-24 2.3935915e-24 3.5049118e-24 1.1981244e-23
1.6185354e-23 2.5144014e-24 0.0 2.07646e-23 2.8815158e-23 1.2812719e-23 4.1229137e-25 2.3414037e-24
6.661496e-24 7.174942e-26 9.275697e-26 3.369644e-24 7.468015e-24 5.890815e-26 2.353845e-25 4.388549e-24
1.5030658e-24 4.6212793e-27 3.2314535e-24 2.7220247e-24 3.3756285e-25 3.6653404e-25 8.0479373e-25 2.6695499e-24
1.8112313e-24 1.5141725e-24 0.0 2.2918888e-24 9.193555e-24 7.9613386e-25 9.483697e-26 5.088327e-25
-1.6765958 -0.7428771 -9.738066 7.264204 -8.165107 -7.8268957 -6.653265 -3.1044376
7.322872 -3.762093 -3.4611082 -22.061693 -10.506202 -7.4243474 -16.641073 -2.5294147
-3.5892522 -14.986558 0.0 1.4728725 -8.972343 7.5706577 -15.898338 -17.285994
0.0 0.0 0.0 0.0 0.0 0.0 0.0 0.0
0.0 0.0 0.0 0.0 0.0 0.0 0.0 0.0
0.0 0.0 0.0 0.0 0.0 0.0 0.0 0.0
-1.7589166 -0.77890426 -10.208785 7.610881 -8.558203 -8.206107 -6.9811277 -3.2528915
7.674025 -3.94256 -3.6269586 -23.127083 -11.019017 -7.7896743 -17.447704 -2.6525655
-3.760822 -15.712969 0.0 1.5421386 -9.402839 7.9362764 -16.662916 -18.12035
-1.459097 -0.64460707 -8.718734 6.5531664 -7.281452 -7.0290713 -5.9937835 -2.7283907
6.5991664 -3.3473144 -3.063973 -19.78008 -9.447032 -6.688331 -14.931983 -2.2322319
-3.170604 -13.440692 0.0 1.3605406 -7.9972167 6.821631 -14.233708 -15.491537
-1.4704679 -0.64996594 -8.744876 6.5647063 -7.30825 -7.046264 -6.004769 -2.7454293
6.6118846 -3.360976 -3.0790994 -19.834667 -9.467832 -6.7006583 -14.970962 -2.244326
-3.1875682 -13.476861 0.0 1.3576092 -8.027541 6.834826 -14.276768 -15.535453
-1.4889722 -0.65853024 -8.827389 6.622674 -7.381565 -7.1097097 -6.054221 -2.7782774
6.6703234 -3.3958414 -3.113113 -20.019064 -9.550017 -6.756112 -15.107286 -2.2691054
-3.2237425 -13.6004715 0.0 1.3662151 -8.109167 6.8941445 -14.413305 -15.680875
0.0 0.0 0.0 0.0 0.0 0.0 0.0 0.0
0.0 0.0 0.0 0.0 0.0 0.0 0.0 0.0
0.0 0.0 0.0 0.0 0.0 0.0 0.0 0.0
-1.7444297 -0.77245533 -10.15061 7.573248 -8.506723 -8.161802 -6.944728 -3.2291982
7.635068 -3.918224 -3.6030247 -22.99834 -10.960252 -7.7490816 -17.35141 -2.6340396
-3.7351959 -15.625628 0.0 1.5379696 -9.345934 7.895391 -16.568394 -18.018867
-1.4148307 -0.62546736 -8.428197 6.3310223 -7.042997 -6.7915773 -5.7860813 -2.6445515
6.3755393 -3.2389462 -2.966682 -19.117968 -9.124462 -6.4568515 -14.429223 -2.1612504
00000000: d081 8419 b00b de18 3f59 2c18 f001 df19
00000010: f34f 3219 ca75 1a18 23e9 dd17 a3b2 061a
00000020: 8c84 a619 31f2 5e17 1add 9a19 adfb e518
00000030: b7d4 0c18 f731 3918 f796 8718 3fc0 6719
00000040: ff88 9c19 da8a 4218 0000 0000 a9d2 c819
00000050: 7057 0b1a 83d5 7719 2d32 ff16 4728 3518
00000060: 21da 0019 99a4 b115 b7a7 e515 565b 8218
00000070: d273 1019 7ad9 9115 2ab2 9116 16c6 a918
00000080: 9296 e817 5711 b713 8805 7a18 419b 5218
00000090: f8f0 d016 a3df e216 5412 7917 e28b 4e18
000000a0: 2223 0c18 8d4e ea17 0000 0000 8953 3118
000000b0: 48d4 3119 3964 7617 12ce ea15 e179 1d17
000000c0: b19a d6bf 322d 3ebf 1ecf 1bc1 5c74 e840
000000d0: 47a4 02c1 ee75 fac0 8ce7 d4c0 1baf 46c0
000000e0: f854 ea40 22c6 70c0 cc82 5dc0 597e b0c1
000000f0: 6719 28c1 4194 edc0 eb20 85c1 eee1 21c0
00000100: 4fb6 65c0 f1c8 6fc1 0000 0000 1687 bc3f
00000110: b88e 0fc1 d442 f240 985f 7ec1 b749 8ac1
00000120: 0000 0000 0000 0000 0000 0000 0000 0000
00000130: 0000 0000 0000 0000 0000 0000 0000 0000
00000140: 0000 0000 0000 0000 0000 0000 0000 0000
00000150: 0000 0000 0000 0000 0000 0000 0000 0000
00000160: 0000 0000 0000 0000 0000 0000 0000 0000
00000170: 0000 0000 0000 0000 0000 0000 0000 0000
00000180: 2e24 e1bf 4566 47bf 2f57 23c1 568c f340
00000190: 66ee 08c1 374c 03c1 6665 dfc0 602f 50c0
000001a0: 9d91 f540 e752 7cc0 1720 68c0 4404 b9c1
000001b0: e54d 30c1 0345 f9c0 e694 8bc1 a2c3 29c0
000001c0: 4fb1 70c0 5268 7bc1 0000 0000 cc64 c53f
000001d0: 0772 16c1 faf5 fd40 a74d 85c1 7af6 90c1
000001e0: b1c3 babf f804 25bf ef7f 0bc1 8ab3 d140
000001f0: a801 e9c0 27ee e0c0 13cd bfc0 f49d 2ec0
00000200: 5f2c d340 663a 56c0 2218 44c0 9b3d 9ec1
00000210: 0b27 17c1 cf06 d6c0 67e9 6ec1 e3dc 0ec0
00000220: 2deb 4ac0 130d 57c1 0000 0000 3226 ae3f
00000230: 33e9 ffc0 cd4a da40 45bd 63c1 56dd 77c1
00000240: 4b38 bcbf 2b64 26bf 03eb 0bc1 1312 d240
00000250: 2fdd e9c0 ff7a e1c0 1127 c0c0 1db5 2fc0
00000260: 8f94 d340 3b1a 57c0 f70f 45c0 66ad 9ec1
00000270: 3d7c 17c1 cb6b d6c0 0f89 6fc1 0aa3 0fc0
00000280: 1e01 4cc0 39a1 57c1 0000 0000 23c6 ad3f
00000290: cf70 00c1 e5b6 da40 a46d 64c1 3791 78c1
000002a0: a496 bebf 7095 28bf fc3c 0dc1 f2ec d340
000002b0: c835 ecc0 be82 e3c0 2ebc c1c0 4ccf 31c0
000002c0: 4a73 d540 7755 59c0 3e3d 47c0 0b27 a0c1
000002d0: dfcc 18c1 1232 d8c0 72b7 71c1 0639 11c0
000002e0: cc51 4ec0 889b 59c1 0000 0000 23e0 ae3f
000002f0: 26bf 01c1 d59c dc40 e69c 66c1 dde4 7ac1
00000300: 0000 0000 0000 0000 0000 0000 0000 0000
00000310: 0000 0000 0000 0000 0000 0000 0000 0000
00000320: 0000 0000 0000 0000 0000 0000 0000 0000
00000330: 0000 0000 0000 0000 0000 0000 0000 0000
00000340: 0000 0000 0000 0000 0000 0000 0000 0000
00000350: 0000 0000 0000 0000 0000 0000 0000 0000
00000360: 7949 dfbf a2bf 45bf e668 22c1 0c58 f240
00000370: 8a1b 08c1 be96 02c1 363b dec0 2fab 4ec0
00000380: 7a52 f440 2fc4 7ac0 f597 66c0 9afc b7c1
00000390: 315d 2fc1 7af8 f7c0 b0cf 8ac1 1b94 28c0
000003a0: 730d 6fc0 9302 7ac1 0000 0000 30dc c43f
000003b0: f288 15c1 0ba7 fc40 128c 84c1 a426 90c1
000003c0: 2c19 b5bf a11e 20bf e5d9 06c1 bc97 ca40
000003d0: 3b60 e1c0 9a54 d9c0 9427 b9c0 5540 29c0
000003e0: 6b04 cc40 e54a 4fc0 1ede 3dc0 99f1 98c1
000003f0: ccfd 11c1 879e cec0 19de 66c1 ed51 0ac0

exp_avg_sq f4 [36, 24]
0.018337961 0.003240997 0.0011452194 0.050201405 0.008372724 0.00075415394 0.00044370897 0.0707095
0.02785521 4.0112867e-05 0.024161234 0.0075113755 0.00066543353 0.0011182004 0.0025442797 0.013724886
0.023534264 0.0013484949 0.0 0.039654285 0.07702768 0.016457133 4.7816444e-05 0.0013540114
0.0024330402 1.2561827e-06 2.4202554e-06 0.0006821604 0.0030753748 9.4254057e-07 2.5747756e-06 0.0012568972
0.00015258299 3.770392e-09 0.00065309094 0.00050866726 1.1957022e-05 6.9759203e-06 5.5304616e-05 0.00037460416
0.00025534187 0.00013409632 0.0 0.0003447091 0.0053710924 3.95254e-05 1.2210623e-06 1.4106134e-05
800.7477 181.21886 268.82825 589.0617 778.61597 223.33627 364.085 743.2506
441.37082 208.04396 523.25037 956.2535 455.02875 408.9637 512.2373 527.94025
549.34186 611.9492 0.0 498.15247 755.1973 405.30795 471.7178 642.7114
0.0 0.0 0.0 0.0 0.0 0.0 0.0 0.0
0.0 0.0 0.0 0.0 0.0 0.0 0.0 0.0
0.0 0.0 0.0 0.0 0.0 0.0 0.0 0.0
875.83276 198.07793 291.98834 645.4844 850.9648 242.60933 394.87216 815.0849
483.62433 227.14886 571.9785 1042.3663 494.62552 444.3231 557.57996 576.73846
601.6076 666.25726 0.0 545.7488 826.81384 443.71487 512.561 699.64294
647.1796 146.31061 218.7194 473.8288 630.3953 180.42516 294.99402 599.8258
354.7109 168.52435 423.45477 774.938 368.35284 331.32956 415.2051 427.22113
443.9918 496.48343 0.0 401.5311 611.0873 325.7638 383.4296 521.76416
645.77924 145.74016 219.1304 472.08295 629.23785 180.59729 295.70163 597.57825
353.23505 168.0771 422.4862 774.9784 368.83435 331.79745 415.48715 426.5078
442.51895 496.8051 0.0 400.0272 609.5711 324.50296 384.16806 522.16943
664.09827 149.86162 225.46419 486.24527 646.3404 186.51443 305.1513 613.75934
363.96295 172.62843 434.11267 796.4786 379.91693 341.9219 427.4264 438.60535
454.40857 510.83585 0.0 411.43625 625.7557 334.51144 395.5131 536.8294
0.0 0.0 0.0 0.0 0.0 0.0 0.0 0.0
0.0 0.0 0.0 0.0 0.0 0.0 0.0 0.0
0.0 0.0 0.0 0.0 0.0 0.0 0.0 0.0
861.5209 194.67618 288.32794 633.5894 838.0235 238.95964 389.31567 801.08496
474.47 223.64326 562.9195 1027.669 487.48367 437.9738 549.6801 567.6375
591.685 657.02716 0.0 536.0971 813.8347 435.2921 505.9387 690.1638
616.2155 139.79904 207.66347 452.62225 599.5136 172.11697 281.0309 571.4708
339.23438 160.55559 403.15155 736.42377 350.8248 315.53687 394.87988 406.6971
00000000: 7e39 963c e866 543b 301b 963a fd9f 4d3d
00000010: c02d 093c 6ab2 453a 9ca1 e839 24d0 903d
00000020: 9c30 e43c dd3e 2838 c8ed c53c fc21 f63b
00000030: 7d70 2e3a 9490 923a eebd 263b 58de 603c
00000040: eeca c03c fbbf b03a 0000 0000 886c 223d
00000050: b0c0 9d3d 1cd1 863c 848e 4838 1579 b13a
00000060: a473 1f3b 1c9a a835 ac6b 2236 02d3 323a
00000070: 3a8c 493b e502 7d35 4fca 2c36 79be a43a
00000080: affe 1f39 b88c 8131 3134 2b3a 1558 053a
00000090: 059b 4837 b312 ea36 e1f6 6738 8566 c439
000000a0: 68df 8539 359c 0c39 0000 0000 12ba b439
000000b0: fdff af3b 13c8 2538 62e3 a335 62a9 6c37
000000c0: da2f 4844 0738 3543 046a 8643 f343 1344
000000d0: 6ca7 4244 1656 5f43 e10a b643 0ad0 3944
000000e0: 77af dc43 410b 5043 06d0 0244 3910 6f44
000000f0: ae83 e343 5b7b cc43 300f 0044 2dfc 0344
00000100: e155 0944 c0fc 1844 0000 0000 8413 f943
00000110: a1cc 3c44 6ba7 ca43 e1db eb43 88ad 2044
00000120: 0000 0000 0000 0000 0000 0000 0000 0000
00000130: 0000 0000 0000 0000 0000 0000 0000 0000
00000140: 0000 0000 0000 0000 0000 0000 0000 0000
00000150: 0000 0000 0000 0000 0000 0000 0000 0000
00000160: 0000 0000 0000 0000 0000 0000 0000 0000
00000170: 0000 0000 0000 0000 0000 0000 0000 0000
00000180: 4cf5 5a44 f313 4643 82fe 9143 005f 2144
00000190: bfbd 5444 fd9b 7243 a36f c543 6fc5 4b44
000001a0: eacf f143 1c26 6343 a0fe 0e44 b94b 8244
000001b0: 1150 f743 5b29 de43 1e65 0b44 432f 1044
000001c0: e366 1644 7790 2644 0000 0000 ec6f 0844
000001d0: 16b4 4e44 81db dd43 e723 0044 26e9 2e44
000001e0: 7fcb 2144 844f 1243 2bb8 5a43 16ea ec43
000001f0: 4d99 1d44 d76c 3443 3c7f 9343 daf4 1544
00000200: ff5a b143 3c86 2843 36ba d343 08bc 4144
00000210: 2a2d b843 2faa a543 419a cf43 4e9c d543
00000220: f3fe dd43 e13d f843 0000 0000 fbc3 c843
00000230: 96c5 1844 c4e1 a243 fdb6 bf43 e870 0244
00000240: df71 2144 7bbd 1143 6221 5b43 9e0a ec43
00000250: 394f 1d44 e898 3443 cfd9 9343 0265 1544
00000260: 169e b043 bd13 2843 3c3e d343 9ebe 4144
00000270: cc6a b843 13e6 a543 5bbe cf43 0041 d543
00000280: 6d42 dd43 0e67 f843 0000 0000 7b03 c843
00000290: 8d64 1844 6140 a243 8315 c043 d88a 0244
000002a0: 4a06 2644 93dc 1543 d576 6143 651f f343
000002b0: c995 2144 b283 3a43 5e93 9843 9970 1944
000002c0: 42fb b543 e1a0 2c43 6c0e d943 a11e 4744
000002d0: 5ef5 bd43 01f6 aa43 94b6 d543 7c4d db43
000002e0: 4c34 e343 fd6a ff43 0000 0000 d7b7 cd43
000002f0: 5d70 1c44 7741 a743 adc1 c543 1535 0644
00000300: 0000 0000 0000 0000 0000 0000 0000 0000
00000310: 0000 0000 0000 0000 0000 0000 0000 0000
00000320: 0000 0000 0000 0000 0000 0000 0000 0000
00000330: 0000 0000 0000 0000 0000 0000 0000 0000
00000340: 0000 0000 0000 0000 0000 0000 0000 0000
00000350: 0000 0000 0000 0000 0000 0000 0000 0000
00000360: 5661 5744 1aad 4243 fa29 9043 b965 1e44
00000370: 8181 5144 abf5 6e43 68a8 c243 7045 4844
00000380: 293c ed43 ada4 5f43 d9ba 0c44 6875 8044
00000390: e9bd f343 a5fc da43 876b 0944 cde8 0d44
000003a0: d7eb 1344 bd41 2444 0000 0000 3706 0644
000003b0: 6c75 4b44 64a5 d943 27f8 fc43 7c8a 2c44
000003c0: cb0d 1a44 8ecc 0b43 d9a9 4f43 a64f e243
000003d0: dfe0 1544 f21d 2c43 f583 8c43 22de 0e44
000003e0: 009e a943 3b8e 2043 6693 c943 1f1b 3844
000003f0: 9369 af43 b8c4 9d43 a070 c543 3b59 cb43

exp_avg f4 [36]
1.8610494e-23 9.982162e-24 -4.0265746 0.0 -4.220852 -3.6071408 -3.6176026 -3.6517406
0.0 -4.197048 -3.4868236 -4.36312 -4.5094433 1.1904629e-23 8.420175e-24 -3.6862273
-3.9154139 -4.316765 4.182611e-24 9.881677e-24 -2.8603444 -4.4328256 7.9204625e-24 -4.0912085
1.5491103e-24 -4.38904 6.276055e-16 6.4534174e-24 -3.9549544 -3.5287 0.0 -3.5215228
-4.0843606 1.4277597e-23 -4.6113687 5.7320173e-23
00000000: 5afd b319 4615 4119 b3d9 80c0 0000 0000
00000010: 3811 87c0 65db 66c0 cd86 67c0 1eb6 69c0
00000020: 0000 0000 384e 86c0 1e28 5fc0 ae9e 8bc0
00000030: 5c4d 90c0 de44 6619 b0de 2219 26eb 6bc0
00000040: 2496 7ac0 f022 8ac0 93ce a118 b223 3f19
00000050: e20f 37c0 b5d9 8dc0 3b34 1919 2eeb 82c0
00000060: 95b6 ef17 0473 8cc0 1de5 3426 8da7 f918
00000070: f91d 7dc0 39d6 61c0 0000 0000 a160 61c0
00000080: 15b3 82c0 9e15 8a19 5590 93c0 7897 8a1a

exp_avg_sq f4 [36]
0.03537745 0.0056082304 82.34153 0.0 91.724976 65.60418 64.90379 66.2677
0.0 89.898056 62.421104 97.85703 100.391045 0.007747612 0.0058721695 68.75912
76.74745 93.18723 0.0013306219 0.007573782 44.033978 99.37198 0.0061760778 83.729706
0.00067504606 97.58229 1.4117243 0.004494161 79.69791 64.28385 0.0 62.962982
82.39862 0.023159342 105.90157 0.1048518
00000000: f2e7 103d 3fc5 b73b ddae a442 0000 0000
00000010: 3073 b742 5735 8342 bece 8142 1089 8442
00000020: 0000 0000 cecb b342 36af 7942 cdb6 c342
00000030: 37c8 c842 aedf fd3b 546b c03b ab84 8942
00000040: b27e 9942 dd5f ba42 4368 ae3a 7d2d f83b
00000050: cb22 3042 74be c642 b260 ca3b 9c75 a742
00000060: 93f5 303a 222a c342 62b3 b43f c143 933b
00000070: 5465 9f42 5591 8042 0000 0000 18da 7b42
00000080: 18cc a442 a9b8 bd3c 9bcd d342 8abc d63d

exp_avg f4 [1, 36]
2.234974e-23 6.731544e-24 139.36792 0.0 129.22028 151.76561 146.53802 146.19153
0.0 132.7813 146.18892 129.96884 146.31328 1.1232081e-23 5.0670088e-23 135.78654
152.82188 149.93484 1.5802081e-24 1.045206e-23 94.7499 145.79749 1.4156032e-23 155.19778
1.6882972e-24 143.20387 -9.832704e-15 3.5883776e-24 139.88548 126.826744 0.0 126.619545
151.30365 1.7862684e-23 139.40933 1.313397e-22
00000000: 4727 d819 fe34 0219 305e 0b43 0000 0000
00000010: 6438 0143 ffc3 1743 bc89 1243 0831 1243
00000020: 0000 0000 03c8 0443 5d30 1243 06f8 0143
00000030: 3350 1243 9242 5919 8806 751a 5bc9 0743
00000040: 67d2 1843 52ef 1543 7e86 f417 182c 4a19
00000050: f37f bd42 28cc 1143 a3e8 8819 a232 1b43
00000060: 2ca0 0218 3134 0f43 5821 31a8 92d1 8a18
00000070: afe2 0b43 4ba7 fd42 0000 0000 353d fd42
00000080: bc4d 1743 ddc1 ac19 ca68 0b43 abc7 1e1b

exp_avg_sq f4 [1, 36]
0.06158431 0.002925125 127031.99 0.0 137018.25 160245.64 150157.66 127111.32
0.0 137611.84 143496.0 139319.95 124134.3 0.0065958896 0.21737522 108016.69
118295.81 155684.83 0.00020871786 0.012582998 78638.45 146293.94 0.030430263 137769.81
0.00080180244 144338.95 659.30115 0.0017516707 142015.34 128560.76 0.0 127188.86
132926.05 0.049882166 139377.36 0.6620762
00000000: d43f 7c3d 74b3 3f3b ff1b f847 0000 0000
00000010: 90ce 0548 697d 1c48 6aa3 1248 a943 f847
00000020: 0000 0000 f662 0648 0022 0c48 fd0d 0848
00000030: 2673 f247 5522 d83b 9c97 5e3e 58f8 d247
00000040: e80b e747 3509 1848 46db 5a39 eb28 4e3c
00000050: 3a97 9947 7cdd 0e48 e348 f93c 748a 0648
00000060: 0d30 523a bdf4 0c48 46d3 2444 5198 e53a
00000070: d6af 0a48 6118 fb47 0000 0000 6e6a f847
00000080: 83cf 0148 3e51 4c3d 571c 0848 d37d 293f
